classifier/cifar_net.pth (torch, 250887 bytes, 10 tensors)

conv1.weight f4 [6, 3, 5, 5]
0	0x3e99c5f8	0.3003385
1	0x3f2955e6	0.66146696
2	0x3f369dd9	0.71334606
3	0x3f2b01bc	0.6679952
4	0x3f006e8e	0.50168693
5	0x3ca44210	0.020051032
6	0x3e253a9b	0.16135637
7	0x3eda1fba	0.4260233
8	0x3e7d019e	0.24707648
9	0x3e3abcc9	0.18236078
10	0xbe850c64	-0.25986016
11	0xbe9843be	-0.29739183
12	0xbeeb1a66	-0.45918578
13	0xbe8b6549	-0.27225712
14	0xbe8ba12c	-0.27271402
15	0xbd2028af	-0.0391013
16	0xbe9fd422	-0.31216532
17	0xbecfdfd3	-0.40600452
18	0xbe5bea30	-0.21476054
19	0xbd290e5b	-0.041273456
20	0xbc3b1fd5	-0.011421164
21	0x3c9575e6	0.018244695
22	0xbdb3d69a	-0.087811664
23	0xbd33174c	-0.04372339
24	0xbe1a6281	-0.15076639
25	0xbe05ad13	-0.13054304
26	0x3d481994	0.04885252
27	0x3d085c36	0.033291064
28	0x3e1ca148	0.15295899
29	0x3d5c2536	0.053746425
30	0xbe652a00	-0.22379303
31	0xbdc71611	-0.09721006
32	0xbd538063	-0.05163611
33	0xbde75120	-0.1129477
34	0xbe8e1fe9	-0.2775872
35	0xbe91d60c	-0.28483617
36	0xbf0c0c2b	-0.54706067
37	0xbf292e91	-0.6608668
38	0xbef925c4	-0.48661625
39	0xbed61f05	-0.4182054
40	0x3c6dd893	0.014516967
41	0xbd85127a	-0.06497665
42	0xbe0626cb	-0.13100736
43	0x3ba78d1a	0.005113256
44	0xbce38178	-0.027771696
45	0x3e9fc683	0.3120614
46	0x3eaf69fe	0.34260553
47	0x3eb196cb	0.34685358
48	0x3e73939f	0.23786782
49	0x3d972f67	0.07382088
50	0xbdc66b64	-0.09688452
51	0x3df616db	0.12016078
52	0x3e5c95a3	0.21541457
53	0x3d25eedb	0.040510993
54	0x3db9d9c2	0.09074737
55	0x3daf42da	0.08557673
56	0x3db60a85	0.08888725
57	0x3da27776	0.079329416
58	0x3cee15a6	0.029063057
59	0x3dc18947	0.09450012
60	0xbe143198	-0.14472044
61	0xbe36c3c6	-0.17848119
62	0xbe8205c2	-0.25395018
63	0xbe0a1d8c	-0.13487834
64	0xbe105f63	-0.14098887
65	0x3e1ebcf0	0.15501761
66	0x3cca9407	0.024728788
67	0x3dec9cf0	0.11553371
68	0x3d728e77	0.059217896
69	0x3d0c74c3	0.03429104
70	0x3d8599a3	0.065234445
71	0x3eb0e716	0.34551305
72	0x3ea9e658	0.3318355
73	0x3e698c77	0.2280749
74	0xbd33b886	-0.043877147
75	0xbd823454	-0.06357637
76	0x3cd0487b	0.025425186
77	0xbe048ab3	-0.12943535
78	0xbd9ec553	-0.0775248
79	0x3d22cdc3	0.03974701
80	0xbdcbd490	-0.099526525
81	0xbe07ce8e	-0.13262388
82	0x3e0f7045	0.14007671
83	0xbe240fc7	-0.16021644
84	0xbe1c05c0	-0.15236568
85	0xbea60fca	-0.3243392
86	0x3e5a5203	0.21320347
87	0xbd298e23	-0.041395318
88	0xbe91e2c5	-0.28493324
89	0x3da3a021	0.079895265
90	0x3e117e6a	0.1420838
91	0x3ef1944d	0.47183457
92	0xbf26935d	-0.6506861
93	0xbf0ba043	-0.54541415
94	0x3e0bae41	0.13640691
95	0x3db66fd8	0.08908051
96	0xbe5ed571	-0.21761109
97	0xbef3c8e2	-0.476142
98	0x3daba110	0.083803296
99	0xbd1b2e84	-0.037886158
100	0x3e1115a7	0.14168416
101	0x3e4a6085	0.19763382
102	0x3dcb22ed	0.09918771
103	0x3e0d23f3	0.13783245
104	0x3daa2e10	0.08309567
105	0x3c7db1b4	0.015484262
106	0x3c0c172a	0.008550445
107	0x3e6dce21	0.23223163
108	0x3d3d15bf	0.046163317
109	0x3dbeebf9	0.09322352
110	0x3dccafbf	0.099944584
111	0x3ef2a7c3	0.47393617
112	0xbc779436	-0.01511102
113	0xbe789fab	-0.24279658
114	0x3e2220fd	0.15832897
115	0x3edfe1f3	0.43727073
116	0x3f3c8313	0.73637503
117	0xbee7a74a	-0.4524482
118	0xbe9d17c2	-0.30682188
119	0x3ea4ed17	0.32212135
120	0x3e84a686	0.25908297
121	0x3cf059c8	0.029339686
122	0xbee32a91	-0.44368413
123	0x3e6e56e6	0.23275337
124	0x3dd9554c	0.10611972
125	0xbcad55f1	-0.021159144
126	0xbdafa9e2	-0.085773245
127	0xbda75f27	-0.08172446
128	0xbdf59fd1	-0.11993373
129	0xbdfdf633	-0.124004744
130	0xbdb81252	-0.08987869
131	0xbe192eb9	-0.1495923
132	0x3e4ff549	0.20308413
133	0x3de01789	0.10941989
134	0xbe1f1c5e	-0.15538165
135	0xbe7fbc63	-0.24974208
136	0x3e6940be	0.22778603
137	0x3d69aeca	0.057051457
138	0xbe76c924	-0.24100167
139	0x3de9c123	0.11413791
140	0x3d21e12a	0.039521374
141	0x3f1153fa	0.56768763
142	0xbf1042b1	-0.56351763
143	0xbe931e72	-0.28734165
144	0x3e9d3087	0.30701086
145	0x3d88e47d	0.06684206
146	0xbdf3e664	-0.11909178
147	0xbee66662	-0.44999987
148	0x3d0aff97	0.033935156
149	0x39f44030	0.0004658713
150	0xbe7d15cc	-0.24715346
151	0xbd918012	-0.071045056
152	0x3d8972fc	0.06711385
153	0x3d5c7a36	0.053827487
154	0x3dab7fa7	0.08373957
155	0xbdf9502a	-0.12173493
156	0xbd1b9351	-0.03798229
157	0x3e0c4271	0.1369722
158	0x3d880d8f	0.06643211
159	0x3ce7a8c2	0.028278712
160	0xbdcf6874	-0.10127345
161	0xbd2f94a9	-0.042866383
162	0x3e0d845d	0.13820024
163	0x3cc07ad2	0.023496065
164	0x3c9bd378	0.019021735
165	0xbd83ded4	-0.064389855
166	0x3df88e53	0.12136521
167	0x3e418c03	0.18901066
168	0x3d8e44a4	0.06946686
169	0xbb68b43a	-0.0035507814
170	0x3d763811	0.060112063
171	0x3dd3d6b8	0.10343689
172	0xbc557cbc	-0.013030227
173	0xbd8ffa40	-0.07030153
174	0xbd6deb1f	-0.058085557
175	0xbddf0fa5	-0.10891656
176	0xbe2f2301	-0.17103197
177	0x3da3effd	0.080047585
178	0x3c6ed7a2	0.014577778
179	0x3de2ef17	0.11080759
180	0xbe651d29	-0.22374405
181	0xbd62e294	-0.055391863
182	0xbdba9263	-0.09109952
183	0x3da72419	0.08161182
184	0x3d813dd2	0.063106194
185	0xbd49cc6f	-0.04926723
186	0xbd886416	-0.06659715
187	0xbd04123d	-0.032243956
188	0x3d40a264	0.047029868
189	0x3b962d07	0.0045830044
190	0xbd63856e	-0.05554717
191	0xbba0d65f	-0.0049083675
192	0xbdd189f0	-0.102313876
193	0xbdaca14f	-0.08429205
194	0xbdae9b0c	-0.085256666
195	0xbe4a8445	-0.1977702
196	0xbdc51590	-0.09623253
197	0xbdbbedc2	-0.09176208
198	0x3cbed062	0.023292724
199	0xbe0d620b	-0.13806932
200	0x3d87e7c9	0.066360064
201	0x3d9d6640	0.07685518
202	0x3e7de38d	0.24793835
203	0x3ee964d8	0.4558475
204	0x3e89bf12	0.26903588
205	0xbdae0586	-0.08497147
206	0x3e0f4e40	0.13994694
207	0x3e858720	0.26079655
208	0x3eb2ac75	0.348972
209	0x3e585742	0.21127036
210	0xbd9a19c9	-0.075244494
211	0x3dfa7b59	0.12230558
212	0x3de4d3f7	0.111732416
213	0x3e666cd4	0.22502452
214	0xbd3332bc	-0.043749556
215	0x3cbe3921	0.0232206
216	0xbcf5642b	-0.02995499
217	0x3d029609	0.031881366
218	0x3da8d758	0.082441986
219	0xbda33d15	-0.07970635
220	0x3d9975c2	0.07493164
221	0xbd03c567	-0.03217068
222	0x3dfc38dd	0.12315533
223	0x3d2b409d	0.041809667
224	0xbdb80099	-0.08984489
225	0x3ea6c9a8	0.32575727
226	0x3f0345cc	0.51278377
227	0x3e25e578	0.16200817
228	0xbdc4a7c6	-0.09602313
229	0x3db02901	0.08601571
230	0x3e4ff405	0.2030793
231	0x3ea33cba	0.31882268
232	0xbeb3c16d	-0.3510851
233	0xbe988700	-0.29790497
234	0x3e7e0046	0.24804792
235	0x3e806bc3	0.25082216
236	0x3c598ac7	0.013277716
237	0xbeeb8403	-0.45999154
238	0xbd5aeeae	-0.05345028
239	0x3e859793	0.26092204
240	0xbd3311be	-0.043718092
241	0xbe0010bf	-0.12506388
242	0xbe79f333	-0.2440918
243	0xbd8bdc66	-0.06829147
244	0x3e0a0cf0	0.13481498
245	0xbe598db0	-0.21245456
246	0xbe157fcf	-0.14599536
247	0xbdf4a429	-0.119453736
248	0xbd479e19	-0.048734758
249	0xbd4ce25e	-0.050020568
250	0xbdfb5065	-0.122711934
251	0xbbad7c8d	-0.0052943886
252	0xbe9c7d28	-0.30564237
253	0xbf120708	-0.5704198
254	0xbe335122	-0.17511418
255	0x3db3997b	0.087695085

conv1.bias f4 [6]
0	0xbefaf9d3	-0.49018726
1	0x3c8902a0	0.016724885
2	0x3d1999a7	0.03750005
3	0xbebf9a55	-0.37422433
4	0xbe995e6c	-0.2995485
5	0x3e8f6f97	0.28014824

conv2.weight f4 [16, 6, 5, 5]
0	0xbd887bf6	-0.06664269
1	0x3c097f88	0.008392222
2	0x3ba0be9e	0.004905536
3	0xbc6d79fe	-0.014494417
4	0xbd2688f7	-0.040657964
5	0xbdaf7b37	-0.08568423
6	0xbdc3daad	-0.095631935
7	0xbd792762	-0.060828574
8	0xbd0dc075	-0.03460737
9	0xbc94dffb	-0.018173208
10	0xbd808a69	-0.062764
11	0xbdbc5a4d	-0.09196911
12	0xbd2900db	-0.04126058
13	0x3ca4fd26	0.020140242
14	0xbd6e4bc9	-0.058177743
15	0xbe128fd4	-0.14312679
16	0xbce39873	-0.027782654
17	0xbb86a470	-0.004108958
18	0xbda3ff2c	-0.080076545
19	0x3ad015a0	0.0015875585
20	0x3e190c74	0.14946157
21	0x3e445f55	0.19176991
22	0xbd51671f	-0.051123735
23	0xbdeefc62	-0.11669232
24	0xbe13a7db	-0.144195
25	0x3d463895	0.048393805
26	0x3c562d92	0.013072388
27	0x3bfebd65	0.0077740424
28	0x3e2a3c14	0.1662448
29	0x3e360e77	0.17778955
30	0xbc7d4e77	-0.015460602
31	0x3c4854e8	0.0122272745
32	0x3d9b3c36	0.07579844
33	0x3da56e5a	0.080776885
34	0xbdf075b0	-0.11741197
35	0xbe16dca8	-0.14732611
36	0x3ce4df09	0.027938383
37	0x3e389b09	0.18027891
38	0x3c3d1718	0.0115411505
39	0x3d8de029	0.06927521
40	0xbd018e1f	-0.031629678
41	0x3dbf7d84	0.09350112
42	0xbc2d1f05	-0.010566478
43	0xbda4af99	-0.08041305
44	0x3cceba8c	0.025235437
45	0x3cb621d6	0.022232931
46	0xbe9185e7	-0.28422472
47	0xbe8f0259	-0.2793148
48	0x3a85490b	0.0010168863
49	0x3dd71c1f	0.105034105
50	0x3dabec4e	0.08394681
51	0x3d8993cf	0.067176454
52	0xbb5cebb7	-0.0033709833
53	0x3d23cb7c	0.03998898
54	0xbdde6345	-0.10858778
55	0xbb5c28f3	-0.0033593744
56	0x3cdea2a4	0.027177162
57	0xbba44d96	-0.005014132
58	0xbd7e14cc	-0.062031552
59	0xbddf2604	-0.10895923
60	0xbdf45ee9	-0.11932165
61	0xbd4ee417	-0.050510492
62	0xbd28c3db	-0.041202407
63	0xbd7f8ec1	-0.062392
64	0xbd4f5d8a	-0.050626315
65	0xbb7fbbd6	-0.003902187
66	0xbcc73f0a	-0.024322052
67	0xbe3e4205	-0.18579872
68	0xbc464d9d	-0.012103465
69	0xbd3a74fd	-0.045521725
70	0xbe0a028f	-0.13477539
71	0xbe08563e	-0.13314149
72	0x3c0ad4ca	0.008473584
73	0x3d7f8677	0.062384095
74	0x3b88b675	0.004172141
75	0xbd7ba9df	-0.0614413
76	0xbe07b977	-0.13254343
77	0xbda26fb2	-0.079314604
78	0xbe3b0416	-0.18263277
79	0xbdca4c88	-0.098778784
80	0xbd89ee26	-0.06734876
81	0xbe2d748d	-0.16938992
82	0xbe321d14	-0.17393905
83	0x3dcea7a1	0.100905664
84	0x3e39c8d3	0.18143015
85	0xbc0d09af	-0.008608266
86	0xbdcdf378	-0.100562036
87	0x3d8e511b	0.069490634
88	0x3eaeeefe	0.34166712
89	0x3d96b7dd	0.07359288
90	0xbe30be4c	-0.17260092
91	0x3d15f650	0.036611855
92	0x3ebcb760	0.36858654
93	0x3e3722b6	0.17884335
94	0x3d880d82	0.066432014
95	0x3d1ae474	0.037815526
96	0x3e989dd2	0.29807907
97	0x3d97ce79	0.074124284
98	0xb9ca5fca	-0.0003859981
99	0x3da1c439	0.078987546
100	0xbdd0101c	-0.101593226
101	0xbd65887e	-0.056038372
102	0xbde724d3	-0.112863205
103	0xbe0be113	-0.13660078
104	0x3d1d8d9b	0.038465124
105	0xbd863f5d	-0.06555054
106	0xbdc66741	-0.09687663
107	0xbd278fbd	-0.040908564
108	0x3c967d22	0.018370215
109	0x3d1b7c96	0.03796061
110	0xbdab894e	-0.08375798
111	0xbd9aeefa	-0.075651124
112	0xbc1950c4	-0.009357635
113	0xbe1c3781	-0.15255548
114	0x3d28fb96	0.041255556
115	0x3daf1fa1	0.085509546
116	0x3d5c3eb6	0.053770743
117	0xbd9f64b2	-0.07782878
118	0xbd7d10cb	-0.061783593
119	0x3c9dd91c	0.019268565
120	0x3d927c31	0.07152594
121	0x3d1f5dea	0.038907923
122	0xbd6d9d6f	-0.05801147
123	0x3d7b05bb	0.061284762
124	0x3e075d57	0.132192
125	0xbe019e58	-0.1265806
126	0x3c3acd1c	0.011401441
127	0x3ceb9131	0.028755756
128	0x3d1260cc	0.035736844
129	0x3e05f4cd	0.13081665
130	0xbe070bc9	-0.1318809
131	0x3cf0278b	0.02931573
132	0x3aeafeb1	0.0017928687
133	0x3c0c0748	0.008546658
134	0x3da6b6ac	0.08140311
135	0x3c07efd4	0.008296926
136	0xbdc26489	-0.09491832
137	0xbdc3b61c	-0.09556219
138	0xbda8417f	-0.082156174
139	0x3d893e56	0.06701343
140	0xbe17432d	-0.1477172
141	0xbe656657	-0.22402321
142	0xbe440b55	-0.19144948
143	0x3a5ae469	0.0008350076
144	0x3e417c21	0.18895008
145	0xbe770201	-0.24121858
146	0xbdd5172b	-0.104048096
147	0x3e10c0c2	0.14136031
148	0x3e82eaed	0.2556986
149	0x3e8aab34	0.27083743
150	0x3d3d6a35	0.046243865
151	0x3d1dfd5b	0.038571697
152	0x3db53a6e	0.08849035
153	0x3e21ad84	0.15788847
154	0x3db9383d	0.0904393
155	0x3e2b3548	0.16719544
156	0xbbdc18bf	-0.006716817
157	0x3d38a518	0.04507932
158	0xbcac6375	-0.021043519
159	0x3d9ed3b3	0.07755222
160	0x3dca9217	0.09891146
161	0x3d15e3b6	0.036594115
162	0x3d731117	0.05934247
163	0x3d362e3c	0.044477686
164	0x3dd06050	0.1017462
165	0x3ccc3575	0.024927834
166	0x3d874ec5	0.06606821
167	0x3e06459a	0.13112488
168	0x3db0e666	0.08637695
169	0x3dc6e1e3	0.09711053
170	0x3e72afbb	0.23699848
171	0x3e2ca6bb	0.16860478
172	0x3debc864	0.11512831
173	0x3e090040	0.13379002
174	0x3da4cbdf	0.08046698
175	0x3dc82504	0.09772685
176	0x3aedc11c	0.0018139216
177	0xbda1b2d2	-0.078954354
178	0xbdd65ee3	-0.10467317
179	0xbdc5ae57	-0.09652393
180	0x3d81946d	0.06327138
181	0xbd9e5842	-0.077316776
182	0xbdbb433e	-0.09143685
183	0xbdad9727	-0.08476096
184	0xbcb81f17	-0.022475762
185	0xbcbb8b8b	-0.022893688
186	0xbda592a4	-0.0808461
187	0xbdae3b73	-0.08507433
188	0x3ce6827f	0.028138397
189	0x3c96f938	0.018429384
190	0xbd307d80	-0.043088436
191	0xbdb6b616	-0.08921449
192	0x3d649b11	0.055811945
193	0x3db17cfa	0.086664155
194	0x3dd7b9d7	0.10533493
195	0x3c75eb28	0.015009679
196	0x3c41eadf	0.011835783
197	0xbc22d837	-0.009939245
198	0x3d974c92	0.073876515
199	0x3e1f6afe	0.15568158
200	0x3dc5a48c	0.096505255
201	0x3c1c24fb	0.009530301
202	0xbb85a5de	-0.004078611
203	0xbb754acb	-0.0037428613
204	0x3cfa660b	0.030566236
205	0x3d7c1d70	0.06155151
206	0xbc9dcc80	-0.019262552
207	0x3d622ad5	0.05521663
208	0xbd149e7b	-0.03628395
209	0x3c7e2004	0.015510563
210	0x3e19cb85	0.15019043
211	0x3dba1f01	0.09087945
212	0xbd63b911	-0.055596415
213	0xbbdc95f6	-0.006731744
214	0x3cd815fc	0.02637767
215	0x3e13fcb5	0.14451869
216	0xbc1340d9	-0.008987629
217	0xbe0de837	-0.13858114
218	0xbbffc8a4	-0.0078059006
219	0xbdb18fc2	-0.08669998
220	0xbc3f6556	-0.011681875
221	0xbda6216f	-0.08111846
222	0xbe135152	-0.1438649
223	0xbdf56686	-0.119824454
224	0xbe586d3d	-0.21135421
225	0xbe4aea7a	-0.19816008
226	0xbe1cc781	-0.1531048
227	0xbd9730a2	-0.07382323
228	0x3c815b3f	0.01579058
229	0xbd8cf554	-0.0688273
230	0xbdeee4d1	-0.11664737
231	0xbe2fe6d3	-0.17177896
232	0xbe4aafd2	-0.19793633
233	0xbe1ed9b2	-0.15512732
234	0xbd7ec551	-0.062199894
235	0xbe6162fb	-0.22010414
236	0xbe8cb8d9	-0.27484778
237	0xbe570fd9	-0.21002139
238	0xbe1b9ec3	-0.15197282
239	0xb918851b	-0.00014545435
240	0xbce94339	-0.028474437
241	0xbe0217f8	-0.12704456
242	0xbd58aeed	-0.052901197
243	0x3d11a588	0.035558254
244	0x3dc2ab9a	0.09505387
245	0xbc80ab79	-0.015706765
246	0xbcd55cf3	-0.026045298
247	0x3d7d632a	0.06186215
248	0x3e1ce6d2	0.15322426
249	0x3e7e0ff5	0.24810775
250	0x3d045286	0.032305263
251	0xbc85b2e7	-0.016320659
252	0xbb6c43b8	-0.0036051106
253	0xbd9e20d8	-0.07721108
254	0xbd46965c	-0.048483238
255	0x3cccdcbe	0.025007602

conv2.bias f4 [16]
0	0xbe0179d9	-0.12644137
1	0x3e11e24f	0.14246486
2	0x3e095314	0.13410598
3	0x3f742929	0.95375305
4	0xbf0c1a4c	-0.54727626
5	0xbd638005	-0.05554201
6	0xbeda9862	-0.42694384
7	0x3b289de6	0.002572888
8	0xbc1a9967	-0.009435988
9	0xbecb63e5	-0.3972465
10	0x3e9e5b52	0.30929047
11	0x3ecb89c8	0.39753556
12	0x3e041ac0	0.1290083
13	0x3e4e5f3e	0.2015352
14	0x3cf7b546	0.030237805
15	0x3de153b5	0.11002294

fc1.weight f4 [120, 400]
0	0x3ccb977d	0.024852509
1	0x3c5c765b	0.0134559525
2	0xb993a062	-0.0002815752
3	0xbd0064e3	-0.031346213
4	0x3ccc9ff4	0.024978615
5	0xbc090f13	-0.00836541
6	0x3d1df71d	0.038565744
7	0x3c26f490	0.010190144
8	0xbc71b787	-0.014753229
9	0xbd0e8168	-0.03479138
10	0xbb0b25d0	-0.0021232255
11	0x3d573de0	0.052549243
12	0xbc861d48	-0.016371384
13	0x3d23c1c9	0.03997973
14	0xbd333078	-0.043747395
15	0xbb78544d	-0.0037892044
16	0x3d1b93dc	0.037982807
17	0x3c249fe6	0.010047888
18	0x3cf32d34	0.02968464
19	0x3cb9a78a	0.022662897
20	0xbd0ddd6f	-0.034635004
21	0xbd3d0864	-0.04615058
22	0xbc87c9f2	-0.016575787
23	0xbd11391c	-0.035454854
24	0xbc8b75fd	-0.017024035
25	0x3d248fc9	0.040176187
26	0xbba7be6c	-0.0051191356
27	0x3be9ff75	0.0071410486
28	0xbcaf12da	-0.021371294
29	0xbb11a363	-0.002222263
30	0xbd4f6bfc	-0.05064009
31	0x3d035842	0.03206659
32	0xbcc741ce	-0.02432337
33	0xbcea3fe3	-0.028594917
34	0xbcb0c180	-0.021576643
35	0x3cd7d978	0.026348814
36	0x398017a4	0.00024431676
37	0xbd285715	-0.041098673
38	0xbd71448c	-0.058903262
39	0x3c93e188	0.018051878
40	0x3aa22a55	0.0012372235
41	0x3d2816b2	0.04103727
42	0xbd283f0c	-0.04107575
43	0x3ca28448	0.019838467
44	0xbd08a227	-0.033357766
45	0x3cfa3cd8	0.03054659
46	0x3c9bde7d	0.01902699
47	0xbbbd0ead	-0.0057695718
48	0x3b4289ce	0.0029684189
49	0x3cf75d0d	0.030195737
50	0xbcdfcf66	-0.027320575
51	0x3d399bcf	0.045314606
52	0x3cb79863	0.02241153
53	0xbc5258b7	-0.012838534
54	0xbc5915e3	-0.013249847
55	0xbc6dd97c	-0.014517184
56	0xbcc7feb6	-0.024413448
57	0x3c39a091	0.011329786
58	0x3bc19e2f	0.0059087495
59	0x3cff26c0	0.031146407
60	0xbcfb063f	-0.030642627
61	0xbd16e7b7	-0.036842074
62	0x3d129aab	0.035792034
63	0xbbced567	-0.0063120606
64	0x3ccff752	0.025386486
65	0x3d256032	0.040374942
66	0x3d2598a3	0.04042877
67	0xbcc8e8d6	-0.024525087
68	0x39cd7d21	0.00039193875
69	0x3caf9a69	0.021435933
70	0x3d54313e	0.051804774
71	0x3d4900b7	0.049072947
72	0x3d075eff	0.03304958
73	0x3cce2b4a	0.025167126
74	0xbbeab359	-0.007162493
75	0xbd22a59e	-0.039708726
76	0x3c520d2e	0.012820525
77	0xbd3b9bd2	-0.0458029
78	0x3d0858e6	0.033287905
79	0x3d5fe5ac	0.05466239
80	0xbbc5d25b	-0.006037039
81	0x3d505948	0.050866395
82	0x3c83a072	0.016067717
83	0xbc1408df	-0.009035318
84	0xbbb17491	-0.005415507
85	0xbce4b6a5	-0.027919123
86	0xbd10a419	-0.035312746
87	0x3d1b0b97	0.03785285
88	0x3b6f022c	0.00364698
89	0x3bfb78ea	0.007674326
90	0xbca2b39a	-0.019861031
91	0xbcee363c	-0.029078595
92	0xbd10d1cd	-0.03535633
93	0xbc5d99a2	-0.013525398
94	0x3c08b0db	0.008342947
95	0x3cbe0fa6	0.023200821
96	0x3cdc1ac8	0.026868239
97	0x3d66a37a	0.056308247
98	0x3d3f39d9	0.046686027
99	0x3c34234b	0.010994743
100	0xbcd3c841	-0.025852324
101	0xbd5f3308	-0.054492027
102	0x3bcdf4ad	0.006285271
103	0x3be70c9e	0.0070510646
104	0x3cec563a	0.02884971
105	0xbd30c9b1	-0.043161098
106	0xbc6ec3b9	-0.014573031
107	0xbcec9e47	-0.028884066
108	0xbd36c8f5	-0.04462524
109	0x3cda8be3	0.026678031
110	0xbce3d4b0	-0.027811378
111	0xbd0ca7bd	-0.034339655
112	0xbba4f834	-0.005034471
113	0xbd889eb1	-0.06670893
114	0x39420050	0.00018501398
115	0x3d120757	0.03565153
116	0xbd8bf662	-0.06834103
117	0xbd65bcf4	-0.056088403
118	0xbc871cbc	-0.016493194
119	0xbd744124	-0.059632435
120	0xbbbaf068	-0.005704928
121	0xbd73f5c7	-0.059560563
122	0xbbf36f7c	-0.0074290615
123	0xbcb78517	-0.02240233
124	0xbbfcb2ab	-0.0077117286
125	0xbbcd5ad7	-0.0062669325
126	0xbd3aa771	-0.04556984
127	0x3d1c701b	0.03819285
128	0x3ce660d0	0.028122336
129	0xbd781e5e	-0.060575835
130	0x3c61fca6	0.013793146
131	0xbd4f5585	-0.050618667
132	0xbc81bd54	-0.015837349
133	0xbd52292a	-0.05130879
134	0x3cdb0830	0.026737303
135	0x3c1dccc3	0.0096313385
136	0xbcdfb441	-0.027307631
137	0x3c798f28	0.015231885
138	0x3d077648	0.033071786
139	0xbd47b718	-0.048758596
140	0x3c328c37	0.010897688
141	0x3d21b50d	0.039479304
142	0xbcf2ca9c	-0.029637627
143	0x3cd30048	0.02575697
144	0xbc29cbd0	-0.010363534
145	0x3c23c529	0.009995737
146	0xbd036ce8	-0.032086283
147	0xbd316999	-0.043313596
148	0xbafe85fa	-0.001941859
149	0xbd5c4ea2	-0.053785928
150	0xbc99be4c	-0.018767498
151	0xbd423e61	-0.04742277
152	0x3d362580	0.044469357
153	0x3d5a0dc0	0.05323577
154	0x3cd75a13	0.026288068
155	0x3c86d6ea	0.0164599
156	0x3cc7227e	0.02430844
157	0x3b80b9ec	0.0039284136
158	0x3d01c1eb	0.031679075
159	0x3b151091	0.002274547
160	0x3c00fcc9	0.007872769
161	0x3c1dd1fb	0.009632583
162	0x3bd00b0f	0.0063489745
163	0x3d7d33f4	0.061817124
164	0x3ca302dc	0.019898824
165	0x3c148f82	0.009067418
166	0xb8b9653c	-8.840344e-05
167	0xbc99b016	-0.018760722
168	0x3c4e05b4	0.012574602
169	0xbc3141fc	-0.010818955
170	0xbcf3c861	-0.029758634
171	0xbccad0f4	-0.02475784
172	0x3c10f1a6	0.008846676
173	0xbd0f4344	-0.03497626
174	0x3c0d6404	0.008629803
175	0x3c1f5348	0.009724446
176	0x3c8527f8	0.01625441
177	0x3cc3e401	0.023912432
178	0x3c23438a	0.009964833
179	0xbc931ed8	-0.017959043
180	0xbd04c94a	-0.032418527
181	0xbba39daf	-0.0049931626
182	0xbd1412de	-0.036150806
183	0x3d5af5b5	0.05345698
184	0xbd352706	-0.04422667
185	0xbc7f2e1f	-0.015574961
186	0xbc235d54	-0.009970982
187	0x3cbf611e	0.023361739
188	0x3d2238b5	0.03960486
189	0xbc81d40a	-0.015848178
190	0x3d02a804	0.031898513
191	0x3c91a03a	0.017776597
192	0x3d8aa15e	0.067690596
193	0xbc6332d8	-0.013867103
194	0xbcf8ebbd	-0.030385846
195	0xbc921bf3	-0.017835593
196	0xbcb371fe	-0.021904942
197	0xbcb0b067	-0.02156849
198	0xbd4dd38a	-0.050250567
199	0xbd0c925f	-0.034319278
200	0xbcec5fb1	-0.028854223
201	0x3ce34e43	0.027747279
202	0xbb1818a1	-0.002320804
203	0xbc6f2dc5	-0.014598315
204	0x3c89a47e	0.016802069
205	0xbd0902d8	-0.033449978
206	0xbc83884f	-0.016056208
207	0xbcfdf5ca	-0.03100099
208	0x3cf36110	0.029709369
209	0xbc45dcc1	-0.012076558
210	0xbc906ca7	-0.017629934
211	0x3c212894	0.009836335
212	0x3b12f588	0.002242418
213	0xbce5538e	-0.027993944
214	0x3d2fca52	0.042917557
215	0x3d0dee9b	0.03465138
216	0x3d2a60b4	0.04159613
217	0x3b3a543f	0.0028431562
218	0x3c700f79	0.0146521265
219	0x3cb07774	0.021541335
220	0xbc3ff94c	-0.011717152
221	0x3b9cf74c	0.0047902223
222	0xbc938bf1	-0.018011065
223	0xbc05f1e8	-0.008175351
224	0xbcf629d7	-0.030049248
225	0xbcd5edda	-0.026114393
226	0x3d1b8a92	0.037973948
227	0xbd4149ee	-0.047189645
228	0xbcaedaa4	-0.02134449
229	0x3c32f90b	0.010923634
230	0xbd37fc85	-0.044918556
231	0x3b4f937d	0.0031673603
232	0xbc0d2981	-0.008615852
233	0xbd04ee5a	-0.032453872
234	0x3c4fec6a	0.012690643
235	0xbb9ecfc5	-0.0048465454
236	0x3b10e956	0.0022111735
237	0xbcd886f0	-0.02643153
238	0xbd37cdd8	-0.044874042
239	0x3c8c0f37	0.017097099
240	0x3d57df99	0.052703474
241	0xbd2d1f6b	-0.04226629
242	0xbd016de3	-0.031598937
243	0x3ca92007	0.020645155
244	0x3d083d91	0.03326184
245	0xbcb5f49a	-0.022211362
246	0xbd415f0c	-0.047209784
247	0x3c2657b3	0.010152745
248	0x3b825472	0.003977352
249	0xbc598629	-0.013276615
250	0xbd1f7cc0	-0.03893733
251	0xbd03ebeb	-0.03220741
252	0x3c06f446	0.00823695
253	0xbd0dd518	-0.03462705
254	0x3ca4e2cc	0.020127676
255	0x3cfcfa29	0.030881004

fc1.bias f4 [120]
0	0xbbfe8a3e	-0.0077679446
1	0x3d9ba489	0.07599742
2	0xbd846dd3	-0.0646626
3	0xbd24ba8e	-0.040216975
4	0xbd73dfc0	-0.059539557
5	0xbd8f5b3c	-0.069998235
6	0xbd38344c	-0.04497175
7	0x3ce38c8b	0.027776977
8	0x3d417435	0.047229964
9	0x3d2c6b89	0.04209474
10	0x3ca91d3c	0.020643823
11	0x3da4b0ed	0.080415584
12	0x3cf104c4	0.029421218
13	0xbcc7e71e	-0.024402197
14	0x3cfee240	0.031113744
15	0xbe155764	-0.14584118
16	0x3d6e4779	0.05817363
17	0x3cf7b07f	0.030235527
18	0x3e4a0e6d	0.19732065
19	0x3df4def9	0.11956591
20	0x3ca55e2e	0.02018651
21	0x3d51ab5c	0.05118881
22	0xbd0e05b9	-0.034673426
23	0x3bd283ad	0.0064243884
24	0xbcd8358a	-0.026392717
25	0x3cf59df1	0.029982539
26	0x3cd4e021	0.02598578
27	0x3e34c536	0.17653355
28	0xbca5fb79	-0.020261513
29	0xbc8aaa8b	-0.016927024
30	0xbe076a87	-0.1322423
31	0x3ca6ce60	0.02036208
32	0x3d3b5124	0.04573168
33	0xbd19434d	-0.0374177
34	0x3b3ef415	0.0029137183
35	0x3c892a5f	0.016743837
36	0x3d62b7e3	0.05535115
37	0x3d55b137	0.05217096
38	0x3ce615ab	0.028086504
39	0x3b714551	0.0036814997
40	0xbc59e34c	-0.013298821
41	0x3da535c9	0.08066899
42	0xbdf20203	-0.1181679
43	0xbd0d3b98	-0.03448066
44	0x3c91fc5f	0.017820535
45	0xbd45f042	-0.04832483
46	0x3d8a3cae	0.06749855
47	0x3d471395	0.04860266
48	0xbcc07d20	-0.023497164
49	0x3e11fbf7	0.14256273
50	0xbcd9dda8	-0.026594952
51	0xbd5b4147	-0.05352905
52	0x3d164595	0.036687452
53	0xbd33afd7	-0.043868866
54	0xbc6c5762	-0.014425131
55	0x3c81b02d	0.015831077
56	0x3d4f2e43	0.050581228
57	0x3d007d5d	0.031369556
58	0xbd0a0177	-0.033692803
59	0xbc9bb453	-0.019006884
60	0x3e69b790	0.2282393
61	0xbcebacba	-0.028768886
62	0x3e55cad8	0.2087816
63	0x3e1b219e	0.15149543
64	0x3cc52f79	0.024070488
65	0xbcfc67ff	-0.030811308
66	0xbb16f482	-0.0023033922
67	0xbca4977e	-0.020091768
68	0xbcd4f459	-0.02599542
69	0x3dfcbbb9	0.12340493
70	0x3de51f09	0.1118756
71	0xbcc6cb7d	-0.024266953
72	0xbe04a4ef	-0.12953542
73	0x3ccff9d3	0.02538768
74	0xbc480895	-0.012209077
75	0xbcfbb92c	-0.030727945
76	0x3ce2dfa9	0.02769454
77	0xbc492f4f	-0.012279346
78	0x3c24c878	0.010057561
79	0x3d415c9a	0.047207452
80	0xbc5160f8	-0.012779467
81	0x3d33a39e	0.04385721
82	0x3d2a3401	0.0415535
83	0x3df099fc	0.1174812
84	0xbddb3359	-0.10703153
85	0xbe173bb3	-0.14768867
86	0xbca8da18	-0.020611808
87	0xbd630131	-0.055421058
88	0xbd0f21f4	-0.03494449
89	0x3e172ab2	0.1476238
90	0xbda812b5	-0.08206693
91	0x3d06e215	0.032930452
92	0x3d1b5826	0.03792586
93	0x3d41d9bf	0.0473268
94	0x3c911b46	0.0177132
95	0x3d152fb1	0.036422435
96	0x3e1ebd16	0.15501818
97	0x3ccd6e8a	0.025077123
98	0x3d442783	0.047889244
99	0x3d339592	0.043843813
100	0x3cc604cb	0.024172207
101	0xbe036c59	-0.128343
102	0x3c5c0ff9	0.013431543
103	0x3cbd5537	0.023111923
104	0x3c39bffd	0.0113372775
105	0xbd32fe36	-0.043699466
106	0xbc3fde3e	-0.0117107015
107	0xbc84bee0	-0.016204298
108	0x3d38fa2e	0.045160465
109	0x3e2ed2de	0.17072627
110	0x3bcd591f	0.0062667276
111	0xbd357765	-0.044303317
112	0xbd0a1c04	-0.033718124
113	0xbd53cc9c	-0.051708803
114	0x3d7c469e	0.061590783
115	0x3cc694f6	0.024240952
116	0x3b96428f	0.004585571
117	0x3e816e3e	0.2527942
118	0x3d970f6f	0.073759906
119	0x3da7b138	0.08188099

fc2.weight f4 [84, 120]
0	0x3d8d4797	0.0689842
1	0x3ddc809f	0.1076672
2	0x3d422c29	0.047405396
3	0xbb8c95ad	-0.0042903037
4	0x3e000ae8	0.1250416
5	0xbc87f873	-0.016597962
6	0xbda17782	-0.078841224
7	0xbdb6a181	-0.08917523
8	0x3d61d901	0.05513859
9	0x3d0c238d	0.03421359
10	0x3ce9ddc7	0.028548134
11	0xbc0dd3d2	-0.008656459
12	0xbd89d7a6	-0.06730585
13	0xbd1ac0dd	-0.037781585
14	0xbb6be4e7	-0.003599459
15	0xbcd50746	-0.026004445
16	0xbd2a27b4	-0.04154177
17	0x3d6a0dde	0.05714213
18	0xbde93dda	-0.113887504
19	0x3d026686	0.031836055
20	0x3de15640	0.11002779
21	0x3d5de74d	0.054175664
22	0x3dba2c9d	0.090905406
23	0xbde8bf0c	-0.11364564
24	0x3ca9aa20	0.020711005
25	0xbda263d2	-0.079291955
26	0xbca6906d	-0.02033254
27	0xbd0cb258	-0.03434977
28	0x3cb3c608	0.021945015
29	0xbd9b3851	-0.07579101
30	0xbdba8c8d	-0.09108839
31	0xbd520461	-0.051273707
32	0xbdbcf461	-0.09226299
33	0xbd5607b8	-0.052253455
34	0x3dadadb6	0.08480398
35	0x3d660098	0.05615291
36	0x3b133c4f	0.0022466367
37	0xbd897992	-0.06712641
38	0x3d2217db	0.03957353
39	0x3b94a20c	0.004535919
40	0xbd464f3c	-0.048415408
41	0x3d9e8841	0.07740832
42	0xbdeefed4	-0.11669698
43	0x3d00d089	0.031448875
44	0xbd69ebd8	-0.057109684
45	0xbd1a8f91	-0.03773457
46	0x3dc70839	0.09718365
47	0xbd8f6343	-0.070013545
48	0x3d464d69	0.048413668
49	0xbcb532b0	-0.022118896
50	0xbaace6c1	-0.0013191329
51	0x3d9a11b4	0.07522908
52	0x3bd2bc3a	0.0064311298
53	0x3d6b41e1	0.057435874
54	0x3cb78fda	0.022407461
55	0x3d1400cf	0.036133584
56	0x3dcff483	0.10154059
57	0x3d6d0c56	0.057873093
58	0xbd61f343	-0.055163633
59	0x3b4e86a9	0.003151337
60	0x3d979b36	0.07402651
61	0x3c9f4deb	0.019446334
62	0xbde90309	-0.11377532
63	0x3e0fd51a	0.14046136
64	0x3df57135	0.11984483
65	0x3c6b5ac2	0.0143649
66	0x3d7016a8	0.058615357
67	0xbd9392c5	-0.072057284
68	0x3d349fae	0.044097595
69	0xbd03d647	-0.032186773
70	0x3b9c5a18	0.004771482
71	0xbcae3947	-0.021267546
72	0xbdd88621	-0.10572458
73	0xbd08c39c	-0.033389673
74	0xbdb7dcc2	-0.08977653
75	0xb6f38370	-7.2572657e-06
76	0xbd9af2c2	-0.07565834
77	0x3db092c2	0.08621742
78	0x3d6dd080	0.05806017
79	0xbd3222f9	-0.043490384
80	0xbe36cf08	-0.17852414
81	0x3d12f3dc	0.035877094
82	0xbb586e54	-0.0033024745
83	0x3cac0f55	0.021003405
84	0xbde6a863	-0.11262586
85	0xbe032a08	-0.12809002
86	0xbc1b22da	-0.0094687585
87	0x3d38421d	0.044984926
88	0x3cf05462	0.029337112
89	0xbcbe6563	-0.023241704
90	0xbc407b68	-0.011748172
91	0x3c9ba9ba	0.01900183
92	0xbd3d65eb	-0.046239775
93	0x3dc5956a	0.09647639
94	0xbb21bb98	-0.0024678465
95	0xbc939461	-0.018015089
96	0x3dd56918	0.10420436
97	0xbde83a19	-0.11339206
98	0x3ddd3c96	0.108025715
99	0xbd337ead	-0.04382198
100	0x3c69f8d9	0.014280521
101	0x3da1905c	0.078888625
102	0xbdad7f80	-0.08471584
103	0x3cc8d06f	0.024513451
104	0x3c7c02bd	0.015381512
105	0x3d5b5803	0.05355073
106	0x3dc8facb	0.0981346
107	0x3ceaa486	0.028642904
108	0x3b2c579c	0.0026297336
109	0x3cc9113f	0.024544356
110	0xba104aae	-0.0005504292
111	0xbdd168c2	-0.10225059
112	0xbc9b7d97	-0.018980784
113	0xbc507572	-0.012723314
114	0x3b524a4b	0.003208774
115	0x3d01afb0	0.03166169
116	0x3b7fb3da	0.0039017112
117	0x3dadb0b7	0.08480971
118	0xbd76cd8d	-0.060254622
119	0xbc09c405	-0.008408551
120	0xbdbce3ea	-0.09223159
121	0x3a13ccc4	0.00056381174
122	0xb9ba8f37	-0.00035583388
123	0xbd5d567c	-0.054037556
124	0xbdf86d03	-0.12130167
125	0x3d99bb74	0.07506457
126	0xbd1dc6f6	-0.038519822
127	0x3d2d4cc4	0.042309538
128	0xbcf61d4f	-0.030043272
129	0x3b7f8027	0.0038986297
130	0x3ba41095	0.0050068595
131	0xbd754955	-0.059884388
132	0xbd408484	-0.047001377
133	0xbd413fdb	-0.047180038
134	0x3d35434b	0.04425363
135	0xbbe3a55f	-0.006947204
136	0x3dba0ce6	0.090844914
137	0xbcc6c7eb	-0.02426525
138	0xbb5d7e3e	-0.003379717
139	0x3ddba324	0.10724476
140	0xbdf93a3b	-0.1216931
141	0x3d839094	0.064240605
142	0xbd7845b8	-0.060613364
143	0xbd85aad9	-0.06526727
144	0x3da314d8	0.0796296
145	0xbd211c82	-0.039333828
146	0x3a5894c3	0.00082619133
147	0x3e623cb5	0.2209347
148	0x3bc80fef	0.006105415
149	0xbd8ee7f1	-0.06977833
150	0x3d2f9625	0.0428678
151	0xbda5bc09	-0.080925055
152	0x3c8e4bc0	0.017370105
153	0x3d9829a5	0.07429818
154	0xbd78a875	-0.06070753
155	0xbdf4274f	-0.1192156
156	0xbc82e551	-0.015978487
157	0xbd518b85	-0.051158447
158	0xbd1ad82a	-0.037803806
159	0xbd7c17b4	-0.061546043
160	0xbd98de2f	-0.07464253
161	0x3d9e2721	0.07722307
162	0xbd877f9e	-0.06616138
163	0xbd356297	-0.044283476
164	0x3daa60b2	0.083192244
165	0x3bfcf2fc	0.0077193957
166	0xbc70d33c	-0.0146988
167	0xbd5c9acd	-0.053858567
168	0x3b8ea458	0.0043530874
169	0xbd4c9b26	-0.04995265
170	0x3d494def	0.04914659
171	0x3bee093d	0.007264285
172	0x3dc95854	0.098313004
173	0x3d3e2262	0.04641951
174	0x3aa7378e	0.0012757645
175	0xbc361361	-0.011113019
176	0x3d0c81d7	0.034303512
177	0x3c56f2b3	0.013119387
178	0xbd2f5abb	-0.042811137
179	0xbc11f82a	-0.008909265
180	0x3b1a0383	0.0023500628
181	0xbca46b59	-0.020070719
182	0xbc9f5945	-0.019451747
183	0x3d0c0616	0.03418549
184	0x3d8cd30c	0.068761915
185	0xbdcf6a15	-0.101276554
186	0x3dae3567	0.085062794
187	0x3d8de781	0.069289215
188	0xbc888d3f	-0.016668914
189	0xbcbffac3	-0.023435002
190	0xbde0ffb8	-0.109862745
191	0xbca43330	-0.02004394
192	0xbd9e3d42	-0.07726528
193	0x3d600490	0.05469185
194	0xbddbaadb	-0.107259475
195	0xbdf20a92	-0.118184224
196	0xbcfa2c16	-0.0305386
197	0xbc0e5c06	-0.008688932
198	0xbb7c4173	-0.003849116
199	0x3d56d098	0.052445024
200	0xbda25893	-0.079270504
201	0xbcf8a240	-0.030350804
202	0x3db6e384	0.08930114
203	0x3d97fbe1	0.07421089
204	0xbb8c93f5	-0.004290099
205	0x3d9f61d7	0.07782333
206	0xbb9ec41e	-0.0048451563
207	0xbd040c64	-0.03223838
208	0xbcf9da57	-0.03049962
209	0x3ddc741f	0.10764336
210	0x3dcf530b	0.10123261
211	0x3db99cf3	0.09063139
212	0xbcc3cead	-0.023902262
213	0x3db3c0fc	0.08777043
214	0xbd3d99d9	-0.0462893
215	0xbd11b0d4	-0.035569027
216	0x3b867aea	0.004104008
217	0xbd92e18f	-0.07171928
218	0x3c16b5f1	0.009198652
219	0x3d813edc	0.063108176
220	0xbbd5b975	-0.0065223523
221	0xbe24725d	-0.16059251
222	0x3d4e5c5e	0.050381057
223	0x3e0cc38c	0.1374647
224	0xbd34e650	-0.044164956
225	0x3d73f2bc	0.05955766
226	0xbd8eb3ba	-0.06967874
227	0x3dbedf2a	0.09319909
228	0x3dbd458e	0.09241782
229	0xbc771e50	-0.015082911
230	0xb8c5ea79	-9.437366e-05
231	0x3d188d93	0.03724439
232	0xbd7f0030	-0.06225604
233	0xbda0d391	-0.07852853
234	0x3d631106	0.055436157
235	0xbc1400b6	-0.009033373
236	0x3d3d2fa6	0.04618802
237	0x3cd9759a	0.026545335
238	0x3dc2180a	0.09477241
239	0xbdd6d503	-0.104898475
240	0xbdba8c93	-0.09108844
241	0x3db7bbf7	0.08971398
242	0xbce7cb79	-0.028295266
243	0x3d8d801f	0.06909203
244	0x3da21639	0.07914395
245	0x3d00283f	0.03128838
246	0x3ce583b9	0.028016912
247	0xbc180e13	-0.009280699
248	0x3e0bc27f	0.13648413
249	0xbdc0af77	-0.09408467
250	0x3d8749c5	0.06605867
251	0xbbdce596	-0.006741236
252	0xbc966c1e	-0.018362101
253	0xbb8835c7	-0.0041568014
254	0xbe366852	-0.17813233
255	0x3d80cdbc	0.06289241

fc2.bias f4 [84]
0	0x3ea3dfdd	0.32006732
1	0x3cf43a14	0.02981285
2	0xbd4aa00f	-0.04946905
3	0x3e192b4b	0.14957921
4	0x3e6f48b1	0.23367573
5	0xbd84e64e	-0.0648924
6	0x3e70df76	0.23522744
7	0xbd16d034	-0.03681965
8	0x3ead8fd0	0.33898783
9	0x3d847106	0.0646687
10	0x3e45a88e	0.1930258
11	0x3e76dcef	0.24107717
12	0x3df93665	0.12168578
13	0x3e8be10a	0.2732013
14	0x3de92e76	0.11385815
15	0x3ddae1c2	0.10687591
16	0xbd813d88	-0.06310564
17	0xbd353579	-0.04424045
18	0x3d9f32e1	0.07773376
19	0x3dede903	0.11616709
20	0x3ce45c41	0.027876021
21	0x3dd289ed	0.102802135
22	0x3e0aac1f	0.13542221
23	0x3d6c0faf	0.057632145
24	0xbce1aa7c	-0.027547114
25	0x3e88b157	0.266978
26	0xbc94e185	-0.018173942
27	0x3dacdac2	0.08440162
28	0x3d9f465d	0.077770926
29	0x3e1dee7c	0.15423006
30	0xbdce6703	-0.10078242
31	0xbd4e5422	-0.050373204
32	0x3e9200b1	0.28516153
33	0xbda6ed43	-0.08150723
34	0xbd7b0332	-0.061282344
35	0xbd23c923	-0.03998674
36	0x3e1cd9c5	0.15317447
37	0x3dd84585	0.10560135
38	0x3df103ec	0.11768326
39	0x3e0265b6	0.12734112
40	0xbd701d0f	-0.058621462
41	0xbe2c3594	-0.16817313
42	0x3ea323b1	0.31863168
43	0xbbfb328e	-0.0076659387
44	0xbdc9e454	-0.09858003
45	0x3d849248	0.064732134
46	0xbd9e2ce6	-0.077234074
47	0xbdb22fec	-0.087005466
48	0xbd88f5f1	-0.066875346
49	0x3ddab6dc	0.10679409
50	0x3d71a7c9	0.058997903
51	0x3e8ab9c1	0.27094844
52	0x3d236116	0.03988751
53	0x3e612577	0.21986948
54	0xbd4068a5	-0.046974797
55	0x3e33883c	0.17532438
56	0x3dd26d30	0.10274732
57	0xbdc783cb	-0.097419344
58	0xbb4765c1	-0.003042564
59	0xbdc88baf	-0.097922675
60	0x3cd39cbe	0.025831576
61	0x3cf236b8	0.029567108
62	0x3cf3e250	0.029771
63	0xbd2e5304	-0.04255964
64	0x3b896aed	0.0041936547
65	0x3e134aae	0.14383957
66	0x3ec4e466	0.38455504
67	0x3d04158c	0.03224711
68	0xbb3b32a4	-0.002856412
69	0xbcc95940	-0.02457869
70	0x3d14851f	0.036259767
71	0x3d6e878c	0.058234736
72	0x3e3c7c3d	0.18406768
73	0xbcc45697	-0.02396707
74	0xbd5cce3a	-0.05390761
75	0x3e784b44	0.24247462
76	0xbd63dc02	-0.055629738
77	0xbda107f1	-0.07862843
78	0xbe2c8951	-0.16849257
79	0x3e0cd22b	0.13752048
80	0x3da994bb	0.08280321
81	0x3d7d3303	0.061816227
82	0x3d1791e4	0.037004367
83	0x3ad075cd	0.0015904248

fc3.weight f4 [10, 84]
0	0x3d57d157	0.052689876
1	0x3d7b1841	0.061302427
2	0xbb0fbd35	-0.0021932845
3	0x3e27ad5b	0.16374724
4	0x3daef3b0	0.085425735
5	0x3d57a112	0.052643843
6	0x3d23d07b	0.039993744
7	0xbdd83f8a	-0.10558994
8	0xbe59c66e	-0.21267101
9	0xbe200db4	-0.15630227
10	0xbd8882f4	-0.06665602
11	0xbe6eadc8	-0.2330848
12	0x3c11afdc	0.008892026
13	0xbeafae19	-0.34312513
14	0xbb29dde3	-0.0025919608
15	0x3d7ee21f	0.062227365
16	0xbdb51842	-0.088425174
17	0xbc862625	-0.01637561
18	0xbe42f8f2	-0.19040278
19	0xbd95b0d7	-0.0730912
20	0x3e6c1a2b	0.23056857
21	0x3cf29b50	0.029615074
22	0xbdc3ec9d	-0.09566615
23	0x3dbf1f04	0.09332088
24	0xbe3b4c26	-0.18290767
25	0x3e3be89e	0.18350455
26	0xbdd052d6	-0.1017205
27	0x3ea147ac	0.31499994
28	0x3e19f0b1	0.15033223
29	0xbd127091	-0.035751883
30	0xbd668a80	-0.056284428
31	0xbd10b2b1	-0.035326663
32	0x3d5d65e0	0.054052234
33	0x3df25083	0.11831763
34	0xbd4caf50	-0.04997188
35	0x3e048524	0.12941414
36	0x3ddf1ecf	0.10894548
37	0x3e086c05	0.13322456
38	0x3d88bcd1	0.06676639
39	0xbce67918	-0.028133914
40	0xbd0db21c	-0.034593686
41	0x3e0bfe31	0.13671185
42	0x3e58c7f6	0.21170029
43	0xbe41ff18	-0.18944967
44	0x3d1e9583	0.038716804
45	0x3e648098	0.2231468
46	0x3cb8ea74	0.022572733
47	0x3dcc9c37	0.09990733
48	0xbcb67985	-0.022274742
49	0x3da81e1a	0.082088664
50	0x3e844815	0.25836244
51	0x3e35a0c5	0.1773711
52	0x3e173ed6	0.14770064
53	0xbc4996c7	-0.0123040145
54	0xbc128e0c	-0.008944999
55	0x3e2dfce4	0.16991001
56	0x3acb4dc0	0.0015510842
57	0xbd9f0a3c	-0.07765624
58	0x3df38360	0.11890292
59	0xbdb20a03	-0.08693316
60	0xbd4e9661	-0.05043638
61	0xbd835317	-0.064123325
62	0x3e06b209	0.13153853
63	0x3d9a1e61	0.075253256
64	0xbc17d37f	-0.009266733
65	0xbd9d9a15	-0.076954044
66	0xbeac5187	-0.3365595
67	0x3d7d04db	0.06177221
68	0x3e1eb6a4	0.1549936
69	0xbd9f911b	-0.077913485
70	0xbde1c435	-0.11023752
71	0x3e57644d	0.21034355
72	0x3df30b60	0.11867404
73	0xbd9c384f	-0.076279275
74	0x3da41fa6	0.08013849
75	0x3e148df5	0.14507277
76	0x3e3cfbb4	0.18455392
77	0x3e708851	0.234895
78	0x3e2535ed	0.16133852
79	0x3b6a5599	0.0035756587
80	0x3dddbdbf	0.10827207
81	0x3db6b869	0.08921892
82	0x3e0c5177	0.13702951
83	0x3ce9f87e	0.028560873
84	0xbe163fa7	-0.14672719
85	0xbd94b56e	-0.072611675
86	0x3e867601	0.26261905
87	0xbc08e9a3	-0.008356485
88	0x3df2d6f0	0.11857402
89	0xbb9d066c	-0.0047920253
90	0xbe145b92	-0.14488056
91	0x3e9476fd	0.2899703
92	0xbe77f4a4	-0.24214417
93	0x3d5ed586	0.05440285
94	0xbcb6ed95	-0.022330085
95	0xbe84ebcc	-0.2596115
96	0xbcb4a79c	-0.022052579
97	0xbe336f85	-0.1752301
98	0xbdb10c73	-0.086449526
99	0xbd992180	-0.07477093
100	0x3d7d1e4b	0.061796468
101	0xbdb23e1e	-0.08703254
102	0xbdcfee4b	-0.10152873
103	0xbcd53816	-0.02602772
104	0xbc9be0eb	-0.019028148
105	0xbe6b8815	-0.2300113
106	0x3e03418c	0.12817973
107	0x3b80f5cd	0.0039355517
108	0x3e046fd8	0.1293329
109	0xbddc09c3	-0.107440494
110	0xbdb02ea1	-0.08602644
111	0xbde8e9db	-0.113727294
112	0xbd6a26bb	-0.057165843
113	0x3de27714	0.110578686
114	0xbd29c112	-0.04144389
115	0x3d127eba	0.035765387
116	0xbe9ae1c8	-0.30250382
117	0xba2c9b37	-0.0006584408
118	0xbd85dcd6	-0.06536262
119	0xbd66688b	-0.056252044
120	0x3e224e93	0.15850286
121	0xbe965516	-0.2936179
122	0x3e64dd8d	0.2235014
123	0xbc04ecb5	-0.008113076
124	0x3d8c3aab	0.068471275
125	0x3e7c8162	0.2465873
126	0x3dab8134	0.08374253
127	0x3e1ad582	0.1512051
128	0x3e30e94c	0.17276496
129	0xbc887663	-0.016658014
130	0x3d0581ff	0.032594677
131	0x3e151c3e	0.14561555
132	0xbda030aa	-0.07821782
133	0xbdbdc3e7	-0.09265881
134	0x3dc2bd96	0.09508817
135	0xbe623161	-0.22089149
136	0xbdf17ebf	-0.11791753
137	0xbcb6a2e4	-0.02229447
138	0x3d398988	0.045297176
139	0x3dce3853	0.10069337
140	0xbe1be4bc	-0.15223974
141	0x3e17b3b3	0.14814644
142	0xbd18d056	-0.03730806
143	0x3c49bb65	0.012312745
144	0xbe9830ce	-0.29724735
145	0xbe242e77	-0.1603335
146	0x3e0666a4	0.13125092
147	0x3d663318	0.05620107
148	0x3e8155c0	0.25260735
149	0xbd122e13	-0.03568847
150	0x3bcd7401	0.0062699323
151	0x3b504d8a	0.0031784498
152	0xbd8766d3	-0.06611409
153	0x3dc57d00	0.096429825
154	0xbce55182	-0.027992968
155	0xbdfb9dd3	-0.12285962
156	0xbe3af082	-0.18255809
157	0xbdce352e	-0.10068737
158	0xbc94e578	-0.018175825
159	0xbde91f3a	-0.11382909
160	0x3eaf3794	0.3422209
161	0xbdb8f9f4	-0.0903205
162	0x3d89b5ba	0.06724115
163	0xbe2d03b6	-0.16895947
164	0x3d12bcd0	0.035824597
165	0xbd268eaf	-0.040663417
166	0x3e79a4b3	0.24379234
167	0x3d9ea8a3	0.07747009
168	0x3d5c4b93	0.05378301
169	0x3e4d7eaf	0.20067857
170	0xbd1fe450	-0.039036095
171	0x3e597115	0.21234544
172	0x3d847b74	0.06468859
173	0xbe2105e2	-0.157249
174	0x3dbf79ea	0.09349425
175	0xbdba33d6	-0.09091918
176	0x3e3b4505	0.18288048
177	0xbe31dad5	-0.17368634
178	0x3d873d87	0.06603532
179	0xbcebdb88	-0.028791204
180	0x3c967afd	0.018369192
181	0x3cc59435	0.024118522
182	0xbd82185d	-0.06352303
183	0x3d05499d	0.032540906
184	0x3db53cab	0.08849462
185	0x3ce02f05	0.02736617
186	0x3d3aeb9a	0.045634843
187	0x3c9a5c18	0.018842742
188	0xbd1cad0e	-0.038250975
189	0x3df9293e	0.121660694
190	0xbe3b8358	-0.18311822
191	0xbcac1812	-0.021007571
192	0x3d394609	0.045232806
193	0x3dce112d	0.1006187
194	0xbd21c281	-0.039492134
195	0xbd2f8d9d	-0.042859662
196	0x3d104990	0.035226405
197	0x3d98f4ea	0.07468589
198	0xbce36e8e	-0.027762678
199	0xbd4b6efe	-0.049666397
200	0x3eb39168	0.35071874
201	0xbd95a759	-0.0730731
202	0xbd52f548	-0.05150345
203	0xbc88f767	-0.016719533
204	0x3dffc4a9	0.12488682
205	0xbd817bc3	-0.06322434
206	0x396c5d6d	0.00022541518
207	0x3da211eb	0.07913574
208	0xbd0e946a	-0.034809507
209	0xbe29e716	-0.16592059
210	0x3d94e23a	0.07269712
211	0x3e89a601	0.26884463
212	0xbdd083f4	-0.10181418
213	0xbbada490	-0.0052991584
214	0xbd1277e8	-0.035758883
215	0x3c9aa771	0.01887867
216	0x3e60b127	0.21942578
217	0x3e0c85f6	0.13722977
218	0xbc947a5d	-0.018124754
219	0x3e68aa8f	0.22721313
220	0x3d862853	0.0655066
221	0xbd0822f1	-0.033236448
222	0xbd94a5cb	-0.07258185
223	0xbe5924be	-0.21205422
224	0x3d0b775a	0.03404937
225	0xbcd1feb5	-0.02563415
226	0xbd9cce98	-0.07656592
227	0x3d89cefa	0.06728931
228	0x3dc7fe32	0.09765281
229	0xbd9474f9	-0.07248873
230	0xbdeb6837	-0.11494487
231	0xbb2edc3a	-0.0026681558
232	0xbe9fc598	-0.3120544
233	0x3dea2c12	0.11434187
234	0x3de79e17	0.1130945
235	0xbc7d5b36	-0.015463641
236	0x3e247bf0	0.16062903
237	0x3c8bb942	0.017056111
238	0xbc19ca13	-0.009386557
239	0x3d81a05d	0.06329415
240	0x3e518a55	0.20462926
241	0xbc196238	-0.009361796
242	0xbd08270b	-0.03324036
243	0x3e2e1f28	0.17004073
244	0x3c0e1c3c	0.008673724
245	0x3e32860f	0.17433952
246	0xbe2c873c	-0.16848463
247	0xbbc69a51	-0.0060608764
248	0xbe402bdd	-0.18766733
249	0xbd25d14e	-0.04048281
250	0x3d210633	0.039312553
251	0xbe3a6404	-0.18202215
252	0x3da5b8ec	0.08091912
253	0x3da612df	0.08109068
254	0xbe846153	-0.25855502
255	0xbd6a4c94	-0.057201937

fc3.bias f4 [10]
0	0xbe002bd6	-0.12516722
1	0xbeef98c7	-0.46796247
2	0x3e869120	0.26282597
3	0x3ebc52f7	0.36782047
4	0x3ec8cf4e	0.3922066
5	0x3b07e8c9	0.0020738116
6	0xbdbd3903	-0.0923939
7	0xbe97a88e	-0.29620785
8	0x3f017ce7	0.5058121
9	0xbed32757	-0.4124095
