classifier/lapl_no_amax_CNN.pt (torch, 67655 bytes, 10 tensors)

weight f4 [6, 1, 3, 3]
0.30516624 -0.14652662 0.011336919 0.21248016 -0.14749116 -0.48440066 -0.11111726 -0.47441667
0.041155018 -0.032886453 0.20213492 0.008616436 -0.5031761 0.12519814 -0.32200173 -0.104870744
-0.4592888 -0.17756346 0.10107751 0.31497198 -0.61454195 0.38926926 0.09891532 0.084897906
-0.39341375 -0.10337783 -0.5194735 -0.2293285 0.0948121 0.25752008 -0.13650449 -0.16106863
0.15944834 0.3333334 -0.39624488 -0.030037938 -0.061504286 0.28935462 0.22990505 0.20317106
0.2555341 0.030207356 -0.07623331 0.053301536 0.21583724 0.16709712 0.13306692 0.001059728
-0.16010934 -0.51927817 -0.25574493 0.32756543 -0.5172272 0.25913423
00000000: c03e 9c3e 130b 16be 7cbe 393c 6694 593e
00000010: ec07 17be 5d03 f8be 7291 e3bd bee6 f2be
00000020: 2a92 283d f2b3 06bd 75fc 4e3e f42b 0d3c
00000030: 26d0 00bf f133 003e 69dd a4be 79c6 d6bd
00000040: e727 ebbe 32d3 35be ba01 cf3d 0244 a13e
00000050: 9f52 1dbf 4d4e c73e 1e94 ca3d f4de ad3d
00000060: 876d c9be c1b7 d3bd 37fc 04bf 17d5 6abe
00000070: d92c c23d acd9 833e d5c7 0bbe 2def 24be
00000080: 6d46 233e adaa aa3e 9ce0 cabe 1f12 f6bc
00000090: ebeb 7bbd 4a26 943e 3b6c 6b3e 130c 503e
000000a0: 5ed5 823e 6b75 f73c 3620 9cbd b652 5a3d
000000b0: 7004 5d3e 821b 2b3e b242 083e 92e6 8a3a
000000c0: b4f3 23be 6aef 04bf 00f1 82be a8b6 a73e
000000d0: 0069 04bf 3ead 843e

bias f4 [6]
-0.14763573 0.045695562 0.07822379 -0.22925939 -0.106959864 -0.00061308505
00000000: d22d 17be 452b 3b3d cb33 a03d f9c2 6abe
00000010: c60d dbbd 71b7 20ba

weight f4 [16, 6, 3, 3]
0.25926334 0.24864326 0.020288138 0.35561785 -0.26350006 0.10066515 -0.13919978 0.11197308
-0.10409395 0.025902381 -0.005695205 -0.0641958 -0.19234312 0.09196329 0.06376985 -0.16768348
-0.009118918 -0.076253854 0.014546304 0.20145638 -0.024274308 -0.03198149 -0.066647634 0.1852062
-0.07423333 -0.1187725 0.19902264 -0.012207241 0.18383637 -0.05851491 0.0064452514 -0.11413674
0.027373256 -0.10789467 0.069178134 0.018682525 -0.08957106 -0.09310123 -0.08489809 -0.05096584
0.05485899 0.020010795 0.11692236 -0.0969528 0.003957989 0.03272751 -0.029015109 -0.069288954
0.06704867 0.07030077 -0.013562531 -0.13031264 -0.008471531 0.008053184 0.1203868 0.15103169
0.063916415 0.27596077 0.1811359 -0.1662965 -0.0375939 -0.065381415 0.03202994 0.076574266
0.115267396 0.015530161 -0.0113777295 0.18755552 0.004544637 0.13300124 -0.03545039 0.081918046
-0.08675739 0.109988384 0.10195368 0.23556828 0.14099817 -0.11263787 0.047877062 0.043674685
-0.030211817 -0.270605 0.17574228 -0.11012571 0.026754608 -0.10829388 0.020757576 -0.19604175
-0.08729601 0.020932177 0.047865607 -0.09599548 0.0815254 -0.079272285 0.108106725 0.13107197
-0.093489535 0.002556542 0.12636733 0.08479516 0.122592114 -0.086670384 -0.078236185 0.17338322
0.059210323 0.06949889 0.10969852 -0.08231226 0.19254199 0.31102353 -0.13488095 -0.1069138
0.12400528 0.0037100033 -0.08133348 -0.3439811 -0.032955058 0.077379 0.17195413 0.07012732
-0.17632252 -0.000703649 0.014293723 -0.027216738 0.03284905 -0.062220007 0.04712647 0.15466626
-0.011989052 0.09094325 0.16200253 -0.097000875 0.035188448 -0.006039351 -0.120230764 0.06742877
0.0781927 0.1435479 -0.025401786 -0.00086565723 0.18090317 -0.120062746 -0.010037958 -0.17267524
-0.06450968 0.035480134 -0.008526229 -0.02576299 0.0689942 0.049709212 -0.063768245 -0.047477666
-0.0399331 0.24179319 0.12658632 0.16555843 0.15551405 0.0072928 -0.007391044 -0.20978796
-0.16894226 -0.10517627 0.06968316 0.09840884 -0.08034737 0.14345852 0.013621104 -0.0614323
-0.010863261 -0.07283533 -0.16162153 0.20224804 0.18388836 -0.05717709 -0.049541738 0.110721745
-0.108263955 0.14552279 0.042917334 -0.053901818 0.13270721 0.14701018 0.07765365 0.21059646
0.12746471 0.04854349 0.023362322 -0.14392038 -0.12365228 -0.05991358 0.035545614 -0.028993865
-0.15455355 -0.08964279 0.12179695 -0.12787768 -0.03676641 -0.05043204 -0.09007103 -0.03758931
-0.07548982 0.03755901 -0.070764706 0.10470005 0.096658126 0.08843027 -0.09765942 0.12444368
0.23949078 0.012477409 0.024454663 0.22017938 -0.14015609 -0.024120793 -0.06322476 -0.07453363
-0.13042329 -0.18117504 -0.1139549 -0.21797052 -0.09199863 0.15375322 -0.1021701 -0.15321192
0.05534533 0.118924715 0.19613944 0.12251598 0.19993055 0.040300597 -0.022433462 0.17503864
-0.008611047 0.16891202 0.247355 0.021271603 0.17759068 -0.08433482 -0.09831899 0.05916602
0.08059049 0.057459705 0.064565144 0.3857592 0.06321155 -0.23302677 0.0927758 -0.0510485
0.04794879 0.031155877 0.0041451603 0.012790896 0.059725832 -0.059173368 -0.046821944 0.12830326
00000000: 2abe 843e 579c 7e3e 4f33 a63c 8b13 b63e
00000010: 7be9 86be 8829 ce3d 638a 0ebe 2452 e53d
00000020: 352f d5bd 3b31 d43c d89e babb 1679 83bd
00000030: 98f5 44be 4057 bc3d c499 823d 38b5 2bbe
00000040: 8467 15bc fb2a 9cbd 9f53 6e3c 954a 4e3e
00000050: eada c6bc 06ff 02bd 8e7e 88bd b2a6 3d3e
00000060: a507 98bd ff3e f3bd 97cc 4b3e e100 48bc
00000070: 9a3f 3c3e 55ad 6fbd b032 d33b 86c0 e9bd
00000080: e13d e03c e1f7 dcbd 44ad 8d3d 180c 993c
00000090: 0871 b7bd dcab bebd 0ddf adbd 8fc1 50bd
000000a0: d2b3 603d aeed a33c fe74 ef3d 318f c6bd
000000b0: 05b2 813b 480d 063d 18b1 edbc 5ee7 8dbd
000000c0: d050 893d daf9 8f3d 6135 5ebc ad70 05be
000000d0: 2dcc 0abc 80f1 033c 5b8d f63d 0da8 1a3e
000000e0: 9ce6 823d bb4a 8d3e b07b 393e a149 2abe
000000f0: 10fc 19bd b1e6 85bd d431 033d f8d2 9c3d
00000100: 5011 ec3d 3772 7e3c a869 3abc 8e0e 403e
00000110: 2eeb 943b 7a31 083e 6e34 11bd a6c4 a73d
00000120: dcad b1bd 9741 e13d 17cd d03d d038 713e
00000130: d361 103e afae e6bd bd1a 443d 3ae4 323d
00000140: c67e f7bc bd8c 8abe c9f5 333e 9789 e1bd
00000150: 7b2c db3c 2fc9 ddbd cb0b aa3c 2bbf 48be
00000160: 40c8 b2bd f579 ab3c ba0e 443d 4799 c4bd
00000170: caf6 a63d 8259 a2bd 0f67 dd3d bb37 063e
00000180: 7177 bfbd a88b 273b 7066 013e 16a9 ad3d
00000190: 9311 fb3d 3e80 b1bd 4b3a a0bd 5f8b 313e
000001a0: 8686 723d 6f55 8e3d 9ea9 e03d 5593 a8bd
000001b0: ba29 453e 7a3e 9f3e 3b1e 0abe 9ff5 dabd
000001c0: 7bf6 fd3d 8723 733b 2b92 a6bd 4a1e b0be
000001d0: e2fb 06bd e278 9e3d be14 303e ea9e 8f3d
000001e0: e48d 34be 1675 38ba 3830 6a3c a3f5 debc
000001f0: ba8c 063d 68da 7ebd af07 413d d560 1e3e
00000200: bb6d 44bc 7440 ba3d fee3 253e 65a8 c6bd
00000210: c321 103d c0e5 c5bb 8c3b f6bd 1818 8a3d
00000220: 7f23 a03d 38fe 123e 6817 d0bc 46ed 62ba
00000230: ae3e 393e 75e3 f5bd 3f76 24bc c7d1 30be
00000240: a71d 84bd 9e53 113d 99b1 0bbc e80c d3bc
00000250: d54c 8d3d e39b 4b3d ed98 82bd f177 42bd
00000260: e490 23bd a298 773e d89f 013e 2688 293e
00000270: 133f 1f3e 71f8 ee3b 9230 f2bb a8d2 56be
00000280: 33ff 2cbe a866 d7bd 0bb6 8e3d 938a c93d
00000290: 298d a4bd cae6 123e 0d2b 5f3c 6fa0 7bbd
000002a0: d2fb 31bc b12a 95bd 1d80 25be 1c1a 4f3e
000002b0: 3b4d 3c3e 8632 6abd 47ec 4abd 15c2 e23d
000002c0: 7eb9 ddbd ed03 153e 16ca 2f3d 27c8 5cbd
000002d0: 66e4 073e d689 163e e008 9f3d 99a6 573e
000002e0: 1c86 023e 8ad5 463d 5762 bf3c dd5f 13be
000002f0: 683d fdbd f167 75bd 4798 113d 8b84 edbc
00000300: 4943 1ebe a496 b7bd ae70 f93d 5ef2 02be
00000310: 6098 16bd d491 4ebd 2977 b8bd 40f7 19bd
00000320: 689a 9abd 7ad7 193d 16ed 90bd fb6c d63d
00000330: b2f4 c53d ee1a b53d a901 c8bd 54dc fe3d
00000340: 123d 753e 0c6e 4c3c 2555 c83c b476 613e
00000350: 1485 0fbe f898 c5bc fc7b 81bd 16a5 98bd
00000360: af8d 05be f385 39be 3061 e9bd aa33 5fbe
00000370: c769 bcbd 7c71 1d3e 8f3e d1bd 96e3 1cbe
00000380: c9b1 623d cd8e f33d c7d8 483e a8e9 fa3d
00000390: 98ba 4c3e 3d12 253d 61c6 b7bc 543d 333e
000003a0: 5915 0dbc 46f7 2c3e a14a 7d3e c941 ae3c
000003b0: 55da 353e bcb7 acbd 775b c9bd 1258 723d
000003c0: a00c a53d de5a 6b3d bb3a 843d 3b82 c53e
000003d0: 0f75 813d 929e 6ebe 3d01 be3d 3b18 51bd
000003e0: f365 443d 9c3a ff3c 20d4 873b e890 513c
000003f0: 13a3 743d c65f 72bd 5ec8 3fbd ee61 033e

bias f4 [16]
0.0877596 0.108892746 0.046628717 -0.071801215 -0.00041680076 -0.0048992466 0.1367603 0.15916899
-0.013956358 0.116134234 0.08669955 -0.03114608 -0.12687565 -0.023314599 -0.052013014 -0.085894704
00000000: 4ebb b33d 2903 df3d c1fd 3e3d 840c 93bd
00000010: 0d86 dab9 dc89 a0bb e40a 0c3e 32fd 223e
00000020: 35a9 64bc c9d7 ed3d 898f b13d 1026 ffbc
00000030: b1eb 01be 42fe bebc 990b 55bd 90e9 afbd

weight f4 [80, 144]
-0.061794356 -0.07467805 0.029304678 -0.038140755 -0.0019719813 -0.021668183 -0.059057046 -0.11349989
0.0839063 0.027866192 0.07406121 0.013768482 0.015384599 -0.006453112 0.08210754 -0.03334262
0.009942979 -0.05558879 -0.10307569 -0.018668357 0.016739013 -0.000985269 0.083850145 -0.0028859116
0.027964437 0.0531673 -0.0652153 0.012556701 0.047058392 -0.0443408 0.075400524 -0.043195304
0.12877353 -0.04314468 -0.009156114 -0.053471405 0.14621086 0.078431875 0.038140174 0.013225023
-0.011854902 -0.060996123 -0.045591317 -0.035721943 -0.015002307 0.08208243 0.082689084 0.012165075
0.09720817 0.040000208 0.024494918 0.0020418838 0.0038164638 0.06179819 0.028497325 -0.005635447
0.05987679 0.029335769 0.046519965 0.0500101 0.010285394 0.05445625 0.075733535 -0.044148136
0.047305398 0.097510286 -0.014473308 -0.018488394 0.066975 0.06725561 -0.019684207 0.020712158
0.07113764 -0.009656256 -0.015016718 0.031853847 -0.034058385 0.16651608 0.07791631 0.086290136
0.012075966 -0.015004239 1.3563457e-05 0.006072356 -0.057144992 -0.080063306 -0.011028691 0.04307146
0.09569604 -0.060361277 0.068140864 0.09554425 0.019869503 -0.0030061821 -0.06385273 0.038742535
-0.058966774 -0.007174056 0.0807077 -0.02818191 0.04076494 -0.16843002 0.030967409 -0.043845396
0.0074800574 0.0411402 0.11030073 0.04456835 0.30048555 -0.055159472 -0.063375026 -0.0006719742
-0.14452235 -0.10406219 -0.2319365 0.024515828 0.0024437485 0.09576509 0.13191165 0.11486326
-0.07300412 -0.053364906 -0.02459115 -0.014419643 0.093306646 -0.083913945 0.15199798 0.0895952
0.097042404 0.06294533 -0.107591204 -0.10162874 0.013960007 -0.14650142 -0.042734273 0.050543696
0.046022814 -0.079422325 0.07764393 -0.06549146 -0.06251132 0.025351694 0.010441452 -0.005036692
0.12248971 0.04614066 -0.0016981631 0.023434784 0.002004911 0.08191112 0.068083376 0.11556566
-0.030656025 0.10609142 0.002118464 0.045471482 0.058096062 0.021083245 0.07989551 0.06374964
-0.026765086 0.10979422 0.07378838 0.013293486 0.11759769 -0.08420527 0.028050238 -0.0019232113
0.06428933 0.008356069 -0.039756574 0.10112295 -0.06899087 8.053173e-05 0.010786949 0.10856627
-0.03486225 0.08729467 0.028448736 0.07140952 -0.06949 -0.07329161 0.04163631 -0.07730789
-0.08401241 0.032704588 0.11527863 -0.024536029 -0.040794883 -0.10940981 -0.09074774 0.102125235
-0.040971957 -0.04414623 0.008174659 0.05963003 0.11790396 -0.0393005 -0.07836071 0.09084936
-0.0135758445 -0.017383948 -0.038321286 -0.0039626425 -0.030627219 0.022212874 -0.040494375 -0.07010992
-0.032351267 -0.05666622 0.057527684 0.055468783 0.052270688 0.08361007 0.0457846 0.050339956
-0.05705728 -0.00084353256 0.09038671 0.0072762584 0.030323334 -0.049919136 -0.015778063 -0.14192434
0.13490957 -0.050539758 -0.069204524 0.018737745 -0.03773375 -0.031326815 -0.055002846 -0.026122455
0.05256332 0.07139049 -0.024224231 0.04709504 -0.005154835 0.07575198 0.043530185 0.056747314
0.011741238 -0.09064501 -0.031038824 0.008049338 -0.03872993 0.12001547 -0.10184088 0.056321457
-0.03472401 0.014496948 -0.046036962 0.092076905 -0.2592331 0.06184872 0.06865361 -0.05649913
00000000: 141c 7dbd cef0 98bd 5d10 f03c 7b39 1cbd
00000010: 5b3c 01bb 7981 b1bc cde5 71bd a172 e8bd
00000020: 11d7 ab3d a447 e43c 67ad 973d 3395 613c
00000030: af0f 7c3c a074 d3bb ff27 a83d 4592 08bd
00000040: e0e7 223c 12b1 63bd 5919 d3bd 62ee 98bc
00000050: 4120 893c 2424 81ba a0b9 ab3d 9021 3dbb
00000060: ad15 e53c f4c5 593d 998f 85bd 9fba 4d3c
00000070: 4dc0 403d b39e 35bd 976b 9a3d 8fed 30bd
00000080: 35dd 033e 7ab8 30bd 8703 16bc d504 5bbd
00000090: 4db8 153e e4a0 a03d df38 1c3d c4ad 583c
000000a0: 103b 42bc 12d7 79bd f6bd 3abd 2c51 12bd
000000b0: 3ccc 75bc d51a a83d e558 a93d 0650 473c
000000c0: 1415 c73d 42d7 233d 91a9 c83c 20d1 053b
000000d0: a31d 7a3b 1920 7d3d 3973 e93c 8ea9 b8bb
000000e0: 5d41 753d 9151 f03c b88b 3e3d 64d7 4c3d
000000f0: 1284 283c 840d 5f3d 2f1a 9b3d add4 34bd
00000100: 4ec3 413d 79b3 c73d 7421 6dbc f974 97bc
00000110: 302a 893d 4fbd 893d c640 a1bc 8bac a93c
00000120: 9cb0 913d 4635 1ebc ae08 76bc 2e79 023d
00000130: ce80 0bbd 3183 2a3e 9692 9f3d e2b8 b03d
00000140: 46da 453c 57d4 75bc 9b8e 6337 9dfa c63b
00000150: de10 6abd 3bf8 a3bd afb1 34bc b36b 303d
00000160: 49fc c33d 633d 77bd 708d 8b3d b4ac c33d
00000170: 5ec5 a23c 5e03 45bb 38c5 82bd 7eb0 1e3d
00000180: 2587 71bd 5814 ebbb 144a a53d c0dd e6bc
00000190: 23f9 263d eb78 2cbe 5daf fd3c 3b97 33bd
000001a0: 451b f53b a082 283d 59e5 e13d 4d8d 363d
000001b0: 3ed9 993e e6ee 61bd c4ca 81bd 6d27 30ba
000001c0: abfd 13be 8f1e d5bd c380 6dbe 6bd5 c83c
000001d0: 4c27 203b 7d20 c43d d913 073e 6e3d eb3d
000001e0: 2f83 95bd 2995 5abd 6173 c9bc 5e40 6cbc
000001f0: 8e17 bf3d 13db abbd 5ca5 1b3e b07d b73d
00000200: 2bbe c63d 7be9 803d c758 dcbd bb22 d0bd
00000210: 83b8 643c 7804 16be 220a 2fbd e806 4f3d
00000220: 6b82 3c3d 2ca8 a2bd c803 9f3d 6320 86bd
00000230: ef05 80bd 5bae cf3c a012 2b3c d60a a5bb
00000240: e3db fa3d fdfd 3c3d e694 deba 4efa bf3c
00000250: d364 033b 04c1 a73d 4c6f 8b3d b0ad ec3d
00000260: 5822 fbbc 7546 d93d eed5 0a3b 4e40 3a3d
00000270: 23f6 6d3d c5b6 ac3c 42a0 a33d 2c8f 823d
00000280: 7442 dbbc cbdb e03d 5d1e 973d eccc 593c
00000290: 0fd7 f03d d073 acbd 9dc9 e53c 4314 fcba
000002a0: 20aa 833d e5e7 083c cad7 22bd 8d19 cf3d
000002b0: 164b 8dbd 25e3 a838 bebb 303c fe57 de3d
000002c0: b8cb 0ebd 8cc7 b23d 530d e93c 283f 923d
000002d0: c650 8ebd e919 96bd d68a 2a3d 9953 9ebd
000002e0: b30e acbd 3ff5 053d 3417 ec3d c8ff c8bc
000002f0: 8918 27bd 4012 e0bd f3d9 b9bd 0927 d13d
00000300: 36d2 27bd add2 34bd 01ef 053c 9e3e 743d
00000310: a277 f13d 90f9 20bd 947b a0bd 3b0f ba3d
00000320: 386d 5ebc c868 8ebc c8f6 1cbd 0ed9 81bb
00000330: efe5 fabc c6f7 b53c 6edd 25bd ca95 8fbd
00000340: c382 04bd d71a 68bd 26a2 6b3d 3c33 633d
00000350: ca19 563d c23b ab3d a288 3b3d 4531 4e3d
00000360: e5b4 69bd 8320 5dba ab1c b93d ae6d ee3b
00000370: a468 f83c 0278 4cbd ff40 81bc 9d54 11be
00000380: bc25 0a3e c702 4fbd 1abb 8dbd e67f 993c
00000390: b48e 1abd 8c50 00bd aa4a 61bd c2fe d5bc
000003a0: a34c 573d 2d35 923d e571 c6bc bbe6 403d
000003b0: e4e9 a8bb db23 9b3d b54c 323d df6f 683d
000003c0: 525e 403c 17a4 b9bd 2245 febc 5fe1 033c
000003d0: 46a3 1ebd acca f53d f491 d0bd 54b1 663d
000003e0: c33a 0ebd 9b84 6d3c 4191 3cbd d192 bc3d
000003f0: 33ba 84be 1555 7d3d 449a 8c3d a26b 67bd

bias f4 [80]
-0.01356841 0.060985092 0.033723533 -0.06195548 0.051068507 -0.077845424 0.026781704 0.035884183
0.00016950099 -0.059144344 -0.065547876 -0.050525762 -0.031505138 0.047104232 0.0017750557 0.03334063
0.0651352 0.053228363 0.043004453 -0.005282779 0.001493006 -0.07416099 0.026833104 0.011974205
-0.060754746 0.03448635 -0.031597 0.07448419 -0.07532045 -0.062422276 0.01713517 0.009639642
0.046277214 0.042208374 0.046858214 0.07603347 -0.031018425 0.022349477 0.039968994 -0.0076731234
0.047148496 0.06568024 -0.08542666 0.023351561 0.09893622 0.059948895 0.0873354 -0.007732225
0.061977092 -0.0032136792 -0.0022119083 -0.027081776 0.06773976 0.020880103 -0.03677823 0.086745314
-0.08533552 -0.00095891015 0.014913674 -0.073749825 0.052289993 0.04707787 -0.07345635 0.013601924
-0.0360794 -0.003563683 -0.06412873 0.03387293 0.08035872 -0.061106257 0.105952755 0.01800664
0.050008673 -0.032862887 -0.016951064 -0.04807963 -0.015081406 0.006766551 0.05171425 0.09031146
00000000: 094e 5ebc 81cb 793d b021 0a3d 08c5 7dbd
00000010: 362d 513d 6c6d 9fbd 4e65 db3c 4bfb 123d
00000020: 13bc 3139 5741 72bd f73d 86bd 1af4 4ebd
00000030: 880b 01bd 5ef0 403d fca8 e83a 2f90 083d
00000040: 9b65 853d fc05 5a3d 7025 303d 2a1b adbb
00000050: f8b0 c33a b8e1 97bd 19d1 db3c 752f 443c
00000060: f8d9 78bd 8f41 0d3d db6b 01bd 2b8b 983d
00000070: 9c41 9abd 80ae 7fbd 0e5f 8c3c 97ef 1d3c
00000080: 2d8d 3d3d b0e2 2c3d 66ee 3f3d 70b7 9b3d
00000090: 5a1a febc 4016 b73c 87b6 233d d36e fbbb
000000a0: c81e 413d 5d83 863d 2cf4 aebd c64b bf3c
000000b0: 139f ca3d f98c 753d e7dc b23d 9b5e fdbb
000000c0: b1db 7d3d 979c 52bb aaf5 10bb 9ada ddbc
000000d0: 25bb 8a3d c00c ab3c c5a4 16bd 87a7 b13d
000000e0: 64c4 aebd 5f5f 7bba 7c58 743c 260a 97bd
000000f0: 082e 563d bad4 403d 4870 96bd 9bda 5e3c
00000100: fec7 13bd ae8c 69bb ec55 83bd 57be 0a3d
00000110: 1d93 a43d 8e4a 7abd c2fd d83d a982 933c
00000120: e5d5 4c3d 3c9b 06bd f5dc 8abc 25ef 44bd
00000130: 0018 77bc f2b9 dd3b 52d2 533d 37f5 b83d

weight f4 [40, 80]
-0.057200093 0.06552694 0.1626441 -0.035470795 -0.034826472 0.08906771 0.09744681 0.054559287
-0.042656075 0.13835882 0.07569604 -0.06702834 -0.07566547 -0.046457097 0.0060698027 -0.056066345
0.032386605 0.02128841 0.15289703 -0.04458353 0.070002764 -0.078956336 0.15327235 -0.07086245
0.009408518 -0.049863137 -0.069596566 0.085663 0.021464264 -0.07907631 -0.10646093 0.059862763
-0.118381955 -0.07134441 -0.124937 0.08431116 -0.034878165 -0.021450961 -0.0042284583 0.058992
-0.14503099 0.14320214 0.16491 0.110722475 0.15900624 0.113727614 0.10501419 0.059475154
-0.17555693 -0.22176827 -0.11130119 0.10564685 -0.012174045 0.013119205 0.1493602 0.041891567
0.010629416 -0.019340238 0.1661896 -0.07433596 -0.029129285 0.06426653 0.07461228 -0.035425607
-0.06610346 0.0392894 -0.10174509 0.16033264 -0.09532932 0.023901083 -0.031664845 -0.13444991
-0.036219917 -0.08709966 0.17302535 0.119760014 -0.109177105 -0.1287458 0.006876579 -0.012168637
0.10504058 -0.09099716 -0.092197664 0.010241824 -0.0206525 0.10185475 -0.08546578 -0.099120215
-0.076660894 0.05473915 -0.052322224 -0.028136695 -0.10060218 -0.11103996 0.03302978 0.09118979
0.08278764 0.00046954557 -0.030323114 0.07948669 0.035536923 0.09487085 -0.0032435963 0.05710955
0.0052943495 -0.09182248 0.089597054 -0.064850174 0.08031476 -0.09736431 -0.09702125 -0.009547808
-0.062298752 -0.011696403 -0.0958372 0.018276332 -0.10686781 0.010310757 -0.00019496203 0.062467087
0.08730477 -0.107246876 -0.07352258 -0.100091204 -0.025336882 -0.093795896 -0.015148755 0.037629258
0.10070902 0.043911427 0.03453784 -0.07831337 -0.07613069 0.006000147 -0.0021412503 -0.08346168
0.053105965 0.0063107163 -0.09337022 -0.09748263 -0.09839087 0.052645348 -0.0052964687 -0.007883354
6.249501e-05 0.1047973 -0.07671559 -0.029986368 0.044904575 -0.0908236 -0.05597924 -0.0046692663
-0.10847354 0.08449805 -0.04853911 0.08249322 0.029953102 -0.104925 0.09671366 0.0635687
0.1674283 -0.11673943 -0.14287749 0.019164974 -0.03628574 -0.07136735 0.1355754 -0.004461312
0.039265722 -0.077043235 0.14374489 0.102806054 -0.07238536 0.110077724 -0.12298755 0.08332369
0.15129666 0.17035995 -0.105018064 0.1100476 0.0253447 0.01762186 -0.14692791 0.1401136
-0.10612755 0.11835451 0.15863131 -0.06814456 0.09578994 0.06490082 -0.032762654 -0.12484855
0.2540637 -0.042279586 -0.007455875 -0.06677052 0.09135745 0.059443932 0.006519303 0.14015229
0.10287354 -0.075798504 -0.23688391 0.0144618135 0.052250538 0.02753681 -0.051730067 -0.027837351
0.036036044 0.23836777 0.010380079 -0.051009234 -0.043763135 0.08748572 -0.04176245 0.11918671
-0.020545023 -0.06773466 0.098312005 0.17442568 -0.005296898 -0.053307872 0.011697029 -0.026923573
-0.08367943 0.028413441 0.10344309 -0.04817278 -0.013161471 0.067097194 -0.01755749 0.01212913
-0.075129464 0.11645314 -0.01923777 -0.008644047 0.17868903 0.08346396 0.108583644 0.04069925
-0.03576283 0.19928679 0.0533418 0.037703216 -0.02181084 0.10074466 -0.11096369 0.06617217
0.0036785763 0.16810606 0.07831657 -0.23024721 0.11311891 0.06157299 0.08206979 -0.14586106
00000000: a54a 6abd fd32 863d 2d8c 263e d349 11bd
00000010: 34a6 0ebd 2269 b63d 3192 c73d 8f79 5f3d
00000020: 23b8 2ebd efad 0d3e 8706 9b3d 2846 89bd
00000030: 7ff6 9abd cc49 3ebd 32e5 c63b d3a5 65bd
00000040: d1a7 043d 0865 ae3c 0a91 1c3e 389d 36bd
00000050: 9c5d 8f3d dcb3 a1bd 6df3 1c3e 5520 91bd
00000060: 2f26 1a3c 4a3d 4cbd a588 8ebd 1570 af3d
00000070: d3d5 af3c c3f2 a1bd 3008 dabd a832 753d
00000080: 3d72 f2bd 051d 92bd f8de ffbd 54ab ac3d
00000090: 68dc 0ebd edb9 afbc e18e 8abb 98a1 713d
000000a0: 0183 14be 95a3 123e 2bde 283e 77c2 e23d
000000b0: 88d2 223e 06ea e83d ae11 d73d 389c 733d
000000c0: 32c5 33be 3917 63be e1f1 e3bd 605d d83d
000000d0: a575 47bc eff1 563c e1f1 183e 7e96 2b3d
000000e0: 0127 2e3c 6b6f 9ebc 9b2d 2a3e 743d 98bd
000000f0: 8aa0 eebc 2c9e 833d 53ce 983d 711a 11bd
00000100: 4061 87bd eced 203d bb5f d0bd 3d2e 243e
00000110: 053c c3bd 34cc c33c ffb2 01bd 3dad 09be
00000120: 565b 14bd 4e61 b2bd 8f2d 313e bd44 f53d
00000130: 3f98 dfbd f0d5 03be ed54 e13b f65e 47bc
00000140: 841f d73d b85c babd 21d2 bcbd 53cd 273c
00000150: 6f2f a9bc 3999 d03d af08 afbd 8aff cabd
00000160: 6300 9dbd 2936 603d d44f 56bd ed7e e6bc
00000170: 8408 cebd eb68 e3bd 3c4a 073d b6c1 ba3d
00000180: 918c a93d 572d f639 2e68 f8bc ebc9 a23d
00000190: 2a8f 113d a64b c23d 8492 54bb b4eb 693d
000001a0: 397c ad3b 6d0d bcbd a97e b73d 2bd0 84bd
000001b0: 117c a43d f066 c7bd 14b3 c6bd 696e 1cbc
000001c0: fa2c 7fbd 45a2 3fbc 4b46 c4bd 3fb8 953c
000001d0: 83dd dabd 73ee 283c b96e 4cb9 7ddd 7f3d
000001e0: d8cc b23d 40a4 dbbd 0293 96bd 9efc ccbd
000001f0: 4b8f cfbc 1018 c0bd 7c32 78bc 2321 1a3d
00000200: 8840 ce3d 78dc 333d 8d77 0d3d c362 a0bd
00000210: 68ea 9bbd e29c c43b 3854 0cbb f5ed aabd
00000220: a485 593d 20ca ce3b e338 bfbd f9a4 c7bd
00000230: 2781 c9bd a6a2 573d 008e adbb 2f29 01bc
00000240: c10f 8338 f89f d63d 101d 9dbd f9a5 f5bc
00000250: dced 373d b901 babd 7d4a 65bd a500 99bb
00000260: 6027 debd 500d ad3d f2d0 46bd 35f2 a83d
00000270: 3560 f53c ebe2 d6bd d011 c63d 4e30 823d
00000280: 5372 2b3e 1515 efbd 7a4e 12be ddff 9c3c
00000290: 5ba0 14bd 0c29 92bd 47d4 0a3e 3330 92bb
000002a0: 18d5 203d d8c8 9dbd dc31 133e fb8b d23d
000002b0: c73e 94bd 6e70 e13d e6e0 fbbd 9ca5 aa3d
000002c0: 83ed 1a3e d772 2e3e b613 d7bd a360 e13d
000002d0: b09f cf3c b85b 903c 4574 16be f179 0f3e
000002e0: 6759 d9bd d963 f23d 3f70 223e 608f 8bbd
000002f0: 842d c43d b9ea 843d 2232 06bd 99b0 ffbd
00000300: a314 823e 5c2d 2dbd 6a50 f4bb fbbe 88bd
00000310: 9d19 bb3d 7b7b 733d e19f d53b 1584 0f3e
00000320: 5daf d23d 3f3c 9bbd b291 72be 3ef1 6c3c
00000330: a904 563d e094 e13c e8e2 53bd 280b e4bc
00000340: 889a 133d ae16 743e 3511 2a3c 0fef 50bd
00000350: f940 33bd b72b b33d 1a0f 2bbd 2918 f43d
00000360: 094e a8bc 78b8 8abd ce57 c93d a59c 323e
00000370: 9a91 adbb 5b59 5abd e5a4 3f3c d38e dcbc
00000380: 1f60 abbd 4ec3 e83c f9d9 d33d d250 45bd
00000390: 36a3 57bc 416a 893d bad4 8fbc 42b9 463c
000003a0: 7add 99bd fc7e ee3d 8798 9dbc c39f 0dbc
000003b0: 42fa 363e 27ef aa3d 1a61 de3d 42b4 263d
000003c0: 0c7c 12bd d611 4c3e ee7c 5a3d b06e 1a3d
000003d0: a6ac b2bc 3753 ce3d ee40 e3bd 4685 873d
000003e0: 4514 713b ff23 2c3e 7064 a03d edc5 6bbe
000003f0: e3aa e73d f633 7c3d 3514 a83d 9a5c 15be

bias f4 [40]
0.06561095 -0.034595206 0.06912075 0.03250756 0.11273524 -0.09522025 -0.037629273 0.06818053
-0.060605165 -0.10292613 0.022484004 0.09617548 -0.105299145 0.090907 -0.058975186 0.044483606
0.07168682 0.090236746 -0.029272987 -0.067651905 -0.026807733 0.018479455 -0.07920977 -0.08042396
-0.042223155 0.041218463 0.08751881 -0.05625839 -0.014472166 -0.051552806 -0.0040137176 -0.077163465
0.09955764 -0.10101692 -0.088831484 0.0055239834 0.046090078 0.08737694 0.012130699 0.13712807
00000000: 095f 863d b4b3 0dbd 2e8f 8d3d a626 053d
00000010: bce1 e63d d602 c3bd 2721 1abd 3ca2 8b3d
00000020: 1f3d 78bd efca d2bd 6030 b83c a6f7 c43d
00000030: 14a7 d7bd 732d ba3d f78f 71bd 7134 363d
00000040: 8ad0 923d 0bce b83d e7cd efbc 158d 8abd
00000050: e49b dbbc 3a62 973c bb38 a2bd 51b5 a4bd
00000060: 30f2 2cbd b1d4 283d 103d b33d 336f 66bd
00000070: aa1c 6dbc 0929 53bd 8185 83bb e107 9ebd
00000080: e0e4 cb3d f5e1 cebd 48ed b5bd 8802 b53b
00000090: f3c8 3c3d aef2 b23d d7bf 463c 4d6b 0c3e

weight f4 [2, 40]
0.2188191 -0.13967723 -0.19575377 0.20804694 -0.17004976 -0.07657294 0.03973034 0.22860906
0.07064184 0.15767092 0.25650454 0.24823116 -0.13974594 -0.069780976 -0.15319245 -0.16984013
0.12578434 -0.034420844 -0.099781476 0.091850065 0.0594798 0.015909106 0.19611818 -0.08575807
0.016734052 0.20101948 -0.17721626 -0.094089605 -0.0042415815 -0.22328356 0.045134924 0.08667074
-0.082331054 0.29767138 0.004441171 -0.2041956 -0.21799332 -0.21049803 0.1024494 0.09247413
-0.032958783 -0.10548653 0.1188072 -0.096234806 0.19355358 -0.12035644 0.13358378 -0.21617615
0.13499407 -0.1586479 -0.028875913 0.016528621 -0.08654894 0.13662331 0.13898143 0.18761554
-0.23008922 0.15092288 -0.03285509 -0.103687346 -0.025426274 -0.20821415 -0.08662488 0.027013801
0.021950698 -0.20985326 0.08818021 0.11224419 0.17249069 0.24238573 0.25099903 -0.04923914
0.23493427 -0.16345839 0.15632254 0.022636633 -0.0050008157 0.13930263 -0.21588607 -0.1576879
00000000: 1d12 603e 8c07 0fbe ad73 48be 420a 553e
00000010: 8621 2ebe 46d2 9cbd 48bc 223d 7e18 6a3e
00000020: abac 903d 7c74 213e 9054 833e 4f30 7e3e
00000030: 8f19 0fbe 54e9 8ebd 7bde 1cbe 92ea 2dbe
00000040: 9ccd 003e dffc 0cbd 3b5a ccbd e31b bc3d
00000050: 17a1 733d d053 823c 34d3 483e eda1 afbd
00000060: da15 893c 0dd8 4d3e 2e78 35be 0db2 c0bd
00000070: f7fc 8abb 72a4 64be 66df 383d 6e80 b13d
00000080: 2f9d a8bd 6268 983e 3e87 913b a718 51be
00000090: a439 5fbe cc8c 57be fed0 d13d 1463 bd3d
000000a0: caff 06bd 5209 d8bd 3051 f33d c116 c5bd
000000b0: e932 463e 707d f6bd 30ca 083e 485d 5dbe
000000c0: e33b 0a3e 9874 22be 2e8d ecbc 0867 873c
000000d0: 9240 b1bd fbe6 0b3e 2651 0e3e 4a1e 403e
000000e0: 829c 6bbe 878b 1a3e 0f93 06bd 085a d4bd
000000f0: c34a d0bc 1736 55be 6368 b1bd 0c4c dd3c
00000100: f3d1 b33c c6e3 56be d397 b43d 48e0 e53d
00000110: 66a1 303e f733 783e f282 803e fbae 49bd
00000120: 9c92 703e a361 27be 0413 203e 7670 b93c
00000130: e2dd a3bb 59a5 0e3e 3d11 5dbe f078 21be

bias f4 [2]
-0.016027978 0.03345453
00000000: 1b4d 83bc 9e07 093d
