classifier/low_lapl_50_upper_CNN.pt (torch, 68487 bytes, 10 tensors)

weight f4 [6, 1, 3, 3]
00000000: cba1 0abf a6c1 b8be bfe3 1e3e 99de e03e
00000010: 1add 0fbe a9cd d83e 5119 3ebe 3772 84be
00000020: d9db 36be cb04 3a3c f7fc 6b3e 7c45 9f3e
00000030: 5886 90bb 8628 f3be 83e0 30bf a5d3 673e
00000040: b9eb 43bd 54fe 34be 422d 76be d30f 57be
00000050: 37e2 12bf e4f8 89be c2d3 fbbe 7aeb 533e
00000060: b18c 76be 8c66 c73e c3be 393e 46dd 61bc
00000070: f08a cf3e b522 18bf 1457 05be 91d5 96be
00000080: b15e d23d 176c c23d 3a68 99be f443 f6be
00000090: b95e 5fbd 6f76 5dbe 39ff 62be 3073 28bf
000000a0: 73b9 95be 2759 1ebe 27be 9cbe ca54 03bf
000000b0: 4690 083e bb6b aa3e 9c59 16bf e94c 8dbe
000000c0: 9dde 61be 1e35 19be 0ff5 51be 0e06 adbe
000000d0: ddbb abbe 73eb c3be
-0.54153126 -0.36085242 0.15516566 0.4391983 -0.14049187 0.42344406 -0.18564345 -0.2586839
-0.17857303 0.011353682 0.23045717 0.311077 -0.0044105463 -0.47491854 -0.6909258 0.2263933
-0.047832225 -0.17675143 -0.24040702 -0.2100213 -0.57376426 -0.269477 -0.49184996 0.20695296
-0.24077107 0.38945425 0.18139176 -0.013785666 0.40535688 -0.5942796 -0.13021499 -0.29459813
0.10271967 0.09493273 -0.2996233 -0.4809872 -0.054533694 -0.2162721 -0.22167672 -0.6580076
-0.2924305 -0.15463696 -0.30613825 -0.5130125 0.13336286 0.33285317 -0.58730483 -0.2759774
-0.22057576 -0.14961669 -0.20503639 -0.33793682 -0.33541766 -0.3826557

bias f4 [6]
00000000: 9b2e b33c 73dd aa39 fb44 14be 9a95 1a3e
00000010: 0f41 c7bd cbc0 103d
0.02187281 0.0003258992 -0.14479439 0.15096131 -0.09729206 0.03534011

weight f4 [16, 6, 3, 3]
00000000: 57b4 6c3e 250c 483e 2461 e73d e29c 823d
00000010: 92e1 1d3d 7c4d a73c 8c5d 05bd 0120 373e
00000020: 31c8 c73d 273c 353e 547f 5e3d dce0 bd3d
00000030: 1a9e 1e3d a00e 523d 7d05 953c b55f 44be
00000040: 9d9b 5dbe 2a43 3ebe a493 693e 08a5 df3c
00000050: 3870 653e 6551 5a3e 32fe 09bd ab78 9d3a
00000060: a29b db3c 505b d5bd 3bbc 2abe a324 ecbd
00000070: 97da 183e 5646 22bd 3c4d 6abd eaf3 81bd
00000080: 8d9d 0bbe f4fb 80bd 4101 10be 414d 863d
00000090: 8e98 29bd d327 0bbd 57b4 073a affe 123e
000000a0: cac2 ae3d 4d86 1b3e eb1b efbd 3dc0 13bc
000000b0: 99cb 723c 1ab3 2c3e fd1b 453e b219 a1bd
000000c0: fa1e 06bd 197a f2bd 3431 003e a198 c43d
000000d0: 4675 7d3d 2178 0b3e db2d 91be 592f 2f3d
000000e0: 4e2a 033e 5e20 63be 1f13 20be 403e acbd
000000f0: 268e 953e d0af d1bd b063 1fbc e71b 233e
00000100: 1802 7b3e e718 c23d e9ac 993d d7c2 703e
00000110: a7b6 6c3e 7e9e 09be 81c1 edbd a888 063d
00000120: 4a71 7fbd 73a8 44bd 7a32 7e3d 435f 68bd
00000130: 37ad 883e 5770 da3d 6531 b8ba 38d8 49be
00000140: ef41 0ebd 2bc7 d8bb 16a6 763e 436b f23d
00000150: 7c53 25be 712a 2a3e c997 82bd 1bef b43b
00000160: 0f24 583c a21e 453e 455f 1fbe 6a04 843d
00000170: 1a0d e63c cbe5 853d 5829 4fbd 008f 603e
00000180: de6a 783e 83c5 3dbe 5bb0 d73d 3a00 6c3d
00000190: 49d5 643e 77c4 8f3d 0262 46be e097 c53d
000001a0: f623 143e 5f1f 743e 6dfe d1bd a4c5 b03d
000001b0: 0c75 7abe 7f3f fd3d b1d2 b5bd 2f56 83be
000001c0: a763 933e 3497 cd3d b938 fabd 24f2 093d
000001d0: ac19 703e a295 d83d c1d0 8dbc a784 303e
000001e0: f4d6 f3ba 3e59 8fbd 06ca 223e 3402 9a3e
000001f0: 4031 3c3e 7d71 b5bd 6955 99be bdef de3c
00000200: 27e3 4a3d 923a 763e 848c 04be 6326 d5bd
00000210: 54aa f8bc 7944 dabd 943f 0bbe adde b93d
00000220: 2e04 5fbd 3b02 71bd 2d7a 90bd 0f4b 0a3e
00000230: 90ec eb3c e350 a53e d8dd 393e f0dd c7bd
00000240: ed22 353e 312c 65bd c6d6 74bd d715 58be
00000250: 4a8d 833e 6654 57be bea6 05bd 92f3 2b3e
00000260: 2529 7c3e 944e a43d 0eea 16bc a51e b93d
00000270: 4d52 08be 78b6 0f3d 3805 45be d95d 4f3e
00000280: 0dca 323e ac66 d33d b119 c7bd c58b 97bd
00000290: cf59 ad3d 0afd ec3d b494 c03d ac46 91bc
000002a0: 5c9c 1bbd 47c1 e2bd 3820 2abd 4993 cc3c
000002b0: efa6 c53d 59ac a1bb 1767 803d 5094 30bd
000002c0: 2325 bf3d 71c0 813d 19a0 6bbd b8f9 493d
000002d0: 80c7 54bd bcb3 fbbb 6c63 a9bc 1da2 16bc
000002e0: 9372 023e 5746 033e cd2c 1a3d e9a2 ff3d
000002f0: cf2d 8fbd 19c3 bdbc 0b96 afbc b994 60bd
00000300: e0d5 e3bd 0695 233b ff5b e9bd 8983 bebd
00000310: 7f52 ef3d a8fb 0a3b 05f9 a0bd 14d8 683d
00000320: b20a 97bd 228e 20bd 0d64 38bd 7a0e 423d
00000330: 3aad f63d cec1 cabd 6854 453d 35b1 e43d
00000340: c3dc a0bd 63a4 7d3d 5ea8 c9bd 0ca6 c8bd
00000350: 88f3 02be 366a 56bd 281e a9bd 6d2d f3bd
00000360: fe0c 763e 677f 70be 1314 b3be 1fee 0b3e
00000370: 9f36 a9bd 5ac4 cbbc 57a3 1bbe f1ae 74bd
00000380: e4bc 2f3e 4eae 24bc 686e b2bd 1550 90be
00000390: 8425 6e3d 8476 b9bd 5812 263e 1f73 88be
000003a0: 1024 d53a 8033 5a3e 4b3d 23bc af6a 66be
000003b0: 8898 493d 6024 8e3c 6a40 9dbc 3a8f dd3d
000003c0: c2b1 66bd 0151 11be 62db 5d3e b72a da3a
000003d0: fba1 bdbd 0ee8 603d c132 d0bd c255 e53d
000003e0: 47de 0a3e 1a56 febd 9e83 d4bd 8fab 4c3e
000003f0: b04c f63d e543 3dbe ab3a 66bb 29eb 623d
0.23115669 0.19535883 0.11297825 0.06377579 0.0385452 0.02042269 -0.032559916 0.17883302
0.0975498 0.17698728 0.05432065 0.09271404 0.038724996 0.05128348 0.018191094 -0.19177134
-0.21641393 -0.18580309 0.22810227 0.027300373 0.2240609 0.21320112 -0.033689685 0.0012014111
0.02680761 -0.10417807 -0.16673367 -0.115304254 0.14927135 -0.03961786 -0.057202563 -0.06345351
-0.1363432 -0.06298056 -0.14062978 0.06557704 -0.041405253 -0.033973526 0.0005176714 0.14354967
0.08533247 0.1518795 -0.11675247 -0.009018001 0.014819049 0.16865197 0.19248958 -0.07866229
-0.032744385 -0.118396945 0.1251877 0.09599424 0.06187942 0.13620044 -0.28355297 0.042769764
0.12809107 -0.22180316 -0.15632294 -0.08410311 0.29210013 -0.10238612 -0.009728357 0.15928613
0.24512517 0.09477406 0.07503683 0.23511826 0.23116551 -0.13439366 -0.116091736 0.03284517
-0.0623639 -0.04801221 0.062059857 -0.056731474 0.26694652 0.106659584 -0.0014052807 -0.19711387
-0.034730848 -0.0066155395 0.24086794 0.11836865 -0.16145128 0.16617753 -0.06376607 0.0055216677
0.013192191 0.19249967 -0.15563686 0.064461544 0.02808242 0.0653797 -0.050576538 0.2192955
0.24259517 -0.18532376 0.10531684 0.057617404 0.22346987 0.070198946 -0.19373325 0.096481085
0.14466843 0.23840092 -0.10253606 0.08631447 -0.24458712 0.123656265 -0.08878077 -0.2565169
0.28786966 0.10038605 -0.1221785 0.03367819 0.23447293 0.10575415 -0.017311456 0.17238103
-0.001860349 -0.069994435 0.15897378 0.30079806 0.18378162 -0.08859537 -0.29947975 0.027213925
0.049533036 0.2404578 -0.12944227 -0.10407712 -0.030354656 -0.106575914 -0.13598472 0.09075675
-0.054447345 -0.058840018 -0.07054553 0.13505195 0.028799325 0.32288274 0.18151033 -0.09759128
0.17689104 -0.055950347 -0.059775136 -0.21102081 0.25693733 -0.21028289 -0.03262972 0.16792133
0.2462507 0.080228 -0.009211076 0.09039048 -0.13312645 0.035086125 -0.19240272 0.20250644
0.17459889 0.103223175 -0.09721697 -0.07399706 0.08464395 0.11571701 0.09403363 -0.017733894
-0.037990913 -0.11072021 -0.041534632 0.024972575 0.09650981 -0.0049338755 0.06269663 -0.04311019
0.09333255 0.063355334 -0.057525728 0.049310416 -0.05194807 -0.007681338 -0.02067729 -0.009193924
0.12739019 0.12819801 0.03764038 0.124822445 -0.06991159 -0.023164319 -0.02143385 -0.054829333
-0.11124778 0.002496065 -0.113945 -0.09302432 0.11685657 0.0021207128 -0.07859997 0.056846693
-0.07375087 -0.03919805 -0.04501729 0.047377087 0.12044759 -0.099002466 0.0481762 0.11166612
-0.07854607 0.06192435 -0.098465666 -0.09797296 -0.12788212 -0.052347384 -0.08257705 -0.11873899
0.24028394 -0.234861 -0.34976253 0.13665055 -0.08262371 -0.024873901 -0.15199028 -0.05973715
0.171619 -0.010051323 -0.087124646 -0.28186098 0.058141246 -0.09055808 0.16217935 -0.2665033
0.0016261358 0.21308708 -0.009963344 -0.22501634 0.04921773 0.01735133 -0.019195754 0.10818334
-0.056321867 -0.14191057 0.21665719 0.001664481 -0.09259411 0.054908805 -0.101659305 0.11197998
0.13561355 -0.12418766 -0.103766665 0.1998732 0.12026346 -0.18482931 -0.0035130184 0.055400047

bias f4 [16]
00000000: 243a b93c da68 1a3e 0768 903d 6e11 e9bd
00000010: 0c3d d63d b24a bfbd 660e 553e 1737 54bd
00000020: e9ee febc 7dff 023c ed97 eb3d ac19 06bd
00000030: 2313 42bd aa51 4d3d f48f 08bc 40ba 14be
0.022610731 0.1507906 0.07051092 -0.113802776 0.104608625 -0.09340419 0.20806274 -0.05181035
-0.03111978 0.007995483 0.11503587 -0.032739326 -0.04738153 0.05012671 -0.008335102 -0.14524174

weight f4 [80, 144]
00000000: 66b3 a8bd 17b7 80bd cb5c 82bd cee9 53bd
00000010: fe12 723d b2d1 8bbd c8d3 47bd cc97 8ebd
00000020: 8093 ac3c 8ae3 85bd 06f5 42bd f09f 9dbc
00000030: c0a6 77bd 7001 ab3c f302 a83d 506c 8cbc
00000040: 8f73 a2bd be5f 96bd 478d a5bd 16f0 d13c
00000050: 1a99 8b3d d0ae 3ebd a62c d73c ae93 873d
00000060: 96de fc3c 2bf4 323d b0a2 863c 2b80 b0bc
00000070: fba2 70bd 304c 9fbd 206c 4fbc eb60 9a3c
00000080: 56c6 80ba 7026 423d 4676 f7bc a6d8 b9bc
00000090: 48a6 453d eb25 9fbd 5612 efbb cb21 2a3c
000000a0: eb60 b4bb fb16 313d 1bd4 9dbd 2b11 aabd
000000b0: e0f7 05bc 2654 ee3c cb31 a33c 139c 303d
000000c0: 2bf2 65bb e059 bbbc 1cf4 8e3d 04f1 8dbd
000000d0: fe8d 17bd ebd6 6bbd 6a14 a4bd 561a df3a
000000e0: c0b1 08bc ac37 89bd 6e3a 5fbd b09d 2b3d
000000f0: 8ecb 50bd e3b6 a7bd 14d6 853d 2b95 28bd
00000100: 1e2f 22bd a0d9 cebc 9ede 703d ab75 cf3c
00000110: 0e5d 0c3d 5b5d dabc ae9a 2b3d ab5a 433d
00000120: 0811 8dbd 6026 8a3c 2cb5 a7bd b6f9 ca3c
00000130: f08d a73c 8036 64bc b07c 1d3d a3a4 83bd
00000140: 000b babb d6be 4bbd bb7d 97bc 2ab9 8bbd
00000150: 2b99 5e3d 0071 20bc feaa 92bd dea0 73bd
00000160: 93f5 60bd f473 97bd e689 adbc 7bef edbc
00000170: 1605 883c 9b49 a2bc 5630 84bb c6ac 313d
00000180: c01d 393d 10cf a03d 7070 78bd 839e 4cbd
00000190: de40 463d 980f 7cbd 8b65 363c 56d4 87bc
000001a0: 48dd 92bd d60f 99bd 76b2 18bd 2e13 2a3d
000001b0: d6cd 5a3b b0d4 113d 573e 873d d38c 7fbd
000001c0: 3801 683d eb0c 31bd e320 57bd 10fc 9dbc
000001d0: eb94 2f3d d805 3d3d dc5b 86bd a224 853d
000001e0: 00e6 073c 4633 b93c 0b74 393c 44ee 9d3d
000001f0: ab4e c53b 36f2 71bc 2b43 233c 60b3 663c
00000200: ebb6 683c 8325 29bd 336d 053d 0b71 4fbd
00000210: a040 40bc 76e3 e0bc 632b 1e3d 36ad 113d
00000220: ae14 01bd 73c2 4fbd 43b5 47bd 286b 8ebd
00000230: 1bee 88bc e0e5 c03c 2b99 ad3c 068d c0bc
00000240: 3455 0dbe b0c7 80be 0583 cd3b 084d 17be
00000250: 4190 603e fc08 5ebd 978d 9a3d f6d3 443d
00000260: 3fc1 0f3d 0f99 bc3d b2d8 a63b b782 8c3d
00000270: 971e a43d 93cd 50bc aa47 523c e3ad 16bd
00000280: 3656 1fbd 7143 84bd 59ca bd3b 8a03 eabd
00000290: dd0f 283e cd91 80bd 75a4 da3c 31a3 543d
000002a0: 1114 5dbd b0cb 6bbd 75db c13a 2623 0a3d
000002b0: 9685 bcbc 9611 6a3c 0617 55bd af1e 8c3d
000002c0: 7b07 c0bc 069a 7b3d d095 12bd 285f 48bd
000002d0: c89e de3c 5fa7 bc3d efb5 12bd e486 6e3d
000002e0: ed2d c6bc 9cbe 2d3e a07d c3bb dc39 bb3d
000002f0: 677d 1b3d 13d2 e83d f075 2abd 5047 68bd
00000300: 4ddb 9abd 312e 53bd c968 363c 1137 4e3e
00000310: 435c 933d 2c74 a4bc 1efe 1bbc 6a61 c4bd
00000320: f274 f53b b004 4c3b 6836 bbbd c84a 983d
00000330: d739 953d e720 7abd 37e5 11be 3519 24be
00000340: a91f 7c3e 8334 88be 9d4c 80be e0c6 30be
00000350: b45c 563e ebce 29bd f584 763d c6a4 20be
00000360: f88a 79bd 206b 0f3d e619 9a3d aaf7 073d
00000370: 1ad2 9a3c 7638 95bd 9b11 813d 718a ebbc
00000380: 2920 883d aa96 7fbc 8f16 56bc 638a ee3d
00000390: e5e8 44be dece f13c b5f7 0e3d 9d5b 063e
000003a0: e69f 37bc 7713 5bbe 91af a53d 6e19 db3c
000003b0: ecd2 e53c 98e5 a53d 17da b6bc be0b 1cbd
000003c0: 4204 703d 221f 9f3d 8968 c4bd 3ff6 aaba
000003d0: d888 803d 0d9d 6ebd 7dd3 d53c 2c2b b4bd
000003e0: 3304 493c 1b13 1fbc e1e5 9bbc 13ce 643d
000003f0: 7f7b be3d e920 ff3d c6bc acbc 6c01 8b3d
-0.082373425 -0.062849216 -0.06365355 -0.051736645 0.059100144 -0.068271056 -0.048785955 -0.06962547
0.021066427 -0.0653754 -0.047596954 -0.019241303 -0.06046176 0.020874709 0.082036875 -0.017141491
-0.07932197 -0.0734248 -0.08083587 0.025627177 0.06816311 -0.046553433 0.026266407 0.066199645
0.030867856 0.043689888 0.016434997 -0.02154549 -0.05874918 -0.077782035 -0.012660056 0.018845042
-0.0009824734 0.047399938 -0.030207764 -0.022686314 0.04825428 -0.07770904 -0.007295887 0.010384033
-0.0055047176 0.043234807 -0.077064715 -0.08304056 -0.008176774 0.02909286 0.019921204 0.043117594
-0.003508697 -0.022870004 0.06980154 -0.06930736 -0.03700065 -0.05757801 -0.08011706 0.0017021399
-0.00834316 -0.06700072 -0.054499082 0.04189843 -0.050975375 -0.0818918 0.06534973 -0.041157883
-0.039595716 -0.025250256 0.058806054 0.025324663 0.03426843 -0.026655843 0.04189556 0.04769389
-0.06888014 0.016864002 -0.08188853 0.024777275 0.020453423 -0.013929009 0.03844899 -0.06427886
-0.005677581 -0.049742542 -0.01849257 -0.068224266 0.05434529 -0.009792566 -0.071615204 -0.059479587
-0.054921698 -0.07395163 -0.02118392 -0.029044857 0.016603988 -0.019810488 -0.0040340824 0.04337766
0.045194387 0.07851994 -0.060654104 -0.049955856 0.048401706 -0.06153831 0.011132608 -0.016580742
-0.07171112 -0.074737236 -0.03727957 0.041522197 0.0033386848 0.035603225 0.06603687 -0.06239016
0.056641787 -0.04322521 -0.052521598 -0.019285232 0.04286663 0.04614815 -0.065604895 0.06501128
0.008294582 0.022607457 0.011319171 0.07711461 0.006021341 -0.01476722 0.009964745 0.014080852
0.014203767 -0.04129554 0.032574844 -0.050644916 -0.011734158 -0.027452212 0.038615596 0.035565577
-0.031513862 -0.05072255 -0.04875685 -0.06954032 -0.0167151 0.023547113 0.0211912 -0.023504745
-0.13802034 -0.2515235 0.0062717223 -0.14775479 0.21930028 -0.054207787 0.07546537 0.048053704
0.035096403 0.09208881 0.00509175 0.068608694 0.08013647 -0.012744325 0.012834469 -0.036786925
-0.038900577 -0.06458176 0.005791944 -0.11426456 0.16412301 -0.06277809 0.026689747 0.051913444
-0.053974215 -0.0575673 0.0014790135 0.033724926 -0.023012917 0.014286419 -0.05202391 0.0684179
-0.023441067 0.061426185 -0.035787404 -0.048918873 0.027175322 0.09211611 -0.035818037 0.05823411
-0.024191821 0.16967243 -0.0059659034 0.09141895 0.03796139 0.113681935 -0.04161638 -0.056708634
-0.075613596 -0.051557723 0.011133381 0.20138194 0.07195332 -0.020074926 -0.0095210355 -0.09588893
0.0074907476 0.0031130724 -0.091412365 0.074361384 0.07286423 -0.061066534 -0.14247595 -0.1602524
0.24621452 -0.26602563 -0.2505845 -0.17263365 0.20933801 -0.041457098 0.06018539 -0.15687856
-0.060923547 0.03501427 0.07524471 0.033195175 0.018899012 -0.0728616 0.06302186 -0.028752537
0.06646759 -0.015599886 -0.013066902 0.11647489 -0.19229467 0.029517587 0.0349042 0.13120885
-0.011207556 -0.21394144 0.08090127 0.026745524 0.028054677 0.08100432 -0.02232079 -0.038097136
0.05859781 0.0776961 -0.09590251 -0.0013043358 0.06276101 -0.058255244 0.026101822 -0.08797297
0.012269068 -0.009709145 -0.019030513 0.05586059 0.09300899 0.12457449 -0.021086108 0.067873806

bias f4 [80]
00000000: c64f c8bc fb6e 673d fa15 953d 48e1 27bd
00000010: 7ab1 12bd 8a4c 29bc 1730 743d 052b 123e
00000020: 1d12 813d fa9d 4b3d f702 eb3c 703d ddbc
00000030: ad58 dd3c 5dfa 013e 0f8e 8e3d 40ca 123d
00000040: d0f4 54bd 94dc 9c3d 8796 203d b871 14bc
00000050: ad98 d1bc e50c 58bd e877 4dbd 7149 ad3d
00000060: 7733 903c 1b19 cf3d 9f3a 383d d41d 02bd
00000070: d2b9 803d 4817 c5bc 31fd b1bd d1db 8b3d
00000080: 1d5f 99bc 8426 203d 49c3 183d c45a 9b3c
00000090: 167c 253d e00c 06bd 47c5 a3bd ea3b 703a
000000a0: eb67 8e3c bd7a 17bc f876 a23d d260 813c
000000b0: 8ef7 08bd ebf2 023c 9dc7 973d 7b15 f23b
000000c0: 5e8e b8ba d1f5 0dbd 5b55 55bd 7a8b a33d
000000d0: 8932 19bd 925a 1d3d 6764 42bd a164 a4bd
000000e0: 18be 8e3d 97b6 97bd 6266 7a3d 7758 963d
000000f0: fafd a13d bd75 50bd 8c8b 79bd ee47 4f3c
00000100: d5d1 a7bd 6ea1 1cbc f437 0c3d 51ad 8ebd
00000110: 9366 27bd cdae 103d 7ea7 963d 309a 3bbb
00000120: 52d5 dfbb 9c79 a9bd 1af8 6a3d 5bed 983d
00000130: d23e 533d 2d6f 3ebd 701f 9cbd 85dd 1bbd
-0.024452101 0.056502324 0.07279582 -0.04098633 -0.035813786 -0.01033319 0.059616175 0.14274223
0.06302283 0.049711205 0.028687937 -0.027006835 0.027019823 0.12693162 0.06960689 0.035837412
-0.051991284 0.076592594 0.039206054 -0.009060316 -0.025585497 -0.052746672 -0.05016318 0.084612735
0.017602665 0.1011221 0.04497778 -0.031766728 0.062854424 -0.024058953 -0.086908706 0.06829036
-0.018722111 0.03909923 0.037295613 0.018964179 0.04040154 -0.032727122 -0.07996612 0.00091642013
0.017383536 -0.009245572 0.07932848 0.015793238 -0.03343921 0.0079924865 0.0741112 0.0073878146
-0.0014080515 -0.034658257 -0.052083354 0.079855874 -0.03740171 0.038416453 -0.047459032 -0.08027006
0.06969851 -0.07407873 0.061132796 0.07341092 0.0790977 -0.050893534 -0.060924098 0.012651427
-0.08194319 -0.009559972 0.03423305 -0.06966651 -0.040869307 0.035322953 0.07356165 -0.0028625838
-0.0068308497 -0.08275148 0.057365514 0.07467147 0.051573582 -0.046492744 -0.07623184 -0.038053054

weight f4 [40, 80]
00000000: 0584 bc3c 63ad a8be fb76 b5bd f3c0 f93e
00000010: 914e 713d c195 afbd 33ca 533e 177a e83a
00000020: 3754 15bc 66d4 04be fc3c 80be 8e69 d2bd
00000030: a361 61be b931 373d cf67 47be 9398 9abd
00000040: bc3c 3b3e de3b 8fbd d963 013e 1377 823e
00000050: 5eac 483d 792a f73d 9332 643e acf5 f13d
00000060: c6c8 2fbe 438d debc 2d6e 12be ce9a cf3d
00000070: 5821 d2bd 9699 3b3e 49e3 2ebf 217f 33be
00000080: b917 4bbe 1ce2 8f3e 496a 283e 0570 58be
00000090: 80df 843e de4f b63d 3a72 81be 8a34 abbe
000000a0: 8139 333e 402c 1abd 28f2 713e 2670 febe
000000b0: 8ba0 71be f384 11bd 2a31 a4bc 7945 883e
000000c0: 0a72 2c3e e05b 5e3e c159 abbd c6e2 8dbd
000000d0: 98b9 81be e5f0 4f3e 9908 cf3e c70d 6cbe
000000e0: cc67 09bc d8c2 b43e 5d83 403e 01dc 35be
000000f0: 1827 43be 3961 2d3e 6a91 a73e 3329 4b3e
00000100: b977 c13d a447 a3be 4f3a 6cbd 3dcc cabd
00000110: f9a7 193e 534e c83d 90a0 4d3e 819b d4ba
00000120: 1c6d da3e d580 2e3e 323c bcbe 8aab 12bd
00000130: 774b 1cbe a231 f83e 8269 c239 739c 7c3e
00000140: 5c82 87bc 1b2c e0bc ceb9 173d 15f9 cbbd
00000150: b27d c7bd a20c a03d ae2e e9bd 3e23 9bbd
00000160: 2649 8e3c e39a 0f3d 2bb1 c7bd 61a3 d9bd
00000170: ddab 27bc de4c 413d 332f c8bd 8cd0 3d3d
00000180: da01 b53c eac3 dc3c 4ea9 413c c47f c53d
00000190: 9abe cabc 4359 33bd 7e39 203d 29aa 9d39
000001a0: 62ec 183d d488 cfbc 25c3 c63d 37fd c2bd
000001b0: e44a b8bd 1f9f b4bd 9f92 233d 5079 f33b
000001c0: 8741 5e3d a61f adbd 6a9b 053d ef54 4e3c
000001d0: 4928 b9bd 8e47 b73d d3d0 8e3d aae4 a73c
000001e0: 17e0 d8bd 90d9 bb3d 2f6f 423d 9c4b b9bc
000001f0: 2f0e ad3d d8e8 023b 5ebd 3a3c 0d6d 6f3d
00000200: c68d 92b9 1f21 593c a850 6fbd 27fe 2dbd
00000210: 6f97 87bd f883 993d f30e a1bc e34c a9bd
00000220: e8b5 aabc 2200 febb 496f a83d cc83 a83d
00000230: 9c8c 153d 4acf 67bc bf50 d83c c794 c3bd
00000240: 4a55 fb3c 8265 613d 7b70 303d adae fa3c
00000250: bc9e 5d3b 718e 5cbc 3af2 023d e242 dd3b
00000260: b4e1 a0bd a237 ad3d 6d29 c13d 2332 d13c
00000270: 87b3 c7bd aea4 abbc 02ea 973d 983a 7ebd
00000280: 3d26 a83d 4fea 843d d190 ac3c ad07 81bd
00000290: 62f5 913d 36d1 903d 17ad 41bd 2725 a23d
000002a0: 4a13 00bc 9b1a 893d 33a3 6a3d dbfb 9e3d
000002b0: 869c 4d3d 6cfc b5bc f045 aabb 49b0 cfbd
000002c0: 8da0 813d 824a 103d 6566 9c3d 05b6 b9bb
000002d0: 1889 d43d 11ae edbd ada3 c73d 2851 f73c
000002e0: 0f8d ff3c 968a b4bd 9c07 6cbc ba58 50bd
000002f0: 99f1 89bc 8712 98bd ba08 1ebd 996c 813d
00000300: 2c76 efbd c906 7abc 2ec9 a33d bd08 a3bd
00000310: f752 eabd 960b 28bd fc9b 803d af57 25bd
00000320: 992e 39bd 1f0d e0ba d735 8ebd 9b50 eebd
00000330: f6ae 39bd ef4a 873c f94b f1bd 2072 d5bc
00000340: 3cf9 83bd 3a65 3e3d 1f87 a83d e605 c73c
00000350: 0f63 e4bc 1380 45bd 3084 b13c 4cda 2f3d
00000360: 5935 c3bd 905e b73d f6c8 ba3c 2358 34bd
00000370: 14ee e7bd 83cb c13c 55ed f3bd 20f8 8d3d
00000380: 922f d53d 93c1 babd 0e23 773d 1498 2cbd
00000390: d02f 5a3d 14f4 893d a8c0 0b3d 9878 343d
000003a0: 5837 bbbc 57ce 833d 602d a33d f86d bd3c
000003b0: d39c c0bd 7d38 c03c c308 203d 3609 5dbc
000003c0: dadd d1bd af62 b4be 6c12 943a 7f00 b23e
000003d0: 227d 113e fb07 9b3c 6295 1abb 9abc 3f3d
000003e0: 979b 97bd 729d 74be 9b23 b0be c3c2 2f3d
000003f0: 5ae7 90be 4338 453d 59c2 83be e860 a53c
0.02301217 -0.32944784 -0.08860584 0.4878002 0.058912817 -0.08573485 0.20682602 0.0017736581
-0.009114317 -0.12971649 -0.25046527 -0.10274039 -0.22009902 0.044725154 -0.19473194 -0.075486325
0.18284887 -0.06993841 0.12635745 0.2548147 0.048992507 0.12068648 0.22284918 0.11814436
-0.17166433 -0.027166968 -0.14299841 0.101369485 -0.10260266 0.18320307 -0.6831556 -0.17528965
-0.19833268 0.28102195 0.16446795 -0.21136482 0.25951767 0.08901952 -0.2528246 -0.33438522
0.17502405 -0.037639856 0.23627532 -0.49694937 -0.23596399 -0.03552718 -0.020042975 0.26615503
0.16840377 0.21714735 -0.083667286 -0.06928019 -0.2533691 0.20306738 0.40436247 -0.2305213
-0.0083865635 0.35304904 0.18800111 -0.17759706 -0.19057882 0.16931619 0.3272813 0.19839935
0.094466634 -0.31890595 -0.057672795 -0.099022366 0.15005483 0.09780564 0.20080781 -0.001622066
0.4266137 0.17041333 -0.36764675 -0.035808124 -0.15263163 0.48475367 0.00037081173 0.24669056
-0.016541652 -0.027364781 0.03704243 -0.09959618 -0.09740771 0.078149095 -0.113858566 -0.07575081
0.017368864 0.03505982 -0.09750589 -0.10626865 -0.0102338465 0.047192447 -0.097746275 0.046341464
0.02209561 0.026948888 0.011820151 0.0964351 -0.024749089 -0.0437863 0.03911733 0.00030072153
0.037334807 -0.0253338 0.097051896 -0.09520953 -0.08998659 -0.088194124 0.03993475 0.007430233
0.05426171 -0.08453302 0.032618918 0.012593492 -0.09040887 0.08949195 0.06973424 0.020494778
-0.10589617 0.09172356 0.047469314 -0.022619061 0.08449971 0.0019975211 0.011397688 0.05845361
-0.0002795292 0.013252526 -0.05842653 -0.042478707 -0.066206805 0.07495874 -0.019660449 -0.08266618
-0.020838693 -0.0077514807 0.08224351 0.08228263 0.03651105 -0.014148543 0.02640569 -0.095498614
0.030680317 0.055028446 0.04307602 0.03060087 0.0033816537 -0.013461695 0.031969287 0.006752358
-0.078555495 0.08457877 0.094317295 0.025536602 -0.09751039 -0.020952549 0.0741768 -0.062067598
0.082104184 0.06490003 0.021065148 -0.06300292 0.07126881 0.07071154 -0.047284212 0.079172425
-0.007817099 0.06694528 0.057284545 0.07762881 0.0501981 -0.02221509 -0.0051963255 -0.101410456
0.06329451 0.035227306 0.07636718 -0.0056674504 0.10377711 -0.11605466 0.097480156 0.030190066
0.031195192 -0.08815496 -0.014406111 -0.050865866 -0.016838836 -0.07425409 -0.03858254 0.063195415
-0.11692461 -0.015260407 0.07997356 -0.07960651 -0.114416055 -0.041026674 0.06279752 -0.040366825
-0.045210455 -0.0017093754 -0.06943863 -0.11636468 -0.04533287 0.016515223 -0.11782069 -0.026055396
-0.06444022 0.046483256 0.08228897 0.024294805 -0.027879266 -0.048217844 0.021669477 0.042932793
-0.0953166 0.08953583 0.022800904 -0.044029366 -0.11324707 0.023656612 -0.11910502 0.06932092
0.10409464 -0.091189526 0.060336165 -0.04213722 0.053268254 0.06736007 0.03411928 0.04406032
-0.022853538 0.064358406 0.07967639 0.023123726 -0.09404912 0.023464436 0.039070856 -0.013490966
-0.10247393 -0.3523154 0.0011296994 0.34766003 0.1420789 0.018924704 -0.0023587574 0.046810724
-0.07402723 -0.23888186 -0.34402165 0.04291035 -0.28301507 0.04814936 -0.25734213 0.02018781

bias f4 [40]
00000000: abba f23d 1f66 e8bd 0b66 99bd c838 8cbc
00000010: 3b79 823d cf0b d83d d98d 7fbd 8cf2 e3bb
00000020: 55a6 b5bc 96a3 ccbd d86d b33d 20de 1b3d
00000030: 816b b53c cff4 df3c 18e2 9c3c 2952 81bc
00000040: fdd5 df3d 5ddf 35bd 48b2 1a3d 25d3 0cbd
00000050: 4e55 5fbd fd02 01bb e3a7 40bc 3998 c2bd
00000060: ae5f a43d 3045 cd3c 099d bbbd d841 983d
00000070: 79cd 313d 7ef2 6fbc c74b aabd fde7 4e3d
00000080: 3ec3 fa3d 0c2f 863d f57a b7bd 8933 c03c
00000090: 118e d83d 7508 f03d 1f99 9fbd 2694 0e3d
0.1185201 -0.11347603 -0.07490166 -0.01711692 0.06370779 0.10549127 -0.062391136 -0.006956404
-0.02217404 -0.09992139 0.087611854 0.03805363 0.022145988 0.027338414 0.019150779 -0.015786247
0.10929487 -0.04440247 0.03776768 -0.03438105 -0.054524712 -0.001968562 -0.011758777 -0.095016904
0.08026062 0.025057405 -0.091608115 0.07434434 0.043408845 -0.014645217 -0.08315235 0.05051421
0.12244271 0.06551942 -0.08958999 0.023462074 0.10573972 0.11720363 -0.077928774 0.034809254

weight f4 [2, 40]
00000000: e117 493f adb5 a53d 81f1 613d e185 193f
00000010: c41f 2d3f 0c75 b6be e47b 173c 709b e3be
00000020: a8e1 c1bd b197 203e 4ee2 23bf 9080 193f
00000030: c084 c3be 6d7a 493f 186f 393f b731 0f3d
00000040: f96a 0d3f 7b0a 85bc 33a4 1b3f 55d8 493d
00000050: f6b3 54bd 55a9 35bf a12f af3d 810c 28bd
00000060: 613d 3b3f a118 283f 1421 773d 5d74 c2be
00000070: 6754 c0be 6675 213f b7d2 1f3d 4581 bcbe
00000080: 0d24 c8be 67b1 143f 3f93 1c3e 96de 403f
00000090: d015 e8be 54d8 fcbe a8aa 0abe 5a37 423f
000000a0: 244d 20bf 1a6f 4cbd e1a0 033e 5c33 3abf
000000b0: 2b4a 27bf a1ba fe3e 0f8b c53d 8e60 eb3e
000000c0: 3d85 c43d 516b 8abd a4df 073f 4a82 2bbf
000000d0: 4114 f03e 6404 3cbf fc7b 0bbf b1f1 203d
000000e0: 3423 34bf d407 1bbe 9733 02bf 2d57 6e3d
000000f0: c394 5f3d 9f71 3e3f 33a3 d7bd 6fa3 0e3e
00000100: 2a8d 0fbf 6f89 30bf 5c32 1e3d e706 0a3f
00000110: dcb8 153f bb75 11bf 5f2e 1bbd 62e4 023f
00000120: f85a 0f3f 585a 5ebf 8584 f8bc 8c65 34bf
00000130: 5eb1 153f c88d c93e d32e ff3d 0f2b 07bf
0.7855206 0.080912925 0.055161957 0.5996991 0.67626595 -0.35636175 0.009245846 -0.44454527
-0.09466869 0.15682866 -0.6401719 0.59961796 -0.38187218 0.7870243 0.7243514 0.03495952
0.5524135 -0.016240349 0.60797423 0.049278576 -0.051929437 -0.70961505 0.08554006 -0.04102755
0.7314053 0.6566258 0.06033428 -0.37979403 -0.37564394 0.6306976 0.039019313 -0.36817375
-0.39090005 0.58083194 0.15290545 0.7533964 -0.45329142 -0.49383795 -0.13541663 0.7586571
-0.6261771 -0.049910642 0.12854339 -0.7273462 -0.65347546 0.49751762 0.09645664 0.45972103
0.09595726 -0.0675875 0.53075624 -0.6699568 0.46890453 -0.734442 -0.5448606 0.039292995
-0.70366216 -0.15139705 -0.5085997 0.058188606 0.05458523 0.7439212 -0.10529175 0.13929532
-0.56074774 -0.6895971 0.038622245 0.5391678 0.584852 -0.5682027 -0.03788602 0.51129735
0.5599818 -0.86856604 -0.030336628 -0.7046745 0.58473766 0.39365983 0.12460103 -0.5280008

bias f4 [2]
00000000: 2d6b a03d b4d6 cc3d
0.07832942 0.10001889
