classifier/low_lapl_50_CNN.pt (torch, 67655 bytes, 10 tensors)

weight f4 [6, 1, 3, 3]
000000 ad 44 aa 3e 1b 3b 3f bb 8a 35 eb bc 7e 3b 34 be
       0.3325552 -0.0029179517 -0.028712053 -0.1760082
000010 8a 52 a9 be 48 11 1d 3e 2f 81 f5 be 74 60 ac be
       -0.33070785 0.15338624 -0.47950122 -0.33667338
000020 b4 3f ba be dc 16 da 3e 9e 89 13 3f 90 f6 1d be
       -0.36376727 0.42595565 0.5763186 -0.15426087
000030 07 f0 d3 bd 74 c5 9d be 05 32 b4 3e 66 39 82 3e
       -0.10348516 -0.30814707 0.35194412 0.25434417
000040 a1 9d 18 3e 63 84 f3 3e 5c 21 5e be 95 b4 af be
       0.1490388 0.4756194 -0.21692413 -0.3431746
000050 92 29 d2 bd c1 d0 36 be b0 25 21 bf 2d 91 83 3d
       -0.10261835 -0.17853071 -0.6294813 0.064241745
000060 f6 5e f1 be 31 fd 84 bd d2 85 9d 3d 53 dd cb 3d
       -0.47142762 -0.06493605 0.0769154 0.099543236
000070 f6 41 9a 3d de 20 52 3e ef d3 cf be dc db a3 3e
       0.07532112 0.2052035 -0.4059138 0.32003677
000080 73 d3 ce bc 37 f7 7a 3d b4 69 1b bf 88 19 06 3e
       -0.025247311 0.06127092 -0.60708165 0.13095677
000090 63 ae fe be 5d 35 32 be d4 db ee bd 01 d7 b2 be
       -0.49742422 -0.17403169 -0.11663023 -0.3492966
0000a0 5d b6 3a be 86 ea 48 3d ad 32 17 be ee 9f 7e be
       -0.18233629 0.049051784 -0.14765425 -0.24865696
0000b0 6e bd 8c 3e 3b 2e cd be 97 ff 82 bd aa 8b ab be
       0.27488273 -0.40074334 -0.06396406 -0.33504993
0000c0 68 e0 cb 3d b8 44 cb be 42 8e 04 bd da 19 ae 3e
       0.099549115 -0.39700866 -0.03236223 0.34004098
0000d0 8a 3b b3 3d 0b 3f 78 be
       0.087515905 -0.24242799

bias f4 [6]
000000 e8 ba d9 3d 93 f6 65 3e 22 2d cf 3d 94 1b a9 bc
       0.10631353 0.22457342 0.1011603 -0.020643033
000010 cd eb cd 3c 24 ae 50 3e
       0.025136853 0.2037893

weight f4 [16, 6, 3, 3]
000000 ab cf 2d be 73 f7 a2 3d 9a 79 89 bc e3 d8 52 3e
       -0.1697375 0.079573534 -0.016781617 0.20590548
000010 34 48 13 bd 26 bf 38 3e 9c af 29 3e d4 ef 25 3e
       -0.03595753 0.18041667 0.16570896 0.16204768
000020 02 be 00 be cc d3 17 be 95 77 47 3e 6f 9c ea bd
       -0.12572482 -0.14826888 0.1947921 -0.114556186
000030 1f 4b 99 3e c2 05 2d 3e bd 0c 3a be e0 fc 01 be
       0.29940125 0.16896728 -0.18168922 -0.1269412
000040 a5 b3 15 be b5 27 58 be 5c 32 3e bd 7b e7 21 3d
       -0.1461931 -0.21108897 -0.046434745 0.039527398
000050 84 15 bc bd 5a 6a ec 3d b0 27 83 3c d8 ac 57 be
       -0.09183791 0.115437225 0.016010135 -0.21062028
000060 2d a2 0d bd 5b ac fc 3d 12 76 2a bd 24 e6 ca bd
       -0.03457849 0.12337562 -0.041616507 -0.09907177
000070 61 12 70 3e 29 ba c2 3d af e4 19 be c3 d2 66 3d
       0.23444511 0.095081635 -0.15028642 0.05635334
000080 b9 a6 e5 3d 2d 02 1f 3e 3c 7f 4e 3d 89 6f 29 3d
       0.112134404 0.15528174 0.05041431 0.041366134
000090 83 87 86 bd a7 08 c5 3b 8e ba 32 3c c5 38 44 3e
       -0.065688156 0.0060129943 0.010908736 0.19162281
0000a0 22 0a ce 3c 97 be d1 bd ff ed 81 3e 6d 0f e6 3d
       0.025151316 -0.1024143 0.2537689 0.11233411
0000b0 d6 7a 84 be 10 75 42 be 89 20 22 3e ce 2f 06 3e
       -0.25874966 -0.18989968 0.15832724 0.13104174
0000c0 55 ed 95 3d 79 74 ad 3c e4 d2 14 3e 39 f3 17 3e
       0.07320658 0.021173703 0.14533573 0.14838876
0000d0 7e 42 21 be f3 ed 7c bd c2 ec 24 3e d8 3d b5 bd
       -0.15748021 -0.061750364 0.16105941 -0.088496864
0000e0 9a b1 c4 bd ca f7 8a bd e4 d1 5c 3e 0e d3 81 3d
       -0.09604187 -0.06785543 0.21564442 0.063390836
0000f0 4c 60 0f 3e 1c 4a 24 3d 21 76 92 bd d3 95 95 bd
       0.14001578 0.04010974 -0.071514376 -0.07303967
000100 af 28 c1 bd 72 3a 41 3d 54 45 ad bd af 75 65 bb
       -0.09431588 0.04717488 -0.08460489 -0.0035012772
000110 18 b8 db bd 6b 23 28 3d e8 29 17 be 29 da a1 bd
       -0.107284725 0.041049402 -0.1476208 -0.07902939
000120 c3 0a 09 3b c9 b9 e8 3d 71 c3 b1 3d c8 e8 1c bd
       0.0020910955 0.11363561 0.086798556 -0.038307935
000130 ea 01 53 3c bf 30 cb 3d 5b 9d e1 3d 73 ff 3b 3e
       0.012878874 0.09921407 0.11016341 0.18359165
000140 fc d3 8c be 0a e4 08 3e cd e6 2e 3e bb 6e 5c bd
       -0.2750548 0.1336824 0.17080231 -0.05381654
000150 3f b9 6c 3e 4e 81 6f 3d 1e 17 0b 3e 98 69 67 3d
       0.23117541 0.058472924 0.13583037 0.056497186
000160 22 bc 5d be d1 70 ae bd 03 a7 60 3d a6 59 56 3d
       -0.21653798 -0.08517612 0.054846775 0.05233159
000170 62 3e 06 bd e8 11 02 3d 60 57 8e bd 8f e7 3a 3e
       -0.032774337 0.031755358 -0.06950259 0.18252395
000180 9e 1b 6b bd aa aa 43 3c 1c 22 78 bd b7 a5 3d be
       -0.057399385 0.011942545 -0.060579404 -0.18520246
000190 8a 20 9c 3d cc 07 ec bd ab 82 38 3e 7f 8b 2a 3d
       0.07623394 -0.11524925 0.18018596 0.04163694
0001a0 4c e9 43 3e 11 d7 1d 3d 71 ad 93 bd 7f 18 3a bd
       0.19131964 0.03853518 -0.07210816 -0.045433518
0001b0 4d 7f d9 3b 52 f9 cf 3d 2b 29 59 bd 3d 0c 77 3e
       0.00663749 0.10154976 -0.053017776 0.24125762
0001c0 0a ba 00 bd a5 5b 2d 3e 7b 3e 20 3e 59 7e 2f 3e
       -0.03142742 0.16929491 0.15648834 0.17138042
0001d0 92 1c c6 3d 17 31 ae 3d 4f ca 55 bd 71 20 7c bd
       0.09673418 0.08505457 -0.05219489 -0.061554376
0001e0 1a a0 78 bc 6a f6 07 3d 72 a7 1b bd 9c 91 e7 bd
       -0.01517489 0.033193983 -0.038001485 -0.1130707
0001f0 a5 aa a7 bc 5e a7 21 be 43 fa 9b bd ff 61 2e 3c
       -0.020467112 -0.15786502 -0.07616093 0.010643481
000200 d1 25 07 be a3 9c 6c 3e a7 8c 88 bb 17 69 98 bd
       -0.1319802 0.23106627 -0.0041671577 -0.07441919
000210 61 d7 ac 3d 28 50 6e bd 35 ef 11 3d f5 c8 b3 bd
       0.08439518 -0.05818191 0.035628516 -0.08778564
000220 a9 b7 dd bd 20 2d af 3c b9 73 8e bd 3f ef 0c 3d
       -0.10826046 0.021383822 -0.06955666 0.03440785
000230 28 3c ad bc 67 98 cb bd de a2 8c bd 06 a3 84 3e
       -0.021146849 -0.09941178 -0.06867002 0.25905627
000240 63 54 1e be a9 4f 89 bd 17 d6 b0 3d b8 20 ab bc
       -0.15461878 -0.06704647 0.086345844 -0.020889625
000250 05 29 0a 3e c6 49 b1 bd 39 0d 85 3e c6 a8 ab 3c
       0.1349221 -0.08656649 0.2598665 0.0209545
000260 ab 13 09 3a 3a 12 92 bd 8e ca 17 bd 07 e9 b4 bd
       0.0005229066 -0.07132383 -0.037058406 -0.08833509
000270 63 2e c0 3d ee 60 8c bc 31 e9 04 bd 39 94 2c 3e
       0.093838476 -0.017136063 -0.03244895 0.16853417
000280 a9 41 c3 3d d9 9f 9f 3d 5c 85 77 3d 8a c1 11 3d
       0.09534008 0.077941604 0.060429916 0.035584964
000290 a9 a0 71 bd 3a e8 95 bc bb b3 f7 bd 44 05 58 3d
       -0.058991108 -0.01829921 -0.12094828 0.052739397
0002a0 1b 71 82 3d a3 88 01 be f4 ff e5 bc 90 47 1e 3d
       0.063692294 -0.12649779 -0.02807615 0.038642466
0002b0 b7 81 c8 3d 9c 99 ba 3c 83 cb 3c bd 72 59 ee 3d
       0.09790366 0.022778325 -0.04609252 0.11638154
0002c0 a8 be 66 3d 40 3d eb 3d 3d e7 f4 bd e1 4c 9e bd
       0.056334168 0.11486292 -0.11958168 -0.07729507
0002d0 90 c6 d7 bd ef 95 09 be 8f fc 04 3d bb e1 75 3d
       -0.1053592 -0.13436101 0.03246742 0.060029726
0002e0 6f f7 9a bd 0d 79 1c bc eb 4f 3f 3c 0c 7f 5f 3c
       -0.075667255 -0.009550345 0.011676769 0.01364113
0002f0 dd 41 77 3d f7 83 b4 3d a3 b4 48 3c 58 67 c6 bd
       0.060365546 0.08814233 0.012250098 -0.0968768
000300 07 d7 98 3c 46 29 03 be 7c d5 9d 3d d8 f9 8d 3d
       0.01865722 -0.12808713 0.077067345 0.069324195
000310 9a 9b 37 bd 65 0d b4 bd c7 ad ae 3d 99 39 2a bd
       -0.044826128 -0.08791617 0.08529239 -0.041558836
000320 b6 35 0e 3d 25 4e 00 be 55 8e 2e 3d e0 d3 c1 bd
       0.03471919 -0.1252981 0.042616207 -0.0946424
000330 c5 2e a5 3c 09 1f 28 bc 8f eb 89 3d 25 c0 f2 bd
       0.020163903 -0.010261306 0.06734382 -0.11853055
000340 3c 94 e8 bd 1f 36 9a bd 5b e5 ab 3a 9c bf 90 bc
       -0.113563985 -0.07529854 0.0013114618 -0.017669491
000350 76 ee 97 3c a9 55 93 3d 85 2c bf bd 92 9c a2 bd
       0.018546324 0.07194073 -0.09334663 -0.0794002
000360 db a8 fc 3d bc ee 40 3e 1f 7e b5 3d 4f 88 a7 bd
       0.12336894 0.1884107 0.08861946 -0.08180296
000370 1a 6c ce 3d 04 07 c2 3d 46 ca 4b 3e 3f e5 e7 3d
       0.100792125 0.094739944 0.1990138 0.11323022
000380 49 f2 05 3e 2b ad 52 3c 60 72 8d bb e9 da 13 3e
       0.13080706 0.012858669 -0.004316613 0.14438976
000390 b7 9b ff 3d c4 29 7e bb 89 50 1f bb 18 f8 8a bd
       0.12480872 -0.0038782218 -0.0024309477 -0.067856014
0003a0 26 df bb 3d c9 5f 8b 3d 6f c8 04 3e f4 ec 25 3e
       0.091734216 0.06805379 0.12967084 0.16203672
0003b0 b3 76 10 3e ba 0c 62 bc f0 b8 85 3e 34 3f e9 bd
       0.1410778 -0.01379698 0.2611766 -0.11389008
0003c0 b6 ee 5d 3e 58 c3 c9 bc af 07 39 3e 52 7a 62 3d
       0.21673092 -0.02462928 0.18069337 0.055292435
0003d0 89 49 41 bc 12 ae 80 3e 8c 84 ac bd 70 46 6e 3d
       -0.011797317 0.25132805 -0.08423719 0.058172643
0003e0 87 2e 4d be 83 5a 0a be a7 fc 23 3e 45 22 ad 3d
       -0.2003728 -0.1351109 0.16014348 0.08453802
0003f0 3c f6 83 3e e1 ce 62 3c cd 75 84 3d 01 b2 cb 3c
       0.257738 0.013843269 0.06467781 0.024865152

bias f4 [16]
000000 4e 9c 5a 3d 4a 77 9d bd 04 48 ce bc 04 9b 07 be
       0.05337172 -0.07688768 -0.025180824 -0.13242728
000010 f5 d9 24 3e fd 78 fc 3d ae 32 f7 3d ef 1f de bc
       0.16098769 0.12327764 0.12070213 -0.027114836
000020 51 2b e8 ba 64 3e ed bc 41 ae 03 be 2f d0 48 bd
       -0.0017713105 -0.028960414 -0.12859441 -0.049026664
000030 e9 f0 e5 bd 44 6b 0f 3e db d4 12 bd 54 0e 66 bd
       -0.112275906 0.14005762 -0.035847526 -0.056166008

weight f4 [80, 144]
000000 b0 d1 8d bd 0b 03 16 bd ad c6 ee bc ee 39 be bd
       -0.0692476 -0.036623996 -0.02914747 -0.09288393
000010 e7 b8 86 3d 90 9c 39 bd db f4 c1 3c 30 2e 7b 3d
       0.06578236 -0.045315325 0.023676326 0.061323345
000020 93 e5 17 bd ec e6 d0 bd c5 f4 8d ba ba fb 46 3d
       -0.037084173 -0.10200295 -0.0010830393 0.04857991
000030 cd a1 b4 3d 92 77 05 bc 94 9d 12 be a4 fe a4 3d
       0.088199235 -0.008146184 -0.14317924 0.08056381
000040 84 b2 2f be f4 88 02 3e 28 64 fc bd ce 00 06 3d
       -0.17157942 0.12747556 -0.12323791 0.03271561
000050 8b 79 f8 3a e5 48 fd 3d e1 2b 22 3d 81 2f bc 3c
       0.0018957121 0.12367419 0.039592627 0.02297187
000060 ac f5 bf bb 72 71 86 bd 7b 26 c4 bc 83 25 03 3d
       -0.005858144 -0.06564607 -0.02394413 0.032018196
000070 8b 59 46 3c 78 aa 7d 3d 8b eb 24 bd 80 28 ca bc
       0.01210631 0.06193015 -0.040263694 -0.024677515
000080 c0 2d 0f bc 8b ff 1f 3d 30 a6 0d 3d fe c5 4d bd
       -0.008738935 0.039062064 0.034582317 -0.05023765
000090 a5 a7 9a 3d 37 62 e5 3c 96 81 ac 3c 41 86 6d 3d
       0.07551507 0.028000934 0.021057885 0.057989363
0000a0 7a c2 da 3c a9 87 63 bd de 2e 78 3c c4 88 1c 3c
       0.026704062 -0.055549297 0.015147893 0.009554092
0000b0 e6 bf 99 3c 24 f4 b8 bd 4d 6f e0 3b a2 0e b4 3c
       0.018768262 -0.09030941 0.0068492056 0.021979634
0000c0 15 66 9f 3d f7 37 72 3d a9 9d ad bd 1c 59 13 3e
       0.077831425 0.059135403 -0.08477337 0.14389461
0000d0 f4 51 a5 bd ae 98 18 bc 5c 94 79 3c 3b c4 f3 bc
       -0.08072272 -0.009313745 0.015233126 -0.029756656
0000e0 8c 59 23 3d ff 91 c0 bd 58 42 8a 3d 40 be e8 bc
       0.03988032 -0.094028465 0.06750935 -0.02841103
0000f0 83 34 66 bc eb 78 29 bd e3 6d 9a bd 54 e0 ed 3c
       -0.014050606 -0.041375082 -0.075404905 0.029037632
000100 62 55 20 3b 7d fd 34 3d c3 bc 7e bc c8 14 81 bb
       0.0024464955 0.044187058 -0.015547934 -0.003939245
000110 6f 55 04 3d ce 1f 8e bd 3d dc 90 bd db 72 08 3e
       0.03230804 -0.0693966 -0.07073257 0.13325064
000120 77 26 fc bd 40 a5 96 bd 5b bc 42 3d ed 2b c0 bd
       -0.12312024 -0.07355738 0.04754291 -0.09383378
000130 14 f7 af 3d 8b 4d 46 3c cc 11 68 bd ed ab 2c 3e
       0.08592048 0.012103449 -0.056657597 0.1686246
000140 98 de fc bb 01 d0 32 3c 18 6a 57 3d 60 8a 05 3c
       -0.007716965 0.01091385 0.052591413 0.008150667
000150 f3 12 2b 3d 23 e0 11 3d 46 3d 21 3d 60 57 1c 3d
       0.04176612 0.035614144 0.039365076 0.038169265
000160 a9 c4 66 3d e2 9d 88 3c ae ae 03 be 08 3b d1 3c
       0.056339893 0.016676847 -0.12859604 0.025540844
000170 de 9a 29 3e 59 ad c7 bd c0 b6 48 3d 04 0a ec 3d
       0.16562983 -0.0974986 0.04900241 0.11525348
000180 ca f5 0e 3e 20 f8 a8 bc a9 df 03 3e c2 84 2b 3d
       0.13960949 -0.020626128 0.12878288 0.041874655
000190 1c 8a ae bc 54 57 1e 3d 9f 08 9a bd 76 bc ba 3c
       -0.02130609 0.0386575 -0.075211756 0.022794943
0001a0 e6 a6 c2 3d 6b 59 b1 bd aa ec 04 be 77 6f 48 3d
       0.095044896 -0.08659633 -0.12980905 0.048934426
0001b0 e0 5a 86 3d fb e6 c9 bc 16 af a2 3b 8f c6 9d 3d
       0.06560302 -0.024646273 0.0049647195 0.07703888
0001c0 48 f2 4d bd e1 3f 01 3d 6d e9 e0 bc 5b 71 4d 3d
       -0.050279886 0.03155506 -0.027455056 0.050156932
0001d0 0e cd 22 bd 27 4d 27 bd 66 70 1d 3c 6f 2f 7b bd
       -0.039746337 -0.040845063 0.009609317 -0.061324533
0001e0 bc 6a 98 bd 7d 61 46 3d 16 24 8a bd f7 62 9c 3d
       -0.07442233 0.048432816 -0.06745164 0.076360635
0001f0 b5 55 73 3d a6 ab 77 3d 74 d0 4e 3d 6f 42 54 3d
       0.05940791 0.06046643 0.050491765 0.05182117
000200 a8 37 10 3e d2 79 65 3d ad 9e 14 bd da 53 78 bb
       0.14083731 0.05602438 -0.036284138 -0.0037891776
000210 98 60 a1 3d f8 3a 07 3e b3 41 81 bd 70 a8 e1 bc
       0.07879752 0.13206089 -0.06311359 -0.027546138
000220 f6 d4 13 3d 00 b4 94 3d 9a ae 2d 3e bf 77 f0 bc
       0.036091767 0.07260895 0.16961136 -0.029353974
000230 7d 79 e2 bd 90 85 2c 3d 08 8a c5 3d 79 0b 15 3e
       -0.11058328 0.042119563 0.09645468 0.14555158
000240 af ea 76 3d 3f fd 81 bc 9a 62 96 3a de a8 78 3d
       0.060282405 -0.015867827 0.0011473477 0.06070792
000250 14 9c 89 3b fc 03 f4 3b 69 ab 61 bb b6 49 05 3d
       0.004199514 0.007446764 -0.0034434444 0.032541
000260 56 67 55 bd 2a 5d 7f 3d 6a b7 dc 3c 3f d0 b5 bb
       -0.052100502 0.062344708 0.026942927 -0.0055485065
000270 72 f1 c1 3c 1b 6a 87 bc df e1 0e 3e b0 5a 41 3d
       0.0236747 -0.016530087 0.1395335 0.047205627
000280 6e 3e 0e 3e 3f 17 e7 bd b7 da 02 3e 1f 08 11 bd
       0.13891003 -0.11283731 0.12778746 -0.035408136
000290 6a 79 9c bd dc 82 ad bc 30 ad 22 bd 70 6f 95 3d
       -0.076403454 -0.021180563 -0.039715946 0.07296646
0002a0 97 e3 a1 bd b2 0f 2b 3c 24 62 30 3c 70 4b 9f 3c
       -0.079047374 0.010440754 0.010765586 0.019445151
0002b0 83 f2 5f 3d cc 68 86 3d 58 1f 45 bd f8 c9 6a 3d
       0.054674637 0.06562957 -0.048125595 0.05732152
0002c0 68 39 50 3d ab d3 23 bc 30 81 fa 3c 66 0f 6c 3d
       0.050835997 -0.009999196 0.03057918 0.057631873
0002d0 e0 f0 bf 3a 6e 0e 78 3c 5d f9 03 3d c7 65 6c bd
       0.001464393 0.015140159 0.032220233 -0.05771425
0002e0 14 04 a3 3c ec 50 b1 3d b0 fb 5c 3d ad d5 71 bd
       0.019899406 0.08658013 0.053950965 -0.059041668
0002f0 9b 73 00 bd 79 05 86 bb 65 ab d6 bc ce 93 53 bd
       -0.03136025 -0.004090008 -0.026204774 -0.05165463
000300 72 bf fa 3c 50 af c6 bd 87 a6 ba 3d 1a ca f5 3a
       0.030608866 -0.09701407 0.09113794 0.0018752248
000310 51 0f 89 3d 42 05 87 3d e6 27 ac bd 30 b0 c0 3c
       0.066923745 0.065928 -0.084060475 0.023521513
000320 40 63 96 3d ec 51 3a 3d ca 3d 2d 3c 70 1c ee bb
       0.07343149 0.045488283 0.010573814 -0.0072665736
000330 29 34 96 bd c4 5a 11 3d 2a 70 68 3d d1 b7 a5 3c
       -0.073341675 0.03548695 0.056747593 0.020229252
000340 8d 80 06 bd b5 ed 8a bd 05 b7 83 3d a2 30 5b bd
       -0.03283744 -0.0678362 0.064313926 -0.053513177
000350 96 33 7a 3d 13 e0 92 3c 35 84 9b 3d 93 19 2c 3d
       0.061084352 0.017929113 0.07593576 0.042016577
000360 bb 03 92 3c 35 ef aa 3d c6 12 87 bd c2 d0 12 3d
       0.017824044 0.08346406 -0.065953776 0.03584362
000370 d9 35 4d bd 10 68 6d 3d 5f 5f e4 3c 52 1b 8b 3c
       -0.05010018 0.05796057 0.027877508 0.0169808
000380 35 40 8b 3d e1 f0 30 bc 72 44 6d 3d 4e dc 06 bc
       0.06799356 -0.0107996175 0.057926603 -0.008231236
000390 43 2e 76 3d 6f c9 a2 3d 62 27 05 bd 7e 7d a5 bc
       0.060102712 0.07948577 -0.03250826 -0.02020144
0003a0 09 b7 ab bc 14 39 6f bd 88 1b 2b 3d 26 25 2a 3d
       -0.020961301 -0.058404043 0.041774303 0.041539334
0003b0 72 dc 68 be cd 59 9e 3d d8 1c b1 3d 5a e9 f0 bd
       -0.22740343 0.07731972 0.0864808 -0.11763258
0003c0 97 ee 81 bd c3 5f 5c bd be 07 e7 bd e7 9a 00 be
       -0.063443355 -0.053802263 -0.112807736 -0.1255909
0003d0 47 4c 6c 3c 36 27 db 3d 38 76 8a bd aa 28 d5 3b
       0.014422483 0.10700838 -0.0676083 0.0065050917
0003e0 2d 6a e9 bd aa c6 09 3d 94 9c c6 3c b3 c2 87 ba
       -0.113972045 0.033636726 0.024244584 -0.0010357708
0003f0 73 d4 55 3d 56 64 ba bb 20 ea 3c bd 70 af 7a bd
       0.05220456 -0.0056882305 -0.046121716 -0.061202466

bias f4 [80]
000000 9b 30 1b 3d e2 20 a7 bb 39 39 30 3d e6 e2 94 3c
       0.03788815 -0.0051003555 0.04302332 0.0181746
000010 68 b7 d6 ba 70 29 81 bc fc f6 64 bd e5 95 c2 3d
       -0.0016381564 -0.01576683 -0.055899605 0.09501246
000020 fd 86 c8 bc b9 8a 4b 3d b4 50 94 3d 79 69 91 bc
       -0.02447843 0.049692843 0.072419554 -0.017750489
000030 21 fd ac bc 28 ab dc 3c 6b 06 df 3d ef 07 b8 bd
       -0.021116795 0.026937082 0.10889896 -0.08985888
000040 fd 7f 67 3c 75 e7 f3 3c e0 d9 f5 3c 43 7c 1b bd
       0.014129636 0.029773453 0.030011117 -0.037960302
000050 ec d2 6a 3d 08 1a 53 bc 0b 10 92 bd e1 52 ad 3c
       0.057330057 -0.012884624 -0.07131966 0.021157684
000060 28 bb 96 3d 51 d8 f0 bc 85 b9 c5 3c 69 14 54 bd
       0.07359916 -0.029400023 0.024136314 -0.051777277
000070 ae f2 53 bc 39 9a ed 3c 89 c5 ea 3b 40 72 f0 bc
       -0.012936277 0.029004203 0.0071646613 -0.029351354
000080 12 3d be 3b e5 63 5f 3d 1a 79 bc 3d c0 20 cf bc
       0.00580562 0.054538626 0.09202786 -0.025284171
000090 36 e6 15 bd e6 90 74 bd 1b 84 68 bd ad cb 75 bd
       -0.0365965 -0.0597085 -0.05676661 -0.060008693
0000a0 7a ce 63 3d 21 1d 08 3d 84 b1 d3 3b 9e 5c 73 bd
       0.055616833 0.033230904 0.0064603705 -0.0594145
0000b0 23 cf 6b 3d a6 17 37 bd 2d 94 04 bd 19 cf 34 3a
       0.057570588 -0.044700287 -0.032367874 0.0006897315
0000c0 17 25 88 3d 85 b3 7a bd ea 35 a7 bd 6d bf af bd
       0.06647699 -0.06120636 -0.0816458 -0.085814334
0000d0 62 2e 87 bd cd 7c 2c bc f3 68 6e bd e2 54 f3 3b
       -0.06600644 -0.010527802 -0.058205556 0.0074258903
0000e0 9d b1 47 3d 7e a7 36 3d 86 3e 54 bd 26 9a 3f bd
       0.04875337 0.044593327 -0.05181744 -0.046777867
0000f0 ee 7f 64 bd 3b d0 cc 3c bf 9e 9f 3d 56 6c 06 3d
       -0.055786066 0.025001636 0.0779395 0.03281816
000100 55 b2 bf bd 97 79 16 bd 81 f8 45 3d c0 58 76 3d
       -0.09360186 -0.03673705 0.048332695 0.060143232
000110 2d 2c fe 3b 48 ae 73 bd f2 c2 5d 3d 4a a1 8c 3d
       0.007756731 -0.05949238 0.054140992 0.06866701
000120 5c 1e e9 3d 92 ce 4e bc e4 69 2c 3d 96 83 8d bd
       0.11382744 -0.012622492 0.042093173 -0.06909864
000130 e4 d1 2d bd fa f2 a8 bb 8c 9b 9d bd 04 7a 0c bd
       -0.042436495 -0.005155918 -0.07695684 -0.03429605

weight f4 [40, 80]
000000 ad 18 08 3c 70 85 4b 3e 96 9f 20 3e 78 17 68 be
       0.008306664 0.19875121 0.15685877 -0.22665203
000010 04 6f 7d bd c5 eb 61 be 01 2e d1 bd c8 4f 3f 3e
       -0.06187345 -0.22062595 -0.10213853 0.18682778
000020 a2 94 fd bd ea 5b df bd 27 98 bb bc b3 86 9f 3c
       -0.12381865 -0.10906203 -0.0228997 0.01947341
000030 46 f7 15 be 79 bc 56 be b5 7c 99 3d f2 8b a4 be
       -0.14645109 -0.20970334 0.07494489 -0.3213802
000040 28 2e ec bd dd 01 4a be 87 b1 83 3d a5 25 92 bd
       -0.11532241 -0.19727273 0.06430345 -0.071360864
000050 da 28 e9 bd ae 1e 6f be 13 97 7d 3d 76 d7 98 3e
       -0.11384745 -0.23351547 0.061911654 0.29851884
000060 b1 32 0b 3e ad b2 c3 bd 29 ad 19 be ea 40 28 be
       0.13593556 -0.09555564 -0.15007462 -0.16431013
000070 78 6d 5e bd a4 cd d5 3c c0 8b 3f be 8a bb fd 3c
       -0.054303616 0.026099034 -0.18705654 0.030973215
000080 9c eb cb 3c ee d9 9a 3b 32 84 a9 3d c3 bd 48 bd
       0.02489262 0.0047256863 0.082771674 -0.049009096
000090 3b 00 fc bd ad 1f e2 bd 41 12 ac 39 21 56 4e 3e
       -0.123047315 -0.11041198 0.00032819997 0.20150043
0000a0 17 4b 4b be 55 de 35 3e 27 7b 8d 3d bc 62 cc bb
       -0.19852863 0.17760594 0.06908255 -0.006237356
0000b0 36 71 31 3e 67 e5 b2 3d 07 78 39 be e6 68 77 bd
       0.17328343 0.08735161 -0.18112193 -0.060402773
0000c0 f1 b2 ec bd 27 e7 05 3d 4e 6a f0 bd 9c 9e a8 3e
       -0.11557568 0.032691147 -0.11739026 0.3293351
0000d0 2b 2d c7 3c 0d da cd bd 66 3b 81 39 27 ba 20 be
       0.02431353 -0.100513555 0.00024649053 -0.15696011
0000e0 f3 68 b8 bd d6 b3 e9 3d da 4e a9 bc be 9f 17 3c
       -0.090043925 0.11411254 -0.020667482 0.009254394
0000f0 f7 30 ab 3e dd 6e 47 3d eb 61 cf bc 02 30 26 3e
       0.33435795 0.04868971 -0.025315246 0.16229251
000100 28 69 8f be 8b ff a6 be dc 06 66 3e fc 5b de bd
       -0.28009915 -0.3261684 0.22463554 -0.108573884
000110 69 dd aa 3d 42 db c8 3d 8d c3 92 bd 13 fa 47 3e
       0.08343012 0.09807445 -0.071662046 0.1952899
000120 73 04 75 3e 0a 68 f7 3c ed e3 0f bd f3 0d 12 be
       0.23927478 0.030200977 -0.035129476 -0.14263134
000130 43 5a 94 bd 65 f2 21 3e f1 88 5b 3c b8 6e 98 3d
       -0.072437786 0.15815122 0.013399349 0.07442993
000140 45 8d 52 3d 44 db e3 bc 12 9f 86 bc 36 16 07 3e
       0.051404256 -0.027814515 -0.016433273 0.13192067
000150 fc 50 89 3e c9 c4 68 3e 1d 30 ed 3d 76 e5 c2 bb
       0.268196 0.22731318 0.115814425 -0.005947764
000160 95 32 81 3e e0 7b e5 3d 7e b7 60 3d bb af 59 3e
       0.25233904 0.11205268 0.05486249 0.21258442
000170 5a 78 a3 3c 79 bc 63 3e d8 59 99 3c 61 5f dd 3e
       0.019954849 0.22239865 0.018719599 0.4323683
000180 25 ec 14 3e be 47 66 3e 2f f1 e3 3c 51 3c c6 3d
       0.14543207 0.22488305 0.027824966 0.09679473
000190 f6 bd 22 3e 59 8f 4a 3e 16 f5 7c bd 79 f2 92 be
       0.15892777 0.19781245 -0.06175717 -0.28700617
0001a0 58 92 90 bd 29 36 7d 3e 8b 3d 92 3d e3 b8 19 3e
       -0.07059163 0.24727692 0.07140645 0.15011935
0001b0 67 2d e9 3c e4 ae fe 3c 5f 99 22 3d 5d 78 4b 3d
       0.028464032 0.031089254 0.039697047 0.049675334
0001c0 6e 14 a8 3c 94 40 91 3d 83 5c 14 be 88 bc c8 bd
       0.020517554 0.070923954 -0.14488415 -0.098015845
0001d0 4b 1d c6 3d f3 77 ab bd 0b 01 1d 3e c9 9d 48 be
       0.09673556 -0.08372488 0.15332429 -0.1959144
0001e0 c9 b2 3a 3e c6 53 8b bd 8d 5c af 3d f4 f3 a0 3d
       0.18232264 -0.06803088 0.085625745 0.0785903
0001f0 d0 8b 05 bd ee b2 75 bd 2e f6 50 3e db 85 a9 3c
       -0.03260404 -0.059985094 0.2040641 0.02069371
000200 af 6d d9 3d be 07 82 bb b0 f3 cf 3d 9d ec b6 be
       0.106166236 -0.003968208 0.101539016 -0.35727397
000210 da cd b3 3d 6f 11 20 3e 3a a4 0c 3b 0f af 5c 3e
       0.087794974 0.1563165 0.0021460191 0.21551155
000220 d7 48 44 3e be f5 48 3d 6d 65 ba 3d e9 61 26 3e
       0.19168411 0.049062483 0.09101377 0.16248287
000230 ec 3f a0 be 0e ba 8e 3d 7e c3 b4 3d 1f 1d d1 bd
       -0.3129877 0.06969081 0.0882635 -0.102106325
000240 39 7a 87 3e 7b 38 42 3e a3 1c fa bd f4 fc 80 3e
       0.26460436 0.18966858 -0.12212493 0.25192988
000250 dd 26 4f be b7 6e 91 3d 9f 48 3f 3d ca b3 e9 bd
       -0.20229669 0.07101195 0.046700116 -0.11411245
000260 02 99 77 be ff 0d 99 bd f5 66 0a 3c 6a a1 ca 3d
       -0.24179462 -0.07473373 0.008447398 0.098940685
000270 7a 07 e3 3c 9d 8b 12 be a2 f6 09 bc 35 c6 39 bd
       0.027713526 -0.1431107 -0.008420618 -0.04535504
000280 77 02 76 3c fd 33 54 3d d1 fc 1d 3e 7e 2f 89 be
       0.015015236 0.051807392 0.15428473 -0.26794046
000290 c3 55 16 bd 4d b8 40 be 7b af 84 3c 9e 25 85 3d
       -0.036702882 -0.18820305 0.016196957 0.065013155
0002a0 c3 0a 27 be 8b d4 26 bd ed ef 9b 3d 51 23 ea 3c
       -0.16312699 -0.04073004 0.076141216 0.028581293
0002b0 0b 0b 1d be 71 e9 4f be b4 53 4d bd f8 d6 dc be
       -0.15336244 -0.20303895 -0.050128654 -0.43132758
0002c0 a7 90 04 bd bb ac 19 be b5 fb 0e 3e c6 dd 09 bd
       -0.032364514 -0.15007298 0.13963206 -0.033658765
0002d0 d8 ed f6 bd ac 84 0d be c8 f6 88 bd 89 f5 2a 3e
       -0.12057084 -0.13820142 -0.06687695 0.16695227
0002e0 d9 41 2a 3e 30 07 27 be d7 88 19 be 3c 28 56 be
       0.16626681 -0.16311336 -0.14993607 -0.20913786
0002f0 56 81 1d 3c a2 2a e6 bd 81 90 ee bd 0f ca 93 bd
       0.009613356 -0.112386 -0.11648656 -0.07216274
000300 eb bb 85 bd f1 4c 66 bc 3f e6 f8 3d 64 f4 12 bd
       -0.06529983 -0.01405643 0.12153291 -0.0358776
000310 83 7d 4b 3c 08 ab 9d 3d 39 08 81 3c 66 e8 49 3d
       0.012420061 0.07698637 0.015750991 0.049293898
000320 42 90 4d be ff 38 30 3e b6 5c db bc 96 dc 0d 3d
       -0.20074561 0.17209242 -0.026777606 0.034634195
000330 42 bd ef 3d 44 00 89 3d b0 ac 3a be 72 98 a8 3d
       0.1170602 0.06689504 -0.18229938 0.08232202
000340 f1 6a de bb cf f6 11 bb 21 32 eb bd 03 c3 92 3e
       -0.0067876508 -0.0022272354 -0.11484171 0.28664407
000350 2e cf a9 3d b4 c0 3e be 80 53 b5 bc c2 05 4a bd
       0.082914695 -0.18628198 -0.022134542 -0.049321897
000360 50 a7 2d be 79 05 2d 3e 74 a5 b3 bd 5b cb 3b be
       -0.16958356 0.16896619 -0.08771792 -0.18339293
000370 19 c8 9b 3e 10 bb 69 bd 1c eb 02 be a7 7c 52 3d
       0.304261 -0.057063162 -0.12785 0.05138841
000380 a6 88 83 be ae a2 b0 be 53 35 8d 3c c5 93 96 bd
       -0.25690192 -0.34499115 0.017237341 -0.073524036
000390 04 0f d6 3d 0a 04 11 bd 07 eb 37 3d 14 00 18 3e
       0.10452083 -0.035404243 0.044901874 0.1484378
0003a0 e8 43 44 3d a1 c4 02 bd 0f ae 09 bd d5 ca 0c be
       0.047916323 -0.0319258 -0.03361326 -0.1374925
0003b0 68 7f 33 be 1f bb 5f bc 93 3a 93 bc aa 35 30 bd
       -0.1752907 -0.013655453 -0.017972266 -0.043019928
0003c0 1f 3c 28 bc 94 13 08 bd 99 1d d4 3d 8f 3b 26 3d
       -0.01026824 -0.033221796 0.10357208 0.040584143
0003d0 d0 28 59 bd 6f c2 bf 3d b1 dc 41 bc 26 13 76 bd
       -0.053017437 0.09363257 -0.011832402 -0.060076855
0003e0 a3 48 8d 3d 6e e5 d8 bd 3f b5 94 bd b4 99 e3 bd
       0.0689862 -0.10590635 -0.072611324 -0.11113301
0003f0 17 8c c6 bc 59 57 9e bd bc bc b6 3d 8c 47 8d 3d
       -0.024236722 -0.07731504 0.08922717 0.06898412

bias f4 [40]
000000 48 0c 91 3c 58 83 b5 3d da fe d4 3c df fa 11 bd
       0.017706051 0.088629425 0.026000429 -0.03563964
000010 d8 9a b8 bd 49 b7 a2 bd 62 88 61 3d f0 62 82 3d
       -0.09013909 -0.07945115 0.055061705 0.06366527
000020 cf e4 22 bd fe 79 f2 3d 22 aa b5 3d c3 14 a3 3d
       -0.03976899 0.118396744 0.08870341 0.07962944
000030 0e 5e cd bd 4d e1 1a 3e 39 ab d7 bd 18 95 19 bd
       -0.10027705 0.15125008 -0.10530705 -0.037495703
000040 ef e7 95 bd 27 00 7c 3c b7 d0 d0 bd 47 29 99 bc
       -0.073196284 0.015380896 -0.10196059 -0.01869644
000050 36 ed f3 3d a8 f8 3b bd 97 f6 11 3e 3c af b5 3d
       0.11910479 -0.045891434 0.14254223 0.08871314
000060 a6 14 b3 3d 11 8b a3 bd 23 1a df 3d 50 41 a5 3d
       0.08744173 -0.07985509 0.10893657 0.08069098
000070 c4 99 b2 3d 57 e4 fe 3d 0a ef ad 3d bc 63 be 3d
       0.08720735 0.12445896 0.08492859 0.092963666
000080 e3 c3 a4 3c 32 3a 90 3d 88 ce 8e 3d e6 8b bc bd
       0.020112937 0.0704235 0.069729865 -0.09206371
000090 90 77 12 3c 61 92 d2 bd 17 11 86 3d 94 99 af 3d
       0.008939639 -0.10281826 0.065462284 0.085742146

weight f4 [2, 40]
000000 0e b1 93 be b1 65 58 3e 6a 3d e0 be 13 59 e7 3d
       -0.2884602 0.21132542 -0.43796855 0.112962864
000010 a1 34 3a bd f7 e3 50 3e c9 e1 1b be 57 b2 82 3e
       -0.045460347 0.20399462 -0.15222849 0.25526688
000020 d7 af b7 bd 36 ba 56 be 2a f1 ac be ff 1f cf be
       -0.08969086 -0.20969471 -0.33777744 -0.404541
000030 f1 39 20 be cd e9 ad be 46 62 d7 3d 53 3a 13 3e
       -0.15647103 -0.33967438 0.10516791 0.14377718
000040 ee 0c 98 3d 45 bf 92 be 69 a8 05 bb 9c 25 55 3e
       0.07424341 -0.28661552 -0.002039457 0.20815128
000050 0a 6a dc be 20 29 b5 3d b6 4f 94 be 5e 42 86 3d
       -0.4304965 0.088457346 -0.28967065 0.06555627
000060 a7 6e c7 be e6 fa 09 bd c6 e0 5c 3e 2c f3 98 3e
       -0.3895161 -0.03368654 0.2157012 0.29873025
000070 c4 cf 72 be 82 ca 8a be 89 f1 9b be c9 d3 11 3e
       -0.23712069 -0.27107626 -0.30457714 0.14240946
000080 b9 e5 d6 be 95 ad d5 be 73 ee 2e 3e 7b 3b 99 bc
       -0.4197214 -0.41733995 0.17083149 -0.01870512
000090 fe ed 8c 3d 53 64 c0 bd 17 73 87 3e 74 f5 9b be
       0.06881331 -0.09394135 0.26454994 -0.30460703
0000a0 2c c8 c1 3e b9 36 75 be 38 cd b7 3e d1 9c bc ba
       0.37848032 -0.23946656 0.35898757 -0.0014389997
0000b0 10 18 c3 bd a7 b2 ad be 55 9f ca 3e 0e 2a 93 be
       -0.09526074 -0.33925363 0.39574686 -0.28743023
0000c0 85 b3 81 bc 8c 2c ba 3e 85 37 7c 3e 2b c9 bc 3e
       -0.015832672 0.36362112 0.24630554 0.3687223
0000d0 76 1d 77 bd 77 dc bb 3e 74 ed 9a be 85 2a 8e be
       -0.06033083 0.3669164 -0.30259287 -0.27766815
0000e0 e6 d6 ed bd 07 25 a6 3e d8 f8 ff 3d b5 4b 89 be
       -0.11613254 0.32450125 0.12498635 -0.26815572
0000f0 0c 28 d1 3e 3e 46 51 bd ed c7 96 3e 64 e1 b3 be
       0.40850866 -0.05109238 0.29449406 -0.35132897
000100 26 4d bc 3e 18 af 2b bd 0a f6 3d be 47 39 93 be
       0.3677761 -0.04191503 -0.18550888 -0.28754637
000110 83 32 93 3e 45 0a 9c 3e 5d e7 b3 3e 94 33 84 be
       0.28749475 0.30476585 0.35137454 -0.258206
000120 71 d5 8e 3e 75 d0 a3 3e a0 21 9d be 2e 22 00 3e
       0.27897218 0.31994978 -0.30689716 0.12513039
000130 57 45 ec bd 4f e0 a2 3d 5f b6 3d be de 71 94 3e
       -0.11536663 0.0795294 -0.185266 0.28993124

bias f4 [2]
000000 f7 97 17 3d d7 09 fd 3d
       0.03701016 0.123553924
