classifier/low_adj_50_CNN.pt (torch, 67655 bytes, 10 tensors)

weight f4 [6, 1, 3, 3]
-0.32204652 0.31465372 0.44351882 -0.23717912 -0.21475644 -0.07794729 0.0056339577 0.28930107
0.34396327 0.2762983 0.3867145 -0.11875284 0.32966077 0.19772449 0.025569089 0.19059779
0.13031475 0.39755028 0.23102142 0.614265 -0.030974148 0.47912982 -0.23818363 4.897469e-05
0.39747307 0.05626629 -0.52699435 -0.18559058 0.39211658 -0.19518724 0.51642156 0.58463687
0.112945974 0.13864009 -0.21468489 0.27829963 0.5568987 -0.046414778 -0.5458354 -0.0568826
-0.24996482 0.0026796986 0.15848587 -0.039394736 -0.448766 0.02824165 -0.2674861 -0.07505002
0.64574695 0.017205102 -0.3959309 0.5355052 -0.37762415 -0.031636693
00000000: 48e3 a4be 4b1a a13e e614 e33e 15df 72be
00000010: 1de9 5bbe d4a2 9fbd 109d b83b 451f 943e
00000020: f41b b03e f976 8d3e 71ff c53e b034 f3bd
00000030: 4cc9 a83e 4a78 4a3e 4476 d13c 112c 433e
00000040: 3b71 053e b68b cb3e e190 6c3e 7940 1d3f
00000050: 7fbd fdbc 8150 f53e 69e6 73be 2c6a 4d38
00000060: 9781 cb3e 7b77 663d 1ae9 06bf 750b 3ebe
00000070: 81c3 c83e 2adf 47be 3434 043f c3aa 153f
00000080: 3850 e73d abf7 0d3e 5bd6 5bbe 4a7d 8e3e
00000090: ea90 0e3f 6c1d 3ebd debb 0bbf bbfd 68bd
000000a0: c7f6 7fbe e29d 2f3b 1f4a 223e 605c 21bd
000000b0: a8c4 e5be 085b e73c f0f3 88be d3b3 99bd
000000c0: ac4f 253f b7f1 8c3c 74b7 cabe de16 093f
000000d0: f457 c1be 7a95 01bd

bias f4 [6]
-0.08224514 -0.05913495 0.20994325 0.22453214 0.19601393 0.21969812
00000000: 2470 a8bd 7d37 72bd 5dfb 563e c1eb 653e
00000010: e0b7 483e 8bf8 603e

weight f4 [16, 6, 3, 3]
-0.24528822 -0.15705766 0.06799205 -0.19349372 -0.16030088 0.088447765 -0.077156775 -0.22694947
-0.21421146 0.09694421 -0.0854849 -0.067776255 -0.17208162 0.11753457 0.07308737 -0.0044869953
0.14141081 0.05965195 -0.26503533 0.08092489 -0.2063784 0.06173716 0.07366276 0.16945404
-0.18448783 0.10654703 0.055602603 0.03174465 0.10987433 -0.06955018 -0.12859465 -0.0015710221
0.13102902 -0.13511048 0.14531283 0.15423092 0.10599965 0.17507601 -0.04573085 -0.0798029
0.14870009 0.122105576 -0.060526323 -0.1250822 -0.09612911 -0.04095928 0.15685643 -0.03687513
-0.21538433 0.07194035 0.10461084 -0.1325552 -0.23353495 0.11921814 0.13150944 0.08989909
0.030967357 0.17862493 -0.053590536 -0.06132946 -0.11456388 0.21493708 0.27888122 0.21814294
0.03762313 -0.055359334 -0.19617714 0.10253163 0.23916571 -0.019755607 -0.05881964 -0.10078748
0.088482715 0.021167714 0.13600507 0.041765984 0.07538202 0.04324461 0.053742122 0.09040787
0.1792077 0.15354173 -0.0013136948 -0.09637074 0.13838235 0.23334722 -0.052331477 0.0401279
0.046384577 0.055248596 0.18747301 0.1324195 9.776259e-05 -0.11767766 0.06864056 0.023669645
-0.0015913023 -0.26097262 0.10174328 0.10596752 -0.049746316 0.12451009 0.16961686 -0.009058672
0.08093722 -0.115899 -0.024771644 -0.036340255 0.03868604 -0.12849176 -0.17466503 -0.19428603
-0.18838717 -0.11557944 -0.18649009 0.111175105 0.019091565 -0.056013875 0.16728705 -0.10966925
-0.09717529 0.06439671 -0.12346493 -0.21172477 0.022424795 0.059392277 -0.04498799 -0.03267458
-0.071266465 0.11124967 -0.13922866 0.058739282 -0.009456994 0.06967895 0.0847747 -0.087733
0.046006676 0.07218491 0.051195253 0.035713755 -0.08977169 -0.12682989 0.11680568 0.012526365
-0.08979939 0.059673905 0.03952134 -0.10760105 -0.04808095 0.0010348298 -0.111284174 -0.0063882954
0.016401954 0.11021693 0.1726432 0.015767604 0.020609928 0.044309523 0.11270643 0.086993076
-0.08607407 0.031954553 -0.023308473 -0.21997964 -0.0039181407 0.13343705 0.019806795 -0.15166886
0.1236646 -0.13219716 -0.2048185 0.15485504 0.0072754296 -0.13097245 0.11282858 0.14633815
-0.047789462 -0.1002608 -0.037112467 0.12395682 0.03222439 0.04557094 -0.13674988 -0.0004804989
0.010918608 -0.02109792 -0.013985784 0.079725794 -0.0232241 -0.021729197 -0.07586066 -0.14505461
-0.08148562 -0.119045354 -0.045371503 -0.12727171 0.15315996 0.12669392 -0.0656162 0.072981246
-0.002662866 0.01455984 0.1516227 0.13407713 -0.040789355 -0.08565241 0.09888314 -0.03610634
-0.042126473 -0.051219773 -0.14527823 -0.06383955 0.10080108 0.1416827 0.048167747 0.0026806574
-0.03805166 -0.0057859723 -0.11839965 0.22698557 0.06776195 -0.29479644 -0.08039238 0.15764703
0.011926176 0.14741383 -0.017178925 -0.08723614 0.049612004 0.1556982 -0.092744075 0.053035133
0.06912723 -0.0061944844 0.14319739 0.04667327 -0.07159954 0.060574662 0.14541133 0.10201204
0.054320972 0.100375205 0.14406621 0.17930989 -0.07606577 -0.13672757 0.18011552 0.14111203
0.07892038 -0.014685484 -0.0619391 -0.0700297 0.054102 -0.0060455063 0.107044265 0.12806982
00000000: d62c 7bbe b9d3 20be 6a3f 8b3d 3823 46be
00000010: ea25 24be 1a24 b53d 5f04 9ebd 7165 68be
00000020: 405a 5bbe b08a c63d b512 afbd 47ce 8abd
00000030: 2a36 30be f7b5 f03d d5ae 953d a507 93bb
00000040: ffcd 103e 9a55 743d b6b2 87be f3bb a53d
00000050: dc54 53be 1be0 7c3d 80dc 963d 5c85 2d3e
00000060: 61ea 3cbe 5435 da3d 8ebf 633d ae06 023d
00000070: cb05 e13d 5370 8ebd 51ae 03be c1ea cdba
00000080: 792c 063e 675a 0abe e3cc 143e b6ee 1d3e
00000090: 5816 d93d 2047 333e 4650 3bbd b46f a3bd
000000a0: d644 183e 7d12 fa3d 73ea 77bd 8c15 00be
000000b0: 57df c4bd ebc4 27bd f99e 203e 600a 17bd
000000c0: b68d 5cbe 7655 933d 353e d63d 8dbc 07be
000000d0: c923 6fbe a428 f43d 69aa 063e 041d b83d
000000e0: 41af fd3c 74e9 363e c081 5bbd 9a34 7bbd
000000f0: 78a0 eabd 7718 5c3e 85c9 8e3e dd60 5f3e
00000100: b61a 1a3d 78c0 62bd a9e2 48be 1afc d13d
00000110: dbe7 743e 83d6 a1bc ddec 70bd ab69 cebd
00000120: 6d36 b53d ea67 ad3c ea44 0b3e cf12 2b3d
00000130: e361 9a3d 4321 313d b320 5c3d c327 b93d
00000140: 3982 373e 0b3a 1d3e 4830 acba 065e c5bd
00000150: 1ab4 0d3e 93f2 6e3e 8859 56bd 275d 243d
00000160: c1fd 3d3d 5a4c 623d edf8 3f3e fa98 073e
00000170: e405 cd38 fc00 f1bd 6c93 8c3d d8e6 c13c
00000180: 3f93 d0ba 349e 85be c85e d03d 8005 d93d
00000190: cbc2 4bbd 25ff fe3d 0bb0 2d3e d36a 14bc
000001a0: 6ac2 a53d 745c edbd e7ed cabc 85d9 14bd
000001b0: 4175 1e3d 5893 03be 64db 32be ebf2 46be
000001c0: 91e8 40be eab4 ecbd 42f7 3ebe c6af e33d
000001d0: ea65 9c3c ce6e 65bd 4c4d 2b3e 469a e0bd
000001e0: d703 c7bd 6ce2 833d 2edb fcbd 61ce 58be
000001f0: 34b4 b73c 5145 733d 5445 38bd c8d5 05bd
00000200: 27f4 91bd ded6 e33d f591 0ebe 9a98 703d
00000210: 82f1 1abc d6b3 8e3d 5c9e ad3d 5cad b3bd
00000220: 7f71 3c3d afd5 933d 1db2 513d 9648 123d
00000230: 38da b7bd b2df 01be d137 ef3d 623b 4d3c
00000240: bee8 b7bd a06c 743d 21e1 213d f05d dcbd
00000250: 88f0 44bd 20a3 873a f5e8 e3bd e854 d1bb
00000260: 645d 863c 6ab9 e13d 61c9 303e 102b 813c
00000270: 27d6 a83c e77d 353d a1d2 e63d 6d29 b23d
00000280: 9a47 b0bd c7e2 023d 69f1 bebc 5842 61be
00000290: bf63 80bb b9a3 083e dc41 a23c 154f 1bbe
000002a0: de43 fd3d b15e 07be f1bb 51be 5292 1e3e
000002b0: ba66 ee3b a41d 06be ac12 e73d abd9 153e
000002c0: e2be 43bd 8955 cdbd 3e03 18bd 13dd fd3d
000002d0: b9fd 033d 98a8 3a3d 2908 0cbe 78eb fbb9
000002e0: f6e3 323c 8cd5 acbc a124 65bc 4747 a33d
000002f0: 7840 bebc 6e01 b2bc d55c 9bbd 3289 14be
00000300: efe1 a6bd 0dce f3bd 78d7 39bd 8453 02be
00000310: f7d5 1c3e 0dbc 013e c961 86bd 3177 953d
00000320: 7a83 2ebb 658c 6e3c fb42 1b3e 844b 093e
00000330: bd12 27bd 886a afbd 3e83 ca3d 3ee4 13bd
00000340: cf8c 2cbd d3cb 51bd d1c3 14be 4fbe 82bd
00000350: cc70 ce3d 4515 113e 8b4b 453d f8ad 2f3b
00000360: 0fdc 1bbd 4198 bdbb 847b f2bd e86e 683e
00000370: c7c6 8a3d 8fef 96be c3a4 a4bd 396e 213e
00000380: 0266 433c a7f3 163e d1ba 8cbc dda8 b2bd
00000390: f535 4b3d 596f 1f3e 9bf0 bdbd 5e3b 593d
000003a0: 9492 8d3d 1afb cabb 56a2 123e 792c 3f3d
000003b0: c8a2 92bd 231d 783d b5e6 143e b0eb d03d
000003c0: ab7f 5e3d 8491 cd3d 1886 133e 039d 373e
000003d0: 5fc8 9bbd 5002 0cbe 3470 383e ac7f 103e
000003e0: 02a1 a13d 629b 70bc dbb3 7dbd bb6b 8fbd
000003f0: 0f9a 5d3d 6219 c6bb 063a db3d bc24 033e

bias f4 [16]
0.114765756 0.03708189 0.14647378 0.028381646 0.030870799 0.12884943 0.19082622 0.10196014
0.008174692 0.08493259 -0.025729597 -0.012583195 -0.027504532 -0.05500841 0.116209455 0.05529615
00000000: 4f0a eb3d 2ee3 173d 39fd 153e a080 e83c
00000010: c2e4 fc3c 1bf1 033e f367 433e 7ad0 d03d
00000020: 25ef 053c 23f1 ad3d e0c6 d2bc bf29 4ebc
00000030: 2f51 e1bc 8050 61bd 39ff ed3d 377e 623d

weight f4 [80, 144]
0.050209288 -0.010820876 -0.021978758 0.025997281 -0.042261194 -0.031224137 0.060573127 -0.08376459
0.00868022 -0.045877006 -0.07375912 0.020222357 0.0011417003 0.051647797 0.0370539 -0.02524316
0.061703093 -0.037659034 -0.079550184 -0.07035219 -0.017811319 0.00174476 0.033132344 -0.039439306
0.07787934 -0.026127275 0.0322983 0.016605556 -0.049710188 0.014773749 -0.015350606 0.07863482
0.021657566 0.04427807 0.019677985 -0.015627004 -0.058341835 -0.062587954 0.046534292 0.063414976
-0.05612583 -0.049297895 0.030959742 0.06452988 0.049421582 -0.013409412 0.03472118 -0.05487167
-0.041345596 0.0037874454 -0.075813964 -0.08372243 -0.058723845 -0.085743494 0.062444963 -0.06445426
2.0455387e-05 0.0025354656 -0.07535779 0.027975937 0.023758808 0.008963223 -0.07209829 -0.027919536
0.05480719 0.01880741 -0.039789658 0.04579802 0.07336353 0.045552574 0.027960312 0.07292741
0.052058164 -0.053465802 0.04574935 0.06457823 -0.027106388 0.023152113 -0.016342556 -0.056038484
-0.054170478 0.07312277 -0.06511807 0.069835566 -0.078706354 -0.024007374 -0.0059256144 -0.07857182
-0.077910766 -0.07706876 0.05709974 -0.07357021 -0.03403222 0.07464265 0.066296004 -0.032082416
-0.037879348 0.0639994 -0.023010502 0.0658475 -0.053315803 0.052503943 -0.022057582 0.0696434
-0.07968029 -0.07048315 0.074227825 0.055700194 -0.020258354 -0.063926 -0.05187314 -0.05068794
0.077428915 -0.07680761 -0.07137783 0.06922714 0.01120654 0.033248793 0.017301043 -0.06592552
-0.03977626 0.004106462 -0.0014167726 0.004201512 0.08254744 -0.078222774 -0.06598737 -0.03248473
-0.0065404815 -0.032013454 0.06888779 -0.050040983 -0.07725585 0.04416587 -0.021976842 0.07196489
0.022608366 -0.024688868 -0.01787927 -0.04528191 -0.029706465 -0.009365197 -0.085608944 0.008055938
0.016266694 0.095595665 -0.11654551 -0.048117246 0.090336576 -0.13616437 0.095326334 -0.019772422
-0.077295616 -0.10512679 -0.06540098 -0.016861737 0.0033456453 0.04455035 -0.0073951273 -0.06529745
0.0863164 0.018375218 -0.04573919 -0.04866686 -0.120668985 -0.032382388 0.034353364 -0.09576765
0.095163986 -0.0027508002 0.019134697 -0.0067972364 0.029776806 -0.025590446 -0.06257298 0.05492261
0.0021223903 0.02289012 0.030489814 0.05234547 -0.021911867 -0.007535495 0.043135725 0.05708735
0.078085564 0.09493878 -0.013888391 0.07420839 -0.020573786 0.017174633 0.03509801 -0.00016262167
-0.05377987 -0.041722056 -0.022869978 -0.013849503 -0.052848373 0.0071701407 0.1264713 -0.00011637771
-0.11624817 0.06374736 0.06123268 0.081314914 -0.11286909 -0.07379533 0.013807783 -0.07623507
-0.047397282 0.003679272 -0.040274646 0.020746239 0.06876181 0.02539123 0.014026057 -0.012417188
0.05551422 0.040574715 0.02649518 -0.049253535 -0.029607153 -0.07544667 -0.13912958 0.016882025
0.012934941 0.07937186 -0.00868164 -0.017071389 0.015275371 -0.0035202606 -0.021437248 -0.0117734885
-0.059378557 0.09080456 -0.074271 0.066914394 -0.04069281 -0.008907824 0.039979294 -0.04980664
-0.048799857 -0.06321313 -0.0555562 -0.096397884 0.07370136 0.004468963 0.0011209523 0.10742366
0.104702994 0.029610008 -0.029198311 -0.06767976 -0.09683531 0.018950338 0.053850543 0.08962548
00000000: 41a8 4d3d 0b4a 31bc cc0c b4bc 40f8 d43c
00000010: 131a 2dbd c3c9 ffbc 871b 783d c58c abbd
00000020: 7b37 0e3c 87e9 3bbd 060f 97bd 5ba9 a53c
00000030: 1ba5 953a a48c 533d d5c5 173d beca cebc
00000040: 62bc 7c3d 5c40 1abd 35eb a2bd cf14 90bd
00000050: 0be9 91bc 6eb0 e43a c8b5 073d 1c8b 21bd
00000060: 347f 9f3d de08 d6bc 394b 043d 6008 883c
00000070: e99c 4bbd 980d 723c 1c81 7bbc 4b0b a13d
00000080: 356b b13c ec5c 353d ba33 a13c 3404 80bc
00000090: d9f7 6ebd 1d2e 80bd be9a 3e3d b6df 813d
000000a0: 33e4 65bd 97ec 49bd 499f fd3c 3e28 843d
000000b0: 496e 4a3d 26b3 5bbc cc37 0e3d 1ec1 60bd
000000c0: 005a 29bd ca36 783b 5a44 9bbd aa76 abbd
000000d0: 6a88 70bd 499a afbd 4ac6 7f3d 9800 84bd
000000e0: 9c97 ab37 0e2a 263b 2f55 9abd cb2d e53c
000000f0: d5a1 c23c 7bda 123c 45a8 93bd 83b7 e4bc
00000100: 817d 603d ff11 9a3c 7bfa 22bd b496 3b3d
00000110: 9e3f 963d 5695 3a3d 060d e53c f75a 953d
00000120: f13a 553d f5fe 5abd ac63 3b3d 9741 843d
00000130: 370e debc 80a9 bd3c d3e0 85bc 9c88 65bd
00000140: dde1 5dbd 64c1 953d 9f5c 85bd f305 8f3d
00000150: cc30 a1bd 1dab c4bc a82b c2bb 43ea a0bd
00000160: ae8f 9fbd 3ad6 9dbd 6be1 693d faab 96bd
00000170: 5e65 0bbd 3fde 983d 33c6 873d da68 03bd
00000180: 6027 1bbd 1e12 833d 8580 bcbc 0edb 863d
00000190: ac61 5abd 600e 573d 1ab2 b4bc 33a1 8e3d
000001a0: 6b2f a3bd 7859 90bd c204 983d e325 643d
000001b0: d9f4 a5bc a2eb 82bd ee78 54bd 289e 4fbd
000001c0: 0d93 9e3d 4f4d 9dbd 8a2e 92bd f5c6 8d3d
000001d0: a39b 373c e32f 083d ebba 8d3c f603 87bd
000001e0: 6eec 22bd 808f 863b 00b3 b9ba d6ac 893b
000001f0: a20e a93d 4333 a0bd 6324 87bd b50e 05bd
00000200: 8951 d6bb 8a20 03bd 0b15 8d3d c6f7 4cbd
00000210: 5138 9ebd 45e7 343d c708 b4bc 5462 933d
00000220: 2e35 b93c 4f40 cabc 8c77 92bc 8679 39bd
00000230: f95a f3bc 7c70 19bc be53 afbd 0efd 033c
00000240: bb41 853c a9c7 c33d 6aaf eebd 9716 45bd
00000250: 6202 b93d ac6e 0bbe 743a c33d c6f9 a1bc
00000260: 2a4d 9ebd b74c d7bd f3f0 85bd a021 8abc
00000270: 9d42 5b3b 6e7a 363d d352 f2bb abba 85bd
00000280: a7c6 b03d a087 963c 0459 3bbd e756 47bd
00000290: 4d21 f7bd 65a3 04bd 1db6 0c3d d421 c4bd
000002a0: 56e5 c23d c546 34bb 5ec0 9c3c 5abb debb
000002b0: 7dee f33c 0ea3 d1bc 4326 80bd 88f6 603d
000002c0: cd17 0b3b 1084 bb3c c6c5 f93c 3468 563d
000002d0: 8480 b3bc 50ec f6bb 16af 303d 6dd4 693d
000002e0: 53eb 9f3d 436f c23d 228c 63bc 92fa 973d
000002f0: 5b8a a8bc d1b1 8c3c eec2 0f3d 6c85 2ab9
00000300: 4848 5cbd bfe4 2abd d259 bbbc 07e9 62bc
00000310: 8977 58bd 80f3 ea3b b181 013e cf0f f4b8
00000320: 8513 eebd fa8d 823d 1ecf 7a3d 6f88 a63d
00000330: e927 e7bd 0222 97bd 0a3a 623c 2221 9cbd
00000340: a723 42bd f11f 713b 07f7 24bd 04f4 a93c
00000350: fed2 8c3d 4501 d03c 8ccd 653c 7671 4bbc
00000360: e162 633d ac31 263d 6b0c d93c 13be 49bd
00000370: b38a f2bc c983 9abd fc77 0ebe 2c4c 8a3c
00000380: 13ed 533c b78d a23d 703d 0ebc 4cd9 8bbc
00000390: 8d45 7a3c 2cb4 66bb 2b9d afbc 97e5 40bc
000003a0: ee36 73bd bef7 b93d 651b 98bd 6a0a 893d
000003b0: 81ad 26bd 1ff2 11bc 54c1 233d 0c02 4cbd
000003c0: 5ce2 47bd e375 81bd e68e 63bd 416c c5bd
000003d0: bdf0 963d 6170 923b ebec 923a f000 dc3d
000003e0: 866e d63d b090 f23c 4c31 efbc b09b 8abd
000003f0: 9751 c6bd bd3d 9b3c 6392 5c3d 908d b73d

bias f4 [80]
0.023133352 0.0035987224 -0.04682976 -0.051916834 -0.048473075 0.035010193 -0.061690554 0.05834311
0.06933505 -0.0069199037 0.01833395 -0.03518401 0.031107308 0.010408959 0.06978638 0.024748031
-0.02091648 0.029100196 -0.0677664 0.012632088 0.0862934 0.018884744 0.08650582 -0.009037756
0.0723614 -0.0075801415 0.017665707 -0.07278257 0.05727934 -0.010744973 -0.011344781 -0.05371298
0.011989037 0.06947716 0.09253961 0.042926133 0.03308712 0.031999245 0.028894044 0.033616826
0.0903359 -0.028811872 -0.07701199 0.037834514 -0.07874993 0.082143635 0.03299607 0.006691927
-0.003204822 -0.067151636 0.005390972 -0.036564548 -0.00030862037 0.029147474 -0.07585199 -0.052952357
-0.02334173 0.06354906 0.059063226 -0.005764028 0.089338504 0.06503898 0.11325157 0.020435818
-0.02007867 0.05595985 0.0049382183 -0.0029877753 -0.0591696 0.017479053 0.06647447 -0.06910356
0.08906726 -0.011378153 -0.045704454 -0.07600317 -0.034704894 0.04677149 0.03255072 0.06926079
00000000: 2882 bd3c 8bd8 6b3b 90d0 3fbd bfa6 54bd
00000010: b48b 46bd d966 0f3d 3caf 7cbd 2ff9 6e3d
00000020: 89ff 8d3d 5cc0 e2bb 1431 963c 1c1d 10bd
00000030: c1d4 fe3c 578a 2a3c 29ec 8e3d 62bc ca3c
00000040: 0a59 abbc 8963 ee3c 1cc9 8abd d1f6 4e3c
00000050: 98ba b03d 2eb4 9a3c f729 b13d 1913 14bc
00000060: 3732 943d d662 f8bb acb7 903c 070f 95bd
00000070: be9d 6a3d af0b 30bc 76df 39bc 2402 5cbd
00000080: aa6d 443c 0b4a 8e3d 6885 bd3d 50d3 2f3d
00000090: 5c86 073d a411 033d 34b3 ec3c ccb1 093d
000000a0: 0702 b93d e006 ecbc 76b8 9dbd 5df8 1a3d
000000b0: a547 a1bd ec3a a83d e326 073d f447 db3b
000000c0: fe07 52bb cc86 89bd c0a6 b03b b5c4 15bd
000000d0: 53ce a1b9 afc6 ee3c 4a58 9bbd 92e4 58bd
000000e0: 2837 bfbc 0226 823d 48ec 713d 2ce0 bcbb
000000f0: 1bf7 b63d 2833 853d 70f0 e73d 0469 a73c
00000100: 067c a4bc 2836 653d c7d0 a13b 8dce 43bb
00000110: d35b 72bd 3b30 8f3c c423 883d 2b86 8dbd
00000120: e568 b63d 6f6b 3abc 9834 3bbd 8da7 9bbd
00000130: b826 0ebd 7693 3f3d e753 053d 9ad8 8d3d

weight f4 [40, 80]
-0.00030514464 0.08480322 -0.041466285 -0.028009214 -0.040963512 0.0153524475 0.10981054 0.023751209
-0.009820766 0.07972941 -0.06835896 -0.012933602 0.044391967 0.034688115 0.090776436 -0.043089703
-0.07331123 0.0074930303 0.016642824 -0.087179005 0.026787275 0.0058355066 0.01687176 0.05280119
-0.030781744 0.08193358 0.043993607 -0.05633515 0.04097152 -0.06321836 -0.058121957 0.10288469
-0.0772727 0.049084652 0.0634162 0.06845733 -0.11122291 -0.08778067 0.00912827 -0.069554
0.004656671 -0.017578557 -0.10784673 -0.08256638 -0.077926815 -0.0053843935 -0.069039695 -0.042136043
-0.02523944 0.102343604 -0.09394679 0.013238919 -0.037732523 -0.09097445 0.051670086 -0.028116383
0.09633418 -0.064599074 -0.055444375 -0.040743265 -0.073726706 -0.050866753 -0.07598704 0.1069086
-0.0047481414 -0.088856146 -0.06937062 0.08327463 0.08402896 -0.035382226 0.02629907 -0.098407984
-0.051765647 -0.007426017 -0.019600295 0.055266913 -0.10658213 -0.02564148 -0.06900401 -0.024189966
-0.0025760222 -0.072876066 0.3093628 0.2191288 0.11062177 -0.091695264 0.15854977 -0.015220058
0.009648244 -0.054091565 0.105482854 0.18583965 0.05607047 -0.23273611 -0.0026067898 -0.11128949
-0.0123165855 -0.2048724 0.07836434 -0.041226424 -0.09325179 -0.15693566 -0.11940699 -0.026415588
0.18490553 -0.010481422 -0.09320715 0.2127664 -0.12050978 -0.10685169 0.015066096 -0.072942525
0.27103564 0.12116374 0.037079487 0.14853425 0.08960847 -0.13379985 0.06323273 -0.21907295
-0.121600285 0.11807983 0.073437236 0.03453755 0.093424655 -0.11721173 0.030016882 -0.025498148
0.15837966 -0.10286621 -0.10504646 0.040517014 -0.020778233 0.09745815 0.16664857 -0.0710578
0.080087684 0.22416565 -0.027836395 -0.10001374 -0.20439494 -0.18384935 0.060699433 0.041696504
-0.031219022 -0.042814683 0.18571521 0.086973466 0.20610484 -0.086156264 -0.16348813 0.08856299
-0.10195861 -0.17693599 0.022266919 -0.15980959 -0.20436741 0.20286377 0.14420114 0.0010859459
0.1112569 0.05915314 -0.032475773 -0.10661011 0.10594648 0.10253539 0.01761707 0.0076112365
-0.06300556 -0.108895004 0.011501787 -0.09445633 0.10026061 0.008171609 0.081004865 0.037450425
0.01767853 0.0679367 -0.061205525 -0.094328485 0.00771428 -0.075981244 0.08637669 0.05039713
0.067866206 -0.039918132 0.042511813 0.014385554 -0.056053493 0.026235852 -0.019540839 -0.07367817
0.08528448 0.009449069 -0.10739742 0.07113752 0.1058772 -0.057779655 -0.09547746 -0.027497595
0.08199399 -0.10533377 0.0025148876 -0.029796408 -0.07588126 0.032444257 0.07988606 0.028132234
0.0873037 -0.10792155 0.014597523 -0.10153278 -0.08985181 -0.06494355 0.082262844 -0.035751704
0.0070869126 -0.003999208 -0.037242122 0.06967598 0.016562257 -0.060254168 -0.006558777 -0.013765488
0.07910911 -0.10121093 0.07982245 -0.024954965 0.110966034 -0.10651299 -0.019549623 -0.10300367
-0.07163753 -0.02480083 -0.07149914 0.029885195 0.070205286 -0.053641576 0.06852385 -0.10003506
-0.041533392 0.16919792 -0.13125679 -0.039172858 -0.06877795 0.109859206 -0.16256672 0.19276331
-0.12062958 0.1441949 0.0652544 -0.21434264 -0.0034605835 0.24136361 -0.0674223 -0.09546907
00000000: d2fb 9fb9 50ad ad3d 8dd8 29bd 9473 e5bc
00000010: 5bc9 27bd d588 7b3c 59e4 e03d e591 c23c
00000020: 47e7 20bc 2c49 a33d c8ff 8bbd 75e7 53bc
00000030: 5ad4 353d 2015 0e3d ffe8 b93d d47e 30bd
00000040: 3324 96bd 1888 f53b 8856 883c e88a b2bd
00000050: fd70 db3c c737 bf3b a536 8a3c 1046 583d
00000060: ff29 fcbc cbcc a73d a432 343d b0bf 66bd
00000070: c1d1 273d a178 81bd 4a11 6ebd 35b5 d23d
00000080: 2641 9ebd fd0c 493d 5ae0 813d 5b33 8c3d
00000090: d6c8 e3bd 5ac6 b3bd bd8e 153c 5472 8ebd
000000a0: fd96 983b e800 90bc bfde dcbd 9018 a9bd
000000b0: 1898 9fbd 916f b0bb af64 8dbd d896 2cbd
000000c0: f1c2 cebc 8699 d13d 2d67 c0bd 0de8 583c
000000d0: 6b8d 1abd d050 babd 03a4 533d 5454 e6bc
000000e0: db4a c53d 854c 84bd a419 63bd 69e2 26bd
000000f0: 07fe 96bd a859 50bd 189f 9bbd e5f2 da3d
00000100: 4c96 9bbb 36fa b5bd 2f12 8ebd e48b aa3d
00000110: 6017 ac3d f4ec 10bd 2671 d73c 208a c9bd
00000120: 3708 54bd f255 f3bb cc90 a0bc 8f5f 623d
00000130: bb47 dabd 150e d2bc f951 8dbd 092a c6bc
00000140: 7bd2 28bb 0c40 95bd cd64 9e3e 4d63 603e
00000150: ab8d e23d baca bbbd df5a 223e 8d5d 79bc
00000160: ab13 1e3c 1e8f 5dbd 6507 d83d c04c 3e3e
00000170: 26aa 653d 6052 6ebe add6 2abb beeb e3bd
00000180: 81cb 49bc 12ca 51be 7c7d a03d 0add 28bd
00000190: cbfa bebd beb3 20be a78b f4bd 8165 d8bc
000001a0: e057 3d3e 45ba 2bbc 64e3 bebd 6fdf 593e
000001b0: d5cd f6bd 0fd5 dabd c9d7 763c e462 95bd
000001c0: 2fc5 8a3e b224 f83d a9e0 173d 5d19 183e
000001d0: a584 b73d d402 09be 2980 813d a954 60be
000001e0: 9209 f9bd d7d3 f13d 4366 963d 3f77 0d3d
000001f0: 6d55 bf3d b40c f0bd f7e5 f53c 7ee1 d0bc
00000200: 472e 223e 85ab d2bd 9922 d7bd 2bf5 253d
00000210: 1d37 aabc 2398 c73d eca5 2a3e c086 91bd
00000220: 0305 a43d ae8b 653e 2709 e4bc 01d4 ccbd
00000230: e84c 51be 0143 3cbe f89f 783d f4c9 2a3d
00000240: 09bf ffbc 735e 2fbd 212c 3e3e 251f b23d
00000250: 260d 533e b272 b0bd 6f69 27be 8360 b53d
00000260: adcf d0bd b52e 35be 1d69 b63c 20a5 23be
00000270: b145 51be 85bb 4f3e 77a9 133e 4c56 8e3a
00000280: a8da e33d 904a 723d 5105 05bd 6756 dabd
00000290: 78fa d83d 13fe d13d ac51 903c ae67 f93b
000002a0: 0f09 81bd 5804 dfbd fe71 3c3c 5272 c1bd
000002b0: 6f55 cd3d 36e2 053c e1e5 a53d 9e65 193d
000002c0: 91d2 903c 6622 8b3d a5b2 7abd 4b2f c1bd
000002d0: 12c8 fc3b 0e9c 9bbd 43e6 b03d 396d 4e3d
000002e0: 70fd 8a3d 3281 23bd de20 2e3d 63b1 6b3c
000002f0: 5998 65bd 92ec d63c 1c14 a0bc 95e4 96bd
00000300: a1a9 ae3d 45d0 1a3c 2ef3 dbbd 8cb0 913d
00000310: 25d6 d83d 5caa 6cbd b089 c3bd a342 e1bc
00000320: 77ec a73d 3bb9 d7bd d0d0 243b 9917 f4bc
00000330: a267 9bbd 45e4 043d 4d9b a33d 9275 e63c
00000340: 48cc b23d f905 ddbd 732a 6f3c 6bf0 cfbd
00000350: 3a04 b8bd 2001 85bd 6c79 a83d 6170 12bd
00000360: 5539 e83b ca0b 83bb 328b 18bd 48b2 8e3d
00000370: 92ad 873c 13cd 76bd 02eb d6bb a488 61bc
00000380: f503 a23d ad47 cfbd f479 a33d 5b6e ccbc
00000390: 2942 e33d 7c23 dabd 8826 a0bc 97f3 d2bd
000003a0: b3b6 92bd 1c2b cbbc 246e 92bd ccd1 f43c
000003b0: cac7 8f3d 45b7 5bbd 3b56 8c3d 2edf ccbd
000003c0: eb1e 2abd 3842 2d3e 2e68 06be b873 20bd
000003d0: 74db 8cbd ddfd e03d e477 26be bf63 453e
000003e0: a40c f7bd d4a7 133e 19a4 853d a37c 5bbe
000003f0: f5ca 62bb 0628 773e b414 8abd 4a85 c3bd

bias f4 [40]
-0.090421736 0.065057166 -0.10117827 -0.07143429 -0.006194335 -0.08170578 0.030967241 -0.058215253
0.095732644 0.00022543668 -0.031195994 0.025163153 -0.10871105 0.06816448 -0.044724997 0.11753972
0.07613408 0.04331486 0.03494869 0.08708362 0.086533934 0.07259299 -0.04765717 -0.008718603
-0.024232058 -0.023434933 -0.10413329 0.038688753 0.023053102 0.03547452 0.032942872 -0.024707923
0.08402464 -0.048358504 -0.016608266 0.05806241 -0.011457272 -0.077587254 0.08500593 -0.026621941
00000000: 082f b9bd b13c 853d 8e36 cfbd 244c 92bd
00000010: d9f9 cabb 5c55 a7bd 03af fd3c 1e73 6ebd
00000020: 7a0f c43d 3363 6c39 be8e ffbc f522 ce3c
00000030: e6a3 debd d299 8b3d 8f31 37bd aab8 f03d
00000040: 2fec 9b3d ec6a 313d 5c26 0f3d e658 b23d
00000050: b438 b13d a2ab 943d 2a34 43bd 79d8 0ebc
00000060: 4f82 c6bc 9efa bfbc d643 d5bd 1978 1e3d
00000070: dcd9 bc3c bb4d 113d 1bef 063d 4568 cabc
00000080: 1c15 ac3d 9113 46bd 0f0e 88bc dad2 6d3d
00000090: 48b7 3bbc 11e6 9ebd 9717 ae3d 4216 dabc

weight f4 [2, 40]
0.0018338222 0.32381728 -0.048950877 -0.27026203 -0.21765694 -0.14253749 -0.1758473 0.16739757
0.3007984 0.254205 0.18307377 0.12600404 -0.06267851 0.24582005 0.33145148 -0.23094442
0.4025805 0.23692034 -0.08952093 -0.33014566 0.3321951 0.31163058 0.31349134 -0.05784096
0.33985642 0.22522664 0.0022657576 0.35026535 -0.1947906 -0.07237659 0.24105102 0.2145528
-0.14807726 -0.02068092 0.09860339 0.21160404 -0.10436771 0.012860166 0.38643524 0.07038149
-0.092145115 -0.23072098 0.09022067 0.21852596 0.2730151 -0.1397186 0.3087001 -0.0025730908
-0.2959595 -0.22369614 -0.36331 -0.4280578 0.107100785 -0.3671256 -0.29454106 0.19149575
-0.14589722 -0.4363244 0.29175764 0.16178107 -0.39946532 -0.22330384 -0.27769163 0.033993416
-0.3237262 -0.2584825 0.040293273 -0.2498018 0.2659908 0.053008776 -0.40334448 -0.34561718
0.22119357 0.03312943 0.084637314 -0.32012123 0.13774641 -0.11967758 -0.23263073 0.14514527
00000000: dd5c f03a 61cb a53e b780 48bd c95f 8abe
00000010: 76e1 5ebe 59f5 11be 5111 34be 456a 2b3e
00000020: 3f02 9a3e 2827 823e b177 3b3e 3407 013e
00000030: 975d 80bd 40b8 7b3e 02b4 a93e b27c 6cbe
00000040: 081f ce3e 3f9b 723e c056 b7bd da08 a9be
00000050: 7a15 aa3e 0b8e 9f3e f081 a03e a4ea 6cbd
00000060: a901 ae3e d0a1 663e 1b7d 143b fb55 b33e
00000070: 3077 47be 2d3a 94bd 14d6 763e bbb3 5b3e
00000080: 91a1 17be 086b a9bc 93f0 c93d bbae 583e
00000090: bdbe d5bd 72b3 523c d7da c53e 2c24 903d
000000a0: 94b6 bcbd 1f42 6cbe 9dc5 b83d 45c5 5f3e
000000b0: a3c8 8b3e 6512 0fbe f10d 9e3e 4da1 28bb
000000c0: 0188 97be 9a10 65be c503 babe 642a dbbe
000000d0: a857 db3d e3f7 bbbe 16ce 96be 7617 443e
000000e0: 1566 15be e965 dfbe 4261 953e f0a9 253e
000000f0: b886 ccbe c3a9 64be 992d 8ebe ae3c 0b3d
00000100: 71bf a5be d157 84be 8f0a 253d 0bcc 7fbe
00000110: f22f 883e bb1f 593d 2b83 cebe bcf4 b0be
00000120: 9180 623e bab2 073d 5456 ad3d eee6 a3be
00000130: 650d 0d3e 8519 f5bd c036 6ebe f6a0 143e

bias f4 [2]
0.021248175 -0.08048794
00000000: a710 ae3c dcd6 a4bd
