classifier/model_dual_CNN.pt (torch, 69447 bytes, 10 tensors)

weight f4 [6, 2, 3, 3]
-0.22153316 -0.051324435 0.15824616 -0.123233706 -0.19020286 -0.055044387 -0.26800707 0.041537754
0.14273056 0.3361819 0.38797525 -0.022099314 -0.008430653 -0.0101440735 0.3608037 -0.025293987
-0.041000195 -0.014166778 0.0281233 -0.066495635 -0.079979725 0.030924724 0.12592405 0.22223274
-0.22677304 -0.27085024 0.23563631 0.3856632 0.2453119 0.28088737 0.17593513 0.28269106
0.34099084 0.15907918 0.058206383 0.19507264 0.15225066 0.17872538 -0.13942195 0.21056938
0.19694258 0.171959 0.17961524 -0.07073561 -0.23641668 0.064624146 0.16557723 0.49111816
-0.16113609 -0.01524411 -0.0005723231 -0.2711788 0.08948543 0.19584359 -0.23871732 0.22014914
0.22458625 -0.2488556 0.13181336 0.4235325 -0.020274056 -0.16818841 0.017609632 0.106120236
0.2139454 -0.18333611 -0.05060816 0.26027483 0.035556834 -0.05535996 -0.02264851 0.1852418
-0.08177896 0.23565543 0.20534065 -0.17175965 -0.15583093 -0.13236779 -0.058112584 -0.063450426
0.031406723 0.19573134 -0.14088182 -0.32093054 0.11877725 0.17640354 -0.050327133 -0.0763544
-0.00017834625 0.37423518 -0.012369695 -0.041326273 0.30030078 -0.062296435 -0.062938444 -0.1080235
0.2608683 -8.866534e-05 0.22681238 0.06301298 0.106118776 0.15627494 -0.15432127 -0.19222799
-0.15823425 -0.28525776 -0.014250319 -0.2444056
00000000: 97d9 62be 9239 52bd 480b 223e f461 fcbd
00000010: 8ac4 42be 3976 61bd 3938 89be 7e23 2a3d
00000020: f627 123e 0920 ac3e b1a4 c63e 9f09 b5bc
00000030: b920 0abc 5433 26bc 43bb b83e 5635 cfbc
00000040: d2ef 27bd c61b 68bc d662 e63c dd2e 88bd
00000050: 69cc a3bd d955 fd3c 3cf2 003e fb90 633e
00000060: 3137 68be e2ac 8abe a54a 713e a675 c53e
00000070: 0b33 7b3e 78d0 8f3e 5728 343e e2bc 903e
00000080: 5a96 ae3e a7e5 223e d169 6e3d 1fc1 473e
00000090: 99e7 1b3e c903 373e a1c4 0ebe 809f 573e
000000a0: 51ab 493e 0516 303e 0fed 373e d5dd 90bd
000000b0: 3717 72be aa59 843d 148d 293e d773 fb3e
000000c0: dc00 25be 6ec2 79bc f407 16ba f3d7 8abe
000000d0: 2344 b73d 398b 483e 5072 74be c76e 613e
000000e0: f0f9 653e 01d4 7ebe 15fa 063e 40d9 d83e
000000f0: c715 a6bc 9539 2cbe 1342 903c 9155 d93d
00000100: 8114 5b3e 76bc 3bbe 814a 4fbd be42 853e
00000110: 0ba4 113d 20c1 62bd 5e89 b9bc 07b0 3d3e
00000120: ba7b a7bd a84f 713e d244 523e c3e1 2fbe
00000130: 2592 1fbe 6c8b 07be 7607 6ebd 4cf2 81bd
00000140: 56a4 003d cc6d 483e 5343 10be 0251 a4be
00000150: 7d41 f33d 21a3 343e d323 4ebd b25f 9cbd
00000160: 7502 3bb9 c19b bf3e 43aa 4abc bd45 29bd
00000170: 06c1 993e 8c2a 7fbd dfe5 80bd 6d3b ddbd
00000180: 8890 853e d8f1 b9b8 8141 683e f30c 813d
00000190: cd54 d93d 8a06 203e 6506 1ebe 6ad7 44be
000001a0: 2908 22be 4e0d 92be 2c7a 69bc 7645 7abe

bias f4 [6]
-0.10697654 -0.01312517 -0.10763838 -0.17668307 -0.0006852672 -0.045895986
00000000: 8416 dbbd f40a 57bc 8371 dcbd 68ec 34be
00000010: 81a3 33ba 6efd 3bbd

weight f4 [16, 6, 3, 3]
0.009094456 -0.039869647 0.02030184 0.14882287 0.12302177 -0.05998257 -0.0018937768 -0.12346699
-0.1957642 0.07306003 -0.032773465 -0.05083391 0.03864992 -0.019664101 -0.09892615 -0.03683866
-0.06343608 0.08485331 -0.105098344 0.14198065 0.056860775 -0.05656481 0.10008822 0.0033028217
-0.114979215 -0.14626727 -0.13056378 0.013870582 0.17227578 -0.021910267 -0.0120575875 0.16241893
0.085885614 -0.06230008 -0.11599829 -0.14999676 0.14649226 -0.056728117 0.14051087 -0.06807554
0.017774288 -0.11996425 0.14683379 0.102543004 -0.11495333 0.042367868 -0.0015312192 0.20039898
-0.04189092 -0.035920408 -0.045130152 0.1272048 -0.008344047 0.10420543 -0.16475105 0.14149724
0.1629134 0.04924176 -0.12339876 0.033757254 0.18314543 0.10343345 -0.023569224 0.011072242
0.002266167 -0.06679567 0.021915093 -0.011354649 0.1025001 -0.07269975 -0.16344483 -0.03669563
-0.17099442 0.30924955 -0.046859775 0.06739388 -0.04286255 0.030530399 0.10500001 -0.054037854
0.110183045 -0.1078296 -0.022392444 0.014266639 0.11440481 0.01488623 0.07348913 -0.0009175866
-0.2375736 0.18670176 -0.20934595 -0.1445234 0.095879085 0.013814221 -0.19606507 -0.19454075
-0.03839506 -0.12989432 -0.009328544 -0.11297499 0.009275348 -0.060856998 -0.03918822 -0.0019538635
0.24197634 0.0051312633 0.057584114 0.19861361 0.042740446 0.042256203 0.32567152 0.12500967
-0.0076987823 -0.01182028 0.0015584236 0.053205375 -0.014340639 -0.057933062 -0.0668029 0.03917171
-0.09373801 0.0121339625 0.12640505 0.035257444 0.028812472 0.009474872 -0.21192084 0.13251488
-0.04591207 0.123009086 -0.042193223 0.09931349 0.021600183 -0.1879238 0.03748243 -0.15495194
0.0341045 0.0070793703 0.049553335 -0.011199422 0.055933185 -0.12115005 -0.087661855 -0.028581861
0.012188899 -0.0066830693 0.14824925 0.17501995 0.020476744 -0.007995006 0.1145614 0.04240877
-0.04683928 -0.058770526 0.02046025 0.049786214 -0.013274438 -0.13283746 -0.0043607187 -0.031008827
-0.076876715 -0.12734418 -0.0025695714 0.004392483 0.15324648 -0.048420332 -0.060643595 0.11576309
-0.04338991 -0.1104225 0.08329091 -0.0803042 0.12629214 0.14928414 0.009083555 -0.025060631
0.009097743 0.016634755 -0.19590712 0.041927416 -0.16435066 0.23068748 -0.11724167 0.08998194
-0.04761343 0.10201868 -0.121230125 -0.22088592 0.055834178 0.064778104 0.091665074 0.09400471
0.04448239 -0.078010574 0.17298435 0.029765813 -0.05944258 -0.07631225 -0.17539302 -0.1805273
-0.05853796 -0.025231645 0.02514551 0.100304745 -0.02896914 -0.118420854 -0.069419585 -0.1152262
0.06433837 0.038232386 -0.075247146 -0.12649713 0.053822707 -0.12510507 -0.14794494 -0.074445345
0.17900547 0.14813067 0.11089923 -0.026876414 -0.010128397 0.0065666162 0.08652163 0.002628343
-0.03629556 0.16131294 0.16098642 -0.1103252 0.01666378 -0.054638278 -0.06784001 -0.04492946
0.08781994 -0.11197583 0.10764859 0.21602556 -0.17732349 -0.06398835 -0.06022461 0.09094968
-0.09750919 -0.23027013 0.15545054 -0.100569546 0.27891535 -0.13368545 0.07410053 0.04659307
-0.23568313 -0.029322054 -0.0956477 0.004883332 -0.05343775 0.07528812 -0.17355981 -0.08567452
00000000: ea00 153c 5b4e 23bd 0b50 a63c 0665 183e
00000010: d6f2 fb3d 49b0 75bd 9b38 f8ba 43dc fcbd
00000020: 6976 48be 7fa0 953d 783d 06bd 3837 50bd
00000030: 614f 1e3d 9c16 a1bc cb99 cabd 22e4 16bd
00000040: c7ea 81bd 92c7 ad3d cd3d d7bd 6063 113e
00000050: d8e6 683d 81b0 67bd 0dfb cc3d 2774 583b
00000060: 397a ebbd 16c7 15be 83b2 05be 7041 633c
00000070: 1069 303e 297d b3bc 308d 45bc 2651 263e
00000080: cce4 af3d 5e2e 7fbd 8390 edbd c098 19be
00000090: 1102 163e be5b 68bd 15e2 0f3e 306b 8bbd
000000a0: 629b 913c d1af f5bd 995b 163e 1102 d23d
000000b0: a76c ebbd ee89 2d3d 31b3 c8ba 6435 4d3e
000000c0: d095 2bbd 4721 13bd 65da 38bd fa41 023e
000000d0: 78b5 08bc a869 d53d 80b4 28be a7e4 103e
000000e0: c5d2 263e bab1 493d 7db8 fcbd 0c45 0a3d
000000f0: 7a8a 3b3e ebd4 d33d 3f14 c1bc 5968 353c
00000100: f983 143b 2bcc 88bd 4887 b33c da08 3abc
00000110: 93eb d13d 9be3 94bd 155e 27be 284e 16bd
00000120: 2919 2fbe f555 9e3e 09f0 3fbd cd05 8a3d
00000130: a490 2fbd e31a fa3c 3f0a d73d cc56 5dbd
00000140: a6a7 e13d c4d5 dcbd 5c70 b7bc 9fbe 693c
00000150: 124d ea3d 60e5 733c 7881 963d 328a 70ba
00000160: 7e46 73be bf2e 3f3e c95e 56be f1fd 13be
00000170: 415c c43d 0b55 623c 48c5 48be b135 47be
00000180: 2344 1dbd 0403 05be c0d6 18bc 6e5f e7bd
00000190: a1f7 173c 3045 79bd d483 20bd 640c 00bb
000001a0: a5c8 773e 2824 a83b 52dd 6b3d 5e61 4b3e
000001b0: 9b10 2f3d d714 2d3d 6bbe a63e 8902 003e
000001c0: 1146 fcbb d9a9 41bc 0544 cc3a e1ed 593d
000001d0: 00f5 6abc 384b 6dbd f5cf 88bd 8472 203d
000001e0: b7f9 bfbd 87cd 463c 5370 013e 1c6a 103d
000001f0: 2208 ec3c 7e3c 1b3c c701 59be fbb1 073e
00000200: 4b0e 3cbd 30ec fb3d cdd2 2cbd df64 cb3d
00000210: def2 b03c 196f 40be 2d87 193d b9ab 1ebe
00000220: 29b1 0b3d 10fa e73b 70f8 4a3d c87d 37bc
00000230: 321a 653d 841d f8bd 0f88 b3bd 8224 eabc
00000240: f3b3 473c a6fd dabb a7ce 173e 6e38 333e
00000250: d8be a73c 7cfd 02bc 2b9f ea3d d2b4 2d3d
00000260: 8bda 3fbd 5db9 70bd 419c a73c a1ec 4b3d
00000270: 077d 59bc 8b06 08be 5ce4 8ebb 3906 febc
00000280: 8a71 9dbd 8366 02be 4166 28bb d1ee 8f3b
00000290: a5ec 1c3e 6654 46bd 6b65 78bd 3315 ed3d
000002a0: 9eb9 31bd 3125 e2bd 6d94 aa3d 8776 a4bd
000002b0: ba52 013e f1dd 183e 31d3 143c f44b cdbc
000002c0: b30e 153c 9c45 883c e09b 48be 15bc 2b3d
000002d0: 8a4b 28be 5739 6c3e 671c f0bd 7448 b83d
000002e0: 4d06 43bd 2bef d03d 8047 f8bd eb2f 62be
000002f0: 61b2 643d 62aa 843d e6ba bb3d 8b85 c03d
00000300: 2b33 363d 02c4 9fbd cf22 313e 6fd7 f33c
00000310: 107a 73bd 9949 9cbd 3a9a 33be 26dc 38be
00000320: 80c5 6fbd 98b2 cebc f5fd cd3c 936c cd3d
00000330: b150 edbc a286 f2bd db2b 8ebd b7fb ebbd
00000340: d6c3 833d 9099 1c3d 2d1b 9abd 7788 01be
00000350: 3375 5c3d 8b1b 00be e17e 17be cd76 98bd
00000360: 364d 373e 91af 173e 231f e33d ed2b dcbc
00000370: 93f1 25bc c52c d73b 4132 b13d 4740 2c3b
00000380: a7aa 14bd 382f 253e a0d9 243e 2ef2 e1bd
00000390: 7b82 883c 63cc 5fbd b4ef 8abd f407 38bd
000003a0: f1da b33d 9553 e5bd dd76 dc3d ce35 5d3e
000003b0: 4a94 35be 530c 83bd 15ae 76bd d343 ba3d
000003c0: e6b2 c7bd efcb 6bbe 6d2e 1f3e 68f7 cdbd
000003d0: fecd 8e3e d7e4 08be 05c2 973d 60d8 3e3d
000003e0: eb56 71be ce34 f0bc f1e2 c3bd 5c04 a03b
000003f0: 8be1 5abd a830 9a3d aab9 31be 1f76 afbd

bias f4 [16]
-0.04792325 -0.0027735804 0.038174197 0.007803859 0.012701088 -0.017099306 0.051186416 0.02626751
-0.003161508 -0.0641005 -0.057212982 -0.120662674 0.048940405 0.07283492 -0.06640153 -0.02059109
00000000: 2b4b 44bd f5c4 35bb 8c5c 1c3d 84b7 ff3b
00000010: 3918 503c d813 8cbc d9a8 513d f62e d73c
00000020: 4d31 4fbb 1f47 83bd 2958 6abd fe1d f7bd
00000030: bc75 483d 792a 953d 86fd 87bd a5ae a8bc

weight f4 [80, 144]
-0.034618627 -0.056691304 -0.05642177 -0.05789766 0.12492349 0.040785506 0.06885112 -0.0110183535
-0.0436273 -0.1093893 -0.029252108 -0.013975193 0.13132873 0.07310988 0.06500052 0.055810817
0.025380567 -0.076090254 0.04112097 0.07659655 0.10143414 0.061851233 -0.0057451557 -0.046160154
0.003983505 0.022472562 0.09626491 -0.0048166336 0.051363204 0.09774193 0.0023629665 -0.046167858
0.004457984 0.06615422 -0.06223119 0.0111316405 -0.04560465 -0.06737071 0.018444568 -0.0058395197
0.11658739 0.069691725 0.04711954 0.026749922 0.0024092623 0.035592515 0.011097509 0.0065127173
0.0097813215 0.07905523 -0.053337425 0.022624716 -0.1043536 0.08116965 -0.09405613 -0.010842807
-0.006999522 0.05141009 -0.010485046 0.070703395 -0.009065589 0.02460243 -0.108943954 -0.013124273
0.008780611 0.11870587 -0.038118172 -0.024399163 -0.09699886 -0.019327307 -0.049582075 -0.015291946
0.00831408 -0.023789257 0.059003588 -0.03491407 0.00021994066 0.006395036 0.06560661 0.03969262
0.011991842 0.061101407 -0.149153 -0.020033685 0.025935516 -0.034955397 0.0001557006 -0.016458346
0.12650667 -0.040911973 0.085648544 0.00541587 -0.030748053 -0.07637765 0.029545084 -0.01675939
0.09592656 -0.11494463 -0.05149995 -0.14241368 -0.084662236 0.008810018 0.039427698 0.026937969
0.02929677 -0.043962877 0.040705565 -0.08861356 0.0026853343 0.01782367 0.057912707 -0.008171782
0.021003205 -0.09438947 0.07318283 -0.012561568 0.048398454 -0.028664468 -0.07721531 0.027567964
-0.057867695 0.00928127 0.005575712 0.01998225 -0.034717742 -0.084072925 -0.10109886 -0.02968844
0.08814163 -0.009519649 0.12477051 0.040132698 0.08928791 0.04838915 -0.023856776 -0.04128855
0.05061753 0.10535764 -0.02651031 0.0057990076 0.0498657 -0.034292337 0.14724019 0.038358513
-0.024093255 0.03925791 -0.047968894 0.06845558 0.012194981 -0.0170476 -0.07798136 0.047865335
0.08994095 0.144552 0.022285312 -0.06882128 -0.071104705 0.035910223 -0.0054338686 0.057429887
0.004042132 0.013345721 -0.02119192 -0.053485125 -0.041896887 0.04191235 -0.07844513 0.05591085
0.022175837 0.07078859 -0.017787492 0.116005816 -0.004587565 -0.07533606 -0.02100445 0.040874556
0.04108474 -0.056512143 0.020695638 0.053672582 0.030273084 0.022648437 0.0065898793 -0.036708858
0.008625212 0.0828058 0.061364744 0.03043523 -0.0060049943 -0.032803513 -0.010778389 -0.105449565
-0.004692074 -0.08585689 0.017766608 0.03360584 0.1288061 -0.10405147 0.11076013 -0.030918196
0.015638586 -0.014862148 0.05479787 -0.05108601 -0.011033298 -0.040466256 0.0728852 -0.0067028343
-0.026159707 0.0021094813 0.044588063 0.0011333259 0.113864034 -0.059513167 -0.040674213 -0.04781874
0.08128018 0.050856013 -0.0040701153 -0.0699237 -0.063794576 0.026962124 -0.07188836 -0.006788725
-0.028889412 0.08192866 0.023846379 -0.051942535 -0.021904608 0.08914908 0.12731005 0.07244097
-0.09121117 0.12669781 -0.10698284 0.112803414 -0.02422233 0.11860782 -0.05453707 -0.05775987
-0.028141214 0.102860086 0.059570376 0.16857351 0.18296474 0.014204134 -0.032908604 -0.034259584
0.034055058 -0.041661702 0.010591125 0.10566887 0.05451853 0.050486084 -0.100932226 -0.013781877
00000000: 43cc 0dbd 2435 68bd 841a 67bd 1926 6dbd
00000010: e3d7 ff3d b40e 273d d101 8d3d 5386 34bc
00000020: 8ab2 32bd 7f07 e0bd 1ea2 efbc 35f8 64bc
00000030: 0a7b 063e a2ba 953d fe1e 853d e299 643d
00000040: e8ea cf3c 35d5 9bbd 766e 283d a7de 9c3d
00000050: b4bc cf3d b857 7d3d dc41 bcbb 6e12 3dbd
00000060: 1088 823b 6118 b83c 8a26 c53d dad4 9dbb
00000070: 3962 523d ec2c c83d 00dc 1a3b 821a 3dbd
00000080: 4814 923b dd7b 873d 22e6 7ebd 7c61 363c
00000090: f1cb 3abd a8f9 89bd 1019 973c 7159 bfbb
000000a0: 5fc5 ee3d 89ba 8e3d 6b00 413d a722 db3c
000000b0: b7e4 1d3b 75c9 113d 54d2 353c a268 d53b
000000c0: d641 203c b5e7 a13d 5878 5abd 7857 b93c
000000d0: 57b7 d5bd 463c a63d 80a0 c0bd 07a6 31bc
000000e0: 3f5c e5bb 6393 523d 78c9 2bbc f1cc 903d
000000f0: d687 14bc 098b c93c 021e dfbd 3107 57bc
00000100: 8ddc 0f3c 101c f33d cd21 1cbd c1e0 c7bc
00000110: 57a7 c6bd 4d54 9ebc 9316 4bbd 128b 7abc
00000120: c737 083c b0e1 c2bc bfad 713d 0e02 0fbd
00000130: df9f 6639 738d d13b c25c 863d bb94 223d
00000140: 6e79 443c 7845 7a3d 90bb 18be af1d a4bc
00000150: b876 d43c 642d 0fbd 9043 2339 a7d3 86bc
00000160: f78a 013e 5093 27bd 8168 af3d 9c77 b13b
00000170: 57e3 fbbc e36b 9cbd 8808 f23c fd4a 89bc
00000180: 2575 c43d 1768 ebbd 9df1 52bd e4d4 11be
00000190: 6563 adbd e557 103c f07e 213d 04ad dc3c
000001a0: c8ff ef3c 6b12 34bd e1ba 263d 077b b5bd
000001b0: 6ffc 2f3b f202 923c e035 6d3d f0e2 05bc
000001c0: ea0e ac3c 444f c1bd e1e0 953d 09cf 4dbc
000001d0: 753d 463d bfd1 eabc 0f23 9ebd 36d6 e13c
000001e0: ad06 6dbd 7810 183c 76b4 b63b d1b1 a33c
000001f0: 3134 0ebd 6d2e acbd eb0c cfbd 2c35 f3bc
00000200: 9983 b43d 4df8 1bbc ae87 ff3d 2f62 243d
00000210: 94dc b63d b433 463d 496f c3bc 2f1e 29bd
00000220: 5454 4f3d bfc5 d73d 262c d9bc 9a05 be3b
00000230: fa3f 4c3d 1f76 0cbd 22c6 163e d11d 1d3d
00000240: 385f c5bc e7cc 203d 087b 44bd 7032 8c3d
00000250: 75cd 473c 69a7 8bbc b1b4 9fbd 710e 443d
00000260: f632 b83d 7105 143e b08f b63c 2cf2 8cbd
00000270: 589f 91bd 9916 133d 980e b2bb 9a3b 6b3d
00000280: dc73 843b 03a8 5a3c ad9a adbc 3813 5bbd
00000290: 129c 2bbd 49ac 2b3d d7a7 a0bd c702 653d
000002a0: 1aaa b53c 9cf9 903d 13b7 91bc 7594 ed3d
000002b0: 4953 96bb cb49 9abd 8611 acbc 146c 273d
000002c0: 7948 283d 4779 67bd e689 a93c c8d7 5b3d
000002d0: 42ff f73c 3789 b93c eaef d73b 075c 16bd
000002e0: c350 0d3c 1696 a93d 9959 7b3d 4e53 f93c
000002f0: 8bc5 c4bb fa5c 06bd d797 30bc f1f5 d7bd
00000300: f8bf 99bb bdd5 afbd 478b 913c 47a6 093d
00000310: bfe5 033e f018 d5bd 35d6 e23d 2848 fdbc
00000320: 7e1c 803c 5e80 73bc bb73 603d 903f 51bd
00000330: 02c5 34bc f2bf 25bd d644 953d 73a3 dbbb
00000340: e24c d6bc 393f 0a3b f9a1 363d 1b8c 943a
00000350: 8c31 e93d 14c4 73bd 019a 26bd 95dd 43bd
00000360: 3976 a63d 654e 503d 9a5e 85bb 2834 8fbd
00000370: bba6 82bd acdf dc3c 343a 93bd f473 debb
00000380: 7da9 ecbc 37ca a73d 7b59 c33c b2c1 54bd
00000390: 4b71 b3bc cb93 b63d 915d 023e ee5b 943d
000003a0: eccc babd 12bd 013e d219 dbbd 7a05 e73d
000003b0: e86d c6bc a8e8 f23d 4362 5fbd 9d95 6cbd
000003c0: 6788 e6bc 4fa8 d23d 1100 743d 899e 2c3e
000003d0: 1c5b 3b3e 75b8 683c 2ccb 06bd c753 0cbd
000003e0: 517d 0b3d 76a5 2abd 6686 2d3c ec68 d83d
000003f0: d24e 5f3d 7fca 4e3d 8eb5 cebd 62cd 61bc

bias f4 [80]
0.038672145 0.025012486 0.03644501 -0.006474307 0.0020868685 -0.08065335 -0.058124647 0.033205744
0.06475261 -0.0142680025 0.005168916 -0.07113615 -0.04874442 -0.068486765 -0.056228507 -0.040651727
0.016619405 -0.04774434 -0.028065989 0.045870297 0.019895867 0.01702569 0.053985346 0.10026789
-0.0026097547 0.029193314 -0.057148952 0.08531474 0.088045344 0.0051325792 0.082570404 0.108665355
-0.08389569 -0.022744374 0.079489484 0.07900876 0.05174392 0.03599103 0.020992374 0.029804073
-0.06592875 0.006023545 -0.033838473 0.10313922 -0.03432562 -0.06501345 -0.08526422 -0.04136859
-0.000879727 0.021194244 -0.011286122 -0.00599282 0.0117301205 -0.07308017 -0.026020855 0.044002462
0.023148896 0.061939944 -0.041393828 0.015714366 0.018697198 0.03812012 0.06557988 -0.027565854
-0.031081941 0.019275589 -0.02702293 0.016553745 -0.004794692 0.10794682 0.0018069614 -0.050191306
-0.018851673 -0.014236845 0.048448756 0.010860062 -0.017741604 0.0070967693 -0.05933774 -0.011941743
00000000: af66 1e3d fce6 cc3c 5d47 153d 6c26 d4bb
00000010: d8c3 083b 952d a5bd 1c14 6ebd bf02 083d
00000020: 049d 843d 57c4 69bc 0360 a93b d4af 91bd
00000030: 3ba8 47bd ca42 8cbd dd4f 66bd 6d82 26bd
00000040: 6b25 883c 928f 43bd a5ea e5bc 7ee2 3b3d
00000050: a8fc a23c 7679 8b3c bd1f 5d3d 4059 cd3d
00000060: 6b08 2bbb d126 ef3c 0515 6abd 7fb9 ae3d
00000070: 1e51 b43d 322f a83b ac1a a93d f18b de3d
00000080: 81d1 abbd 6952 babc 62cb a23d 58cf a13d
00000090: 6ff1 533d 556b 133d 33f8 ab3c ac27 f43c
000000a0: a705 87bd 2861 c53b 369a 0abd a83a d33d
000000b0: 0599 0cbd c625 85bd 029f aebd 1c72 29bd
000000c0: 7b9d 66ba 8d9f ad3c 6de9 38bc 6b5f c4bb
000000d0: b12f 403c 0eab 95bd b029 d5bc ed3b 343d
000000e0: c1a2 bd3c bdb4 7d3d 938c 29bd 6abb 803c
000000f0: de2a 993c d823 1c3d be4e 863d c9d1 e1bc
00000100: 8e9f febc d7e7 9d3c 315f ddbc b89b 873c
00000110: cb1c 9dbb 3913 dd3d 90d7 ec3a 6695 4dbd
00000120: d36e 9abc a841 69bc 3472 463d 67ee 313c
00000130: d756 91bc 048c e83b 210c 73bd 4da7 43bc

weight f4 [40, 80]
0.068808764 0.033612438 0.0843527 -0.068781935 0.068318434 0.023648914 -0.06414717 -0.12048586
-0.017343035 0.047987435 -0.03505677 0.089487426 -0.0078864 -0.09662999 0.04749628 -0.033076182
0.20580678 -0.028583197 0.041933183 0.06592115 -0.027539028 0.06530625 -0.090535246 0.11385342
-0.01818696 0.13833722 0.11621692 0.09686704 0.07402185 -0.08429998 0.013147209 0.14792705
-0.061037567 0.05568158 0.008830741 -0.024806343 -0.0990944 0.094377525 -0.12042583 0.11970279
-0.0114045665 0.080769606 -0.10754455 0.117918335 -0.0060016876 0.033346646 0.026056128 0.17446035
0.17371133 -0.061511576 -0.053606942 0.17375918 0.16785565 -0.088827215 0.095241584 -0.080255955
-0.081849135 -0.0048053064 -0.097051084 -0.13156825 0.11701917 0.043283448 -0.016147131 0.0018149493
0.08045227 0.12788272 0.048204802 0.09910608 0.21588935 -0.013579121 -0.010440724 -0.03882537
0.11923194 0.01358226 -0.03562628 0.021230925 0.17803182 -0.08889125 -0.011034351 0.054282848
-0.111174285 0.21719359 -0.087447874 -0.15968163 0.16148432 -0.116663806 0.07060619 -0.08252975
0.0065965494 0.2370128 -0.057627853 -0.10577762 -0.12571181 0.018923318 0.00895219 -0.12763985
0.1490151 -0.004300543 -0.09095645 -0.05337789 -0.054095175 -0.013293753 0.033819433 0.09962009
0.096903555 0.12516955 0.13025977 0.1259972 0.13251643 -0.04928267 0.13737291 0.02327319
-0.08569344 0.14990924 0.116217524 -0.0143939415 -0.007302782 0.16194533 -0.096854985 0.17710564
0.0748243 0.13700157 0.050207596 0.025374364 0.017135898 0.04552927 0.10686604 0.08617337
0.13440992 0.079574704 0.0012999281 0.1099212 0.1104906 -0.06324833 0.09563018 0.0034836063
0.012273112 0.16243461 -0.15412658 -0.016530918 0.052139975 0.18941578 0.028006403 0.027271776
0.13211252 0.051617235 -0.0734477 0.0030614233 0.07866293 -0.003983363 -0.08702101 0.0016533214
0.16603649 -0.12090496 -0.02472402 -0.00691403 0.19228768 0.065711066 0.054803573 -0.056540523
-0.07242854 -0.059218183 -0.091428205 0.06654409 0.0026389959 0.047467954 0.0635734 -0.002200584
-0.020105321 0.03188842 -0.03880067 -0.094790705 -0.016887689 0.042545743 -0.06576791 -0.08496498
0.027837245 -0.02117679 0.059053753 -0.043867916 0.080917664 -0.004855339 0.01772248 0.0044471486
-0.025075698 0.095597625 0.04886151 0.05983032 0.06858462 -0.1044488 0.0778221 -0.12227471
-0.10897278 -0.08601649 -0.02442489 0.022771554 -0.060388885 -0.06878192 -0.07636005 -0.054565143
-0.07985968 0.011888724 0.03857275 -0.012905668 0.07837874 0.008677498 0.09140651 -0.10510306
0.10663446 0.03046992 0.039645582 -0.0076027894 -0.08940522 -0.049612865 -0.049291994 -0.06657724
-0.11857079 0.077175744 0.014822481 -0.019812137 -0.10168372 -0.035973158 0.088095896 -0.10921834
-0.08139353 -0.12643144 -0.050047766 0.09070768 -0.07625687 0.04277105 0.08764714 -0.025772877
0.0017892392 -0.038274437 0.09368662 -0.037273806 0.008436834 -0.07232164 -0.08203081 -0.025106728
0.16987647 -0.08935909 0.03187453 0.11548704 -0.009099425 0.07362892 0.14727753 -0.014860829
0.03443084 -0.06370061 0.11661852 0.07945433 0.09024032 0.06074691 0.14814846 0.18292543
00000000: 9ceb 8c3d 32ad 093d 1cc1 ac3d 8bdd 8cbd
00000010: 89ea 8b3d 5ebb c13c 975f 83bd 4ac1 f6bd
00000020: fb12 8ebc 798e 443d b097 0fbd 2f45 b73d
00000030: f635 01bc f2e5 c5bd 768b 423d e47a 07bd
00000040: 03bf 523e 4f27 eabc 21c2 2b3d ab01 873d
00000050: 8799 e1bc 48bf 853d 8b6a b9bd fb2b e93d
00000060: d2fc 94bc 46a8 0d3e 2303 ee3d 3a62 c63d
00000070: c598 973d 78a5 acbd 6467 573c 307a 173e
00000080: 8702 7abd 5e12 643d d0ae 103c ac36 cbbc
00000090: 01f2 cabd 0149 c13d d1a1 f6bd bd26 f53d
000000a0: 38da 3abc 896a a53d 5140 dcbd 2b7f f13d
000000b0: cea9 c4bb 7e96 083d a973 d53c bca5 323e
000000c0: 62e1 313e 90f3 7bbd f492 5bbd eded 313e
000000d0: 5ae2 2b3e 0beb b5bd 050e c33d 3c5d a4bd
000000e0: 85a0 a7bd d575 9dbb b8c2 c6bd d4b9 06be
000000f0: bfa7 ef3d fc49 313d fd46 84bc 98e3 ed3a
00000100: 29c4 a43d b0f3 023e 6672 453d 21f8 ca3d
00000110: 1912 5d3e f67a 5ebc 920f 2bbc 5a07 1fbd
00000120: e02f f43d 2188 5e3c ddec 11bd 7aec ad3c
00000130: f94d 363e 9e0c b6bd 6cc9 34bc b157 5e3d
00000140: 58af e3bd ff67 5e3e df17 b3bd 9583 23be
00000150: 255c 253e 6fed eebd fa99 903d 5c05 a9bd
00000160: de27 d83b 7cb3 723e 2f0b 6cbd f0a1 d8bd
00000170: 99ba 00be 1305 9b3c 35ac 123c 05b4 02be
00000180: 6a97 183e 92eb 8cbb 6047 babd c6a2 5abd
00000190: e792 5dbd 0bce 59bc 3f86 0a3d 9e05 cc3d
000001a0: 5f75 c63d 722c 003e d162 053e 6905 013e
000001b0: 63b2 073e a0dc 49bd 7cab 0c3e 6ba7 be3c
000001c0: 0b80 afbd cf81 193e 7403 ee3d 91d4 6bbc
000001d0: 2d4c efbb ffd4 253e e85b c6bd 2e5b 353e
000001e0: 7c3d 993d 244a 0c3e 7ba6 4d3d e6dd cf3c
000001f0: 9560 8c3c e67c 3a3d 95dc da3d aa7b b03d
00000200: c1a2 093e 10f8 a23d 5962 aa3a 5e1e e13d
00000210: e548 e23d 5788 81bd c1d9 c33d 374d 643b
00000220: 2a15 493c 4255 263e 5cd3 1dbe d96b 87bc
00000230: ba90 553d 36f6 413e af6d e53c 0f69 df3c
00000240: 8148 073e 986c 533d bf6b 96bd 29a2 483b
00000250: 081a a13d df86 82bb 1238 b2bd 43b4 d83a
00000260: 7805 2a3e 059d f7bd 078a cabc 168f e2bb
00000270: 10e7 443e 8693 863d b679 603d 0997 67bd
00000280: 6a55 94bd c48e 72bd b63e bbbd 4548 883d
00000290: 01f3 2c3b c26d 423d c532 823d ac37 10bb
000002a0: eab3 a4bc 6f9d 023d 74ed 1ebd a121 c2bd
000002b0: 0d58 8abc 7244 2e3d 53b1 86bd 1f02 aebd
000002c0: ef0a e43c f37a adbc 59e2 713d d8ae 33bd
000002d0: 29b8 a53d 8919 9fbb bc2e 913c 63b9 913b
000002e0: 8d6b cdbc b0c8 c33d 0223 483d a310 753d
000002f0: 1876 8c3d 41e9 d5bd 3161 9f3d 2a6b fabd
00000300: 1f2d dfbd 6a29 b0bd b516 c8bc 698b ba3c
00000310: 565a 77bd 89dd 8cbd a862 9cbd b37f 5fbd
00000320: 798d a3bd ecc8 423c 76fe 1d3d 4b72 53bc
00000330: 0885 a03d 112c 0e3c 5633 bb3d 4640 d7bd
00000340: 2b63 da3d 0e9c f93c 6863 223d d220 f9bb
00000350: 151a b7bd dc36 4bbd 67e6 49bd a659 88bd
00000360: 3ed5 f2bd 510e 9e3d fed9 723c 104d a2bc
00000370: 8e3f d0bd 9758 13bd 9f6b b43d ddad dfbd
00000380: a7b1 a6bd 3e77 01be e3fe 4cbd f3c4 b93d
00000390: 902c 9cbd b230 2f3d 5880 b33d a421 d3bc
000003a0: e884 ea3a a8c5 1cbd c5de bf3d 6bac 18bd
000003b0: a63a 0a3c 5e1d 94bd c5ff a7bd a0ac cdbc
000003c0: 19f4 2d3e e601 b7bd de8e 023d 7884 ec3d
000003d0: c115 15bc c2ca 963d eccf 163e d67a 73bc
000003e0: 5a07 0d3d 7775 82bd b1d5 ee3d f4b8 a23d
000003f0: ebcf b83d c0d1 783d 3bb4 173e ce50 3b3e

bias f4 [40]
0.07488983 0.0018921673 -0.11973254 -0.0007093141 0.006766994 0.10453766 0.07296336 0.12699965
0.054620303 0.10221392 0.084326975 0.090185985 0.064753786 0.0038657375 0.09702007 0.070828795
0.06841661 0.05284204 -0.0073322663 -0.0157648 -0.022841081 -0.009207365 0.115436904 0.0446489
-0.014895181 0.025091978 -0.059298508 0.119305074 0.030461088 -0.10088842 0.010286259 0.09010001
-0.044977356 -0.036897756 -0.002750344 0.12498048 -0.04090251 -0.026720993 -0.014465932 0.12693939
00000000: d75f 993d 9902 f83a 5536 f5bd 43f1 39ba
00000010: a9bd dd3b d717 d63d d06d 953d 320c 023e
00000020: 8ab9 5f3d 8855 d13d 9fb3 ac3d 6eb3 b83d
00000030: a29d 843d 5058 7d3b 75b2 c63d b00e 913d
00000040: 021e 8c3d e570 583d 8243 f0bb 2f25 81bc
00000050: 381d bbbc 7dda 16bc 2f6a ec3d c4e1 363d
00000060: eb0a 74bc b18d cd3c fee2 72bd 3856 f43d
00000070: 8889 f93c 979e cebd b387 283c 5b86 b83d
00000080: 2d3a 38bd 1a22 17bd 1e3f 34bb c4f5 ff3d
00000090: 6489 27bd fce5 dabc 8402 6dbc 66fc 013e

weight f4 [2, 40]
-0.28170744 -0.117362216 -0.12966478 0.1688011 -0.057769693 0.1917178 -0.26525143 -0.19436651
0.1261264 0.075091295 0.1636382 0.13581249 -0.061904874 -0.02446073 0.14881778 0.15294908
0.18331002 0.10767353 0.12796366 0.16458459 -0.21183175 -0.06403605 -0.13220964 0.09183543
-0.045883965 -0.15047827 0.13398778 -0.27373925 0.16928737 -0.06663573 0.069143586 0.14550875
0.07093996 -0.25963384 -0.0612848 -0.22940399 -0.12096585 0.09625922 0.2617811 -0.08329215
0.12760715 0.24567199 -0.1058326 -0.24546787 0.1797295 -0.22041704 0.22297642 0.17082639
-0.20669518 -0.24252298 -0.1987664 -0.021635879 0.285742 -0.24731806 -0.22781979 -0.13385703
-0.032982185 -0.24875177 -0.18704651 -0.27251047 0.28324914 0.2917783 0.18105426 -0.19631952
0.2867569 0.1623087 -0.19511023 0.11980387 -0.07762918 0.12943642 -0.1536389 -0.11205868
-0.2324605 0.26550925 0.096984155 0.0990139 -0.12490229 -0.07690363 -0.11752249 0.22101943
00000000: f53b 90be 9a5b f0bd d8c6 04be 32da 2c3e
00000010: ea9f 6cbd ac51 443e 09cf 87be 0408 47be
00000020: 4727 013e 77c9 993d c690 273e 6e12 0b3e
00000030: f78f 7dbd de61 c8bc b063 183e af9e 1c3e
00000040: 9fb5 3b3e f183 dc3d e808 033e dd88 283e
00000050: 6cea 58be 5525 83bd f761 07be 3714 bc3d
00000060: d3f0 3bbd fa16 1abe 1834 093e 8d27 8cbe
00000070: ab59 2d3e 5078 88bd 279b 8d3d 3f00 153e
00000080: f848 913d baee 84be c505 7bbd e1e8 6abe
00000090: f2bc f7bd 8e23 c53d 2c08 863e 1395 aabd
000000a0: 73ab 023e 7091 7b3e c3be d8bd ee5b 7bbe
000000b0: 030b 383e 01b5 61be ee53 643e 1ded 2e3e
000000c0: e7a7 53be f257 78be 6b89 4bbe ba3d b1bc
000000d0: c74c 923e f240 7dbe 9749 69be d111 09be
000000e0: 5418 07bd c9b8 7ebe 1f89 3fbe 7e86 8bbe
000000f0: 0806 913e f763 953e 4a66 393e fc07 49be
00000100: cdd1 923e 4034 263e faca 47be bb5b f53d
00000110: 0cfc 9ebd fb8a 043e 8453 1dbe 057f e5bd
00000120: 200a 6ebe d4f0 873e a19f c63d cdc7 ca3d
00000130: c6cc ffbd a67f 9dbd a2af f0bd eb52 623e

bias f4 [2]
-0.16911238 0.025573531
00000000: cc2b 2dbe 957f d13c
