classifier/nolow_lapl_CNN.pt (torch, 67655 bytes, 10 tensors)

weight f4 [6, 1, 3, 3]
0	0xbd3d02d5	-0.04614528
1	0xbe8cbffc	-0.27490222
2	0xbe87f74a	-0.26555854
3	0xbef7a11e	-0.4836511
4	0x3dc24f18	0.09487742
5	0x3e5d9cc4	0.21641833
6	0xbeb9a4f8	-0.36258674
7	0x3b7a2a85	0.0038172316
8	0x3dd09ef1	0.10186566
9	0xbba0837c	-0.0048984867
10	0x3e98d8d4	0.29852927
11	0xbeb5c3ad	-0.3550085
12	0xbe595419	-0.21223487
13	0xbf0b0ad0	-0.54313374
14	0xbdf8d3d0	-0.12149775
15	0xbec228e5	-0.37921825
16	0xbdc61fd1	-0.09674037
17	0x3e6f4853	0.23367433
18	0xbe96af69	-0.29430702
19	0xbee9e13e	-0.4567966
20	0x39abc446	0.00032761897
21	0xbe6565b7	-0.22402082
22	0xbeab5945	-0.33466545
23	0xbee4d9cc	-0.44697416
24	0xbb86f705	-0.0041188025
25	0x3dd6aea7	0.10482531
26	0x3e210878	0.15725887
27	0xbed67c75	-0.41891828
28	0x3e7dab28	0.24772322
29	0x39ae0585	0.0003319198
30	0xbe95aa58	-0.29231524
31	0xbe73c4c3	-0.23805527
32	0x3e01def8	0.12682712
33	0x3ddcfd77	0.10790532
34	0xb9abe535	-0.00032786434
35	0xbee66732	-0.45000607
36	0xbd6eb21d	-0.05827533
37	0xbec1255d	-0.37723818
38	0xbeea58a3	-0.4577075
39	0xbd6a4a82	-0.057199962
40	0xbce0e20c	-0.027451538
41	0x3e40b8f9	0.18820561
42	0xbda56c4a	-0.08077295
43	0xbed87469	-0.42276314
44	0xbeade4a9	-0.33963516
45	0x3e441db0	0.1915195
46	0x3e4f0688	0.20217335
47	0x3e6a85bb	0.22902577
48	0x3dcc01b6	0.09961264
49	0xbd062936	-0.032754146
50	0xbcbd3b40	-0.023099542
51	0x3e3b7686	0.18306932
52	0x3df5d736	0.12003939
53	0xbcec002b	-0.028808674

bias f4 [6]
0	0x3dcccfaa	0.10000546
1	0x3cd4fd17	0.025999589
2	0x39aeb89e	0.00033325417
3	0xb7a07100	-1.9126106e-05
4	0x38baa836	8.900503e-05
5	0xbe690c36	-0.22758564

weight f4 [16, 6, 3, 3]
0	0xbd1a4e79	-0.037672494
1	0xbdecaaee	-0.1155604
2	0xbe04b391	-0.12959124
3	0x3de02118	0.10943812
4	0x3d7e3694	0.06206377
5	0x3dbffefc	0.09374806
6	0x3d368068	0.04455605
7	0xbd8332ff	-0.06406211
8	0x3c6ddd59	0.014518105
9	0xbd980ee2	-0.07424714
10	0xbdce3de1	-0.10070396
11	0xbdfbb1db	-0.122897826
12	0x3df305dd	0.11866353
13	0xbd3f4835	-0.04669972
14	0xbd5422f4	-0.051791146
15	0xbdb48380	-0.08814144
16	0xbc9e083b	-0.019291034
17	0x3e680f69	0.22662129
18	0xbe4ce12a	-0.20007768
19	0xbe819a2e	-0.25312942
20	0xbde6f0fe	-0.11276434
21	0xbd4e2168	-0.050324827
22	0xbdf2a5c5	-0.11848024
23	0x3c9cc680	0.01913762
24	0xbda15436	-0.0787739
25	0x3da0f9b1	0.07860125
26	0x3dec6ff4	0.11544791
27	0xbe1f1a21	-0.15537311
28	0xbded7ba4	-0.11595848
29	0xbdef4f89	-0.11685092
30	0xbca1a4e6	-0.01973195
31	0x3c807088	0.01567866
32	0xbddf9b57	-0.109183006
33	0x3e26ef0a	0.16302124
34	0xbe04689c	-0.1293053
35	0x3e3b86de	0.18313166
36	0x3da13875	0.078720964
37	0x3d55ff09	0.052245174
38	0xbe0910cf	-0.13385318
39	0x3e4435e9	0.1916119
40	0x3d2bac8c	0.0419126
41	0x3d31b124	0.043381825
42	0x3d7c0c1c	0.061534986
43	0xbd47aca5	-0.04874863
44	0xbc6e8e05	-0.014560227
45	0xbda8f5e8	-0.08250028
46	0xbc066603	-0.008203032
47	0xbdc049f1	-0.09389103
48	0x3dbdf167	0.092745595
49	0xbd1959a6	-0.03743901
50	0x3def193b	0.11674734
51	0x391d2cf4	0.00014989433
52	0x3d9a0244	0.075199634
53	0x3df011af	0.11722123
54	0x3dcf3e05	0.10119251
55	0x3ccbf140	0.02489531
56	0x3e1331f1	0.1437452
57	0xbcba4caf	-0.022741644
58	0x3d8cd3fb	0.068763696
59	0xbd4faf72	-0.050704427
60	0xbcb20632	-0.02173147
61	0xbc4e35af	-0.012586041
62	0x3d8b462c	0.068004936
63	0xbcb41803	-0.021984106
64	0x3e200a9a	0.15629044
65	0xbbd38c75	-0.006455953
66	0x3e0bfeb7	0.13671385
67	0x3d975aec	0.07390389
68	0xbe021be6	-0.12705955
69	0xbc99f253	-0.018792307
70	0x3df2326b	0.11826023
71	0xbde03a77	-0.10948651
72	0x3d4c060b	0.04981045
73	0x3e1d8d11	0.15385844
74	0x3b588552	0.003303845
75	0x3d77018d	0.060304213
76	0x3e369560	0.1783042
77	0x3e4f6a93	0.20255499
78	0xbbcfe251	-0.0063441177
79	0xbcc5641f	-0.024095593
80	0x3daca4a9	0.08429844
81	0x3e29b158	0.16571558
82	0x3e07cb7e	0.1326122
83	0x3da62e69	0.08114321
84	0xbd89f125	-0.06735448
85	0x3dd4517e	0.10367106
86	0x3e14fad7	0.14548813
87	0xbe1383ef	-0.14405797
88	0xbdb8f35b	-0.09030791
89	0x3e0a33e5	0.13496359
90	0x3e5286ce	0.20559236
91	0x3da8cc7c	0.08242127
92	0xbe0191ce	-0.12653276
93	0x3b8a1071	0.0042133857
94	0x3ce9fc52	0.028562699
95	0x3ddfbb79	0.109244294
96	0x3dd7d125	0.10537938
97	0xbe009096	-0.12555155
98	0x3df8fe0d	0.12157831
99	0xbdc007b9	-0.09376473
100	0xbd4c4a88	-0.049875766
101	0xbdf333f8	-0.118751466
102	0x3db31560	0.08744311
103	0x3de7d042	0.11319019
104	0x3ca6cca1	0.020361247
105	0xbd4e07f2	-0.050300546
106	0xbda952d2	-0.0826775
107	0xba5f9f4d	-0.00085305126
108	0x3dc8f04f	0.0981146
109	0x3b3c4e7c	0.0028733304
110	0x3e11afb6	0.14227185
111	0x3e320e83	0.17388348
112	0xbd705f1f	-0.058684465
113	0x3de65b3b	0.112478696
114	0xbd886cf2	-0.06661405
115	0x3e1ad0e0	0.15118742
116	0xbcbfb1a6	-0.023400139
117	0x3ca591a8	0.020211056
118	0x3d911fe5	0.070861615
119	0xbe153084	-0.14569288
120	0x3def49da	0.11684008
121	0xbe3c8d89	-0.18413366
122	0xbc3d3914	-0.011549253
123	0xbd5ecb81	-0.054393295
124	0xbd692029	-0.056915436
125	0xbdf9699b	-0.12178346
126	0xbda7bac1	-0.08189917
127	0x3e33a105	0.17541893
128	0x3db6c146	0.08923583
129	0x3c89008d	0.016723895
130	0x3c0b0b7f	0.008486628
131	0x3e14f843	0.1454783
132	0x3d53dc77	0.051723924
133	0x3d9a66f8	0.07539171
134	0xbe1017ac	-0.1407153
135	0x3ca7adae	0.02046856
136	0x3d93f59d	0.072245814
137	0x3e33b708	0.1755029
138	0x3dde18ce	0.10844575
139	0x3e1a9cff	0.15098952
140	0xbe82ad62	-0.25522906
141	0x3d4434ef	0.047902044
142	0x3bd0536c	0.006357601
143	0x3e05ffc5	0.1308585
144	0x3d7502a3	0.059816968
145	0xbd8dbce9	-0.069207974
146	0x3de8f586	0.11374955
147	0xbd87c030	-0.06628454
148	0xbe46083b	-0.19339077
149	0xbca3da33	-0.020001506
150	0x3d8807e7	0.06642132
151	0xbdc402cf	-0.09570848
152	0x3e142d49	0.144704
153	0x3b8dacea	0.0043235915
154	0x3cdcb1a7	0.02694018
155	0x3d56f5e2	0.052480586
156	0x3de8561d	0.1134455
157	0x3dbbad6d	0.09163938
158	0xbd209460	-0.039204
159	0x3db829aa	0.08992322
160	0x3df3c437	0.119026594
161	0xbc9d259b	-0.01918297
162	0x3d3fd192	0.04683072
163	0x3e23a333	0.15980224
164	0x3debf8b4	0.11522046
165	0x3e5abece	0.21361849
166	0xbe2c74e4	-0.16841465
167	0x3e148b48	0.14506257
168	0xbd6d9d49	-0.058011327
169	0xbd8b7098	-0.06808585
170	0x3d2a7d30	0.041623294
171	0xbd4954b8	-0.04915306
172	0x3dd7c25d	0.10535119
173	0xbc35efb8	-0.011104517
174	0x3dbedfc1	0.093200214
175	0xbdad03a9	-0.08447964
176	0x3dd967b4	0.10615483
177	0xbd241c27	-0.04006591
178	0xbdee593e	-0.11638115
179	0x3d267f9c	0.04064904
180	0xbe793929	-0.24338211
181	0x3d9ffa30	0.07811391
182	0x3e514354	0.2043584
183	0x3dea227b	0.11432358
184	0xbd8d4bf6	-0.06899254
185	0xbdab77e8	-0.0837248
186	0x3da01e6b	0.07818302
187	0xbded8968	-0.11598474
188	0x3dd34fbc	0.103179425
189	0xbdb076df	-0.08616423
190	0x3d2af361	0.04173601
191	0x3dbe4605	0.09290699
192	0x3e00fe5d	0.12597032
193	0x3e022729	0.12710251
194	0xbcf8779a	-0.030330468
195	0x3e2ae747	0.16689788
196	0x3e70d2a6	0.23517856
197	0x3db9b963	0.09068563
198	0xbe1a706b	-0.15081947
199	0x3d567239	0.052355025
200	0xbe29bc02	-0.16575626
201	0x3e133d41	0.14378835
202	0xba8a2a68	-0.0010541203
203	0x3cda1682	0.02662206
204	0x3c18c3f0	0.009324059
205	0x3e542407	0.20716868
206	0x3e2c0502	0.16798785
207	0x3cad295f	0.021137891
208	0x3df748b1	0.12074412
209	0xbd751b68	-0.05984059
210	0xbd296882	-0.041359432
211	0x3d533557	0.05156454
212	0xbdc0b5d7	-0.09409683
213	0xbdf13096	-0.11776845
214	0x3df8ee52	0.12154831
215	0x3d84b900	0.064805984
216	0x3e0fd04e	0.14044306
217	0x3dfd8418	0.123787105
218	0xbd6ae1ed	-0.057344366
219	0xbd7c7c28	-0.061641842
220	0x3e3cea83	0.18448834
221	0xbdbd82ec	-0.09253487
222	0xbce786c2	-0.0282625
223	0x3ce5c011	0.028045686
224	0x3da89f4c	0.082335085
225	0x3d4b94ca	0.049702443
226	0x3e0b5fed	0.13610812
227	0xbcbc8e3b	-0.02301704
228	0x3db5909c	0.08865473
229	0x3e32fa31	0.17478253
230	0xbd811b39	-0.063040204
231	0xbd9190d0	-0.07107699
232	0x3e310965	0.1728874
233	0xbd81f493	-0.06345477
234	0x3e56ec08	0.20988476
235	0x3d29dd7f	0.041471
236	0xbd0e29aa	-0.034707703
237	0x3da27f8b	0.07934483
238	0x3e1864b6	0.14882168
239	0xbd9f2c1d	-0.07772086
240	0x3d2b153c	0.041768298
241	0xbd328585	-0.043584365
242	0xbded4489	-0.11585338
243	0x3c9c8438	0.019106016
244	0x3e1c127d	0.15241428
245	0x3d81c535	0.063364424
246	0xbbfb95a2	-0.0076777497
247	0x3e3c63ec	0.18397492
248	0xbd3196a0	-0.043356538
249	0x3d8f169b	0.069867335
250	0x3e4fac0f	0.20280479
251	0xbe2f5223	-0.17121176
252	0xbc99db5f	-0.018781362
253	0x3e11b2ca	0.14228359
254	0xbc875dd7	-0.016524239
255	0x3d0a5e5a	0.033781387

bias f4 [16]
0	0xbdc135c0	-0.0943408
1	0x3de0a455	0.10968844
2	0xbe11650c	-0.14198703
3	0x3dbb156d	0.09134946
4	0x3e190380	0.14942741
5	0xbdfe1488	-0.1240626
6	0xbc4c9129	-0.012485781
7	0xbd6bfd43	-0.057614576
8	0x3e002c50	0.12516904
9	0xbe109a37	-0.14121328
10	0x3cb22bc7	0.02174939
11	0x3e197026	0.14984187
12	0x3e1305c3	0.14357667
13	0xbcf44bef	-0.029821364
14	0x3d0ee41f	0.034885522
15	0xbcdbeb2b	-0.026845535

weight f4 [80, 144]
0	0x3dce8600	0.10084152
1	0xbd41a7c5	-0.047279138
2	0xbdc19a02	-0.09453203
3	0x3d908801	0.07057191
4	0xbcb172b4	-0.02166114
5	0xbe19b238	-0.15009391
6	0xbe5ae5b4	-0.21376687
7	0xbda85879	-0.0822
8	0x3d4d6948	0.050149232
9	0x3d46f94e	0.0485776
10	0x3d948fa9	0.072539635
11	0xbc05b2be	-0.008160291
12	0x3d045575	0.03230806
13	0x3d9c78f5	0.07640258
14	0xbd234b9b	-0.039867025
15	0xbbd8bc82	-0.0066142688
16	0xbcb2e1cc	-0.021836184
17	0xbccc9a01	-0.024975779
18	0xbe581153	-0.21100359
19	0xbbe7e602	-0.0070769796
20	0x3daf0a26	0.085468575
21	0x3e066f05	0.13128288
22	0xbd65bd1a	-0.056088544
23	0x3e081d22	0.13292363
24	0x3e3eb292	0.18622807
25	0x3de51152	0.11184944
26	0x3c364a3d	0.011126098
27	0xbd7f7278	-0.062365025
28	0xbd44e5d2	-0.048070736
29	0x3da37b8a	0.079825476
30	0xbaa2425a	-0.0012379393
31	0x3cc6c5d6	0.024264257
32	0xbc133f39	-0.008987241
33	0x3d37bcff	0.044857975
34	0xbd4a7179	-0.049424622
35	0xbd65622d	-0.05600183
36	0x3dc23af4	0.09483901
37	0x3b86cf39	0.0041140583
38	0x3d2bcd93	0.041944098
39	0xbd9be8c9	-0.076127596
40	0xbd95f589	-0.07322223
41	0xbdc6cac9	-0.09706647
42	0xbd676e24	-0.056501523
43	0x3d150e33	0.036390495
44	0xbbadc99e	-0.0053035757
45	0x3d972cf0	0.07381618
46	0xbcb2f4a6	-0.021845173
47	0xbda6e173	-0.0814847
48	0xbcd8be20	-0.026457846
49	0x3cd54616	0.026034396
50	0x3d7f58cb	0.06234054
51	0x3d0044f6	0.031315766
52	0x3cb30d76	0.021857005
53	0x3b09e461	0.0021040665
54	0xbc659bfe	-0.014014242
55	0x3d0c57a6	0.034263276
56	0x3e0b8c7e	0.13627812
57	0x3c7673c8	0.015042253
58	0xbd6301ca	-0.055421628
59	0xbd92cc37	-0.07167857
60	0xbd5c916b	-0.05384962
61	0x3cec5785	0.028850326
62	0xbdc5b77b	-0.09654137
63	0xbdafeb9c	-0.08589861
64	0x3cf5188c	0.029918931
65	0x3d372dd1	0.04472143
66	0x3d6a360f	0.05718046
67	0x3e022522	0.12709478
68	0xbdc5385d	-0.09629891
69	0x3d7bc53e	0.0614674
70	0x3dc11308	0.09427458
71	0x3d8f1e40	0.069881916
72	0x3c8e2e7c	0.01735615
73	0xbd039dc6	-0.032132886
74	0x3d08c4b7	0.033390727
75	0xbde05c69	-0.10955126
76	0xbc92e95e	-0.017933544
77	0x3d3e5764	0.04647006
78	0x3d65c8df	0.05609977
79	0x3d046a10	0.03232771
80	0x3d7f5638	0.062338084
81	0xbe2e055d	-0.16994233
82	0x3da67e2d	0.08129535
83	0x3e323040	0.17401218
84	0x3e1a3051	0.15057494
85	0xbcb32d6c	-0.021872245
86	0xbd90fb77	-0.07079213
87	0x3db97309	0.09055144
88	0xbde53b59	-0.1119296
89	0x3e2c3735	0.16817935
90	0xbd80b61a	-0.06284733
91	0x3cb2f4a7	0.021845175
92	0xbcf8cac8	-0.030370131
93	0x3c55fad0	0.013060287
94	0x3d7c62ff	0.061617848
95	0xbba6fc0a	-0.0050959634
96	0xbdecc6b2	-0.115613356
97	0x3db63510	0.088968396
98	0x3cc6d088	0.024269357
99	0x3ddb8fb0	0.107207656
100	0x3cdf3aee	0.02724978
101	0xbc050ca4	-0.00812069
102	0x3d8fce5f	0.07021784
103	0x3d9daaff	0.076986305
104	0x3dee12be	0.116246685
105	0x3dba04e1	0.09082962
106	0xbdc81b9c	-0.09770891
107	0x3ca63919	0.020290898
108	0x3bc90416	0.0061345203
109	0xbb881b94	-0.004153678
110	0xbc6e99e2	-0.014563056
111	0x3c094a03	0.008379462
112	0x3d459c8b	0.048244994
113	0x3ba4e7be	0.0050325086
114	0x3db8c70a	0.09022339
115	0x3d98edc4	0.07467225
116	0x3db0bd97	0.086299114
117	0x3c3e4737	0.011613659
118	0x3d9a7ee5	0.075437345
119	0x3cc1c107	0.023651613
120	0x3d9f7a22	0.07786967
121	0x3dfe02b5	0.1240286
122	0x3c8a728f	0.016900329
123	0x3d225293	0.03962953
124	0xbc784637	-0.015153459
125	0x3d6bc6ce	0.05756264
126	0x3c715314	0.01472928
127	0x3a8b4484	0.0010625278
128	0x3d042cc7	0.032269266
129	0x3d8f5730	0.069990516
130	0x3c09fa49	0.008421489
131	0x3ae1e09c	0.0017233077
132	0xbcbff9c4	-0.023434527
133	0x3d2e0175	0.04248186
134	0x3d007c3e	0.031368487
135	0x3d28aac4	0.04117848
136	0xbd9f5b17	-0.07781046
137	0x3e0b596c	0.1360833
138	0xbd55618e	-0.05209499
139	0x3d11281c	0.035438642
140	0xbd929463	-0.07157209
141	0x3db89a8e	0.09013854
142	0xbca98dfe	-0.02069759
143	0xbcc54b4d	-0.024083758
144	0x3ccebc2b	0.02523621
145	0x3d4f057f	0.05054235
146	0xbc8a5a7c	-0.01688885
147	0x3d99cd9e	0.075099215
148	0x3d89e0d3	0.06732335
149	0xbda4f05f	-0.0805366
150	0x3d6fb06b	0.058517855
151	0x3b091600	0.0020917654
152	0xbd74e228	-0.059785992
153	0xbd92549e	-0.07145046
154	0xbcb5334f	-0.022119192
155	0x3b9f865b	0.0048683113
156	0xbc219e0f	-0.009864344
157	0xbc31c0c9	-0.010849186
158	0x3d47902b	0.048721474
159	0xbd9defc2	-0.07711746
160	0x3c1d313e	0.00959426
161	0xbcb05312	-0.021523986
162	0xbd05ee05	-0.032697696
163	0x3d896b97	0.06709974
164	0x3d8fcb09	0.07021148
165	0xbcbf7454	-0.0233709
166	0x3d92a2d4	0.07159963
167	0x3b84f85a	0.004057926
168	0x3c85a930	0.016316026
169	0x3d0c82ac	0.034304306
170	0xbbe0880d	-0.006852156
171	0x3d801471	0.06253899
172	0x3d5ca218	0.053865522
173	0xbbed7e1e	-0.0072477004
174	0x3cadb09f	0.021202384
175	0xbda027f5	-0.07820121
176	0x3d90c678	0.07069105
177	0x3d5396c0	0.05165744
178	0x3c523c4a	0.012831757
179	0xbd44e11b	-0.04806624
180	0xbd75fab6	-0.06005355
181	0xbc52c5eb	-0.01286457
182	0xbd403be4	-0.046932116
183	0x3d4e7749	0.050406728
184	0xbc433ad4	-0.011915881
185	0x3be0a80d	0.0068559707
186	0xbd5d2171	-0.05398697
187	0x3d8fcd82	0.070216194
188	0xbd948dc8	-0.07253605
189	0x3bac8cd6	0.0052658124
190	0x3d85517f	0.06509685
191	0xbd42a220	-0.047517896
192	0x3d686880	0.056740284
193	0xbd51e2b6	-0.0512416
194	0x3d54ba00	0.051935196
195	0xbce95656	-0.028483551
196	0xbbfb112b	-0.0076619587
197	0xbd94d1c7	-0.07266574
198	0x3d85c8fe	0.06532477
199	0xbd50c1cf	-0.05096608
200	0x3c8d291f	0.017231522
201	0xbd955191	-0.07290948
202	0x3d54a834	0.051918224
203	0xbc827613	-0.015925443
204	0x3d6f5f70	0.058440626
205	0x3c1dc346	0.009629076
206	0x3d8d1841	0.06889392
207	0xbce36ee1	-0.027762832
208	0xbc160544	-0.009156529
209	0xbcec85bf	-0.028872369
210	0x3d46368e	0.04839187
211	0xbd0fe0d0	-0.035126507
212	0x3d7546f8	0.059882134
213	0x3cc442b8	0.023957595
214	0x3d867556	0.06565349
215	0xbcd23028	-0.025657728
216	0xbc3b7967	-0.011442519
217	0xbcc14ae9	-0.02359529
218	0x3d0af01f	0.033920404
219	0x3d33b2cf	0.043871697
220	0xbca9c2e0	-0.020722806
221	0x3aac9d2c	0.00131694
222	0x3d1536e2	0.036429293
223	0x3b1b0dea	0.0023659416
224	0xbceb3e67	-0.02871628
225	0x3d149f0e	0.0362845
226	0x3c909db6	0.017653327
227	0x3d3f8bb6	0.046764098
228	0xbd77e6c8	-0.060522825
229	0xbd5c2cf7	-0.05375382
230	0x3d43d1a3	0.047807347
231	0xbc86c1e0	-0.016449869
232	0xbc1d64db	-0.009606565
233	0xbd83cb10	-0.064352155
234	0x3d8ec713	0.06971564
235	0xbcbca064	-0.023025699
236	0xbdb5242c	-0.0884479
237	0x3d504601	0.05084801
238	0x3d73bcc4	0.059506193
239	0x3ced42b8	0.028962478
240	0xbcf65676	-0.030070525
241	0xbd364cc3	-0.0445068
242	0xbd6a440a	-0.057193793
243	0x3d42ef3c	0.047591433
244	0xbd58c708	-0.052924186
245	0x3bd5a543	0.006519945
246	0xbcafd52a	-0.02146395
247	0xbd83d4c6	-0.06437068
248	0xbcb6425e	-0.022248443
249	0x3d137fc5	0.036010522
250	0x3cbc4b12	0.022985015
251	0xbda9397d	-0.08262918
252	0xbc85ce31	-0.016333671
253	0xbda03a25	-0.0782359
254	0xbd874c85	-0.06606392
255	0x3d430830	0.04761523

bias f4 [80]
0	0xbd19a55f	-0.037511226
1	0xbd8b47e5	-0.06800822
2	0x3d111456	0.035419784
3	0xbcb3664c	-0.021899365
4	0x3db7f8f2	0.089830294
5	0xbb88e0e2	-0.0041771987
6	0xbac469a0	-0.0014985092
7	0xbda0719c	-0.07834169
8	0x3d611383	0.05495025
9	0xbca4e259	-0.020127462
10	0x3dc04f59	0.09390134
11	0xbdb43e3f	-0.08800935
12	0xbcc88e3b	-0.024481883
13	0x3dacf95e	0.084460005
14	0xbd9fbc85	-0.07799629
15	0x3c64c5ad	0.013963145
16	0xbdac1d40	-0.084040165
17	0xbcc95587	-0.024576915
18	0xbd284f79	-0.041091416
19	0xbd73f820	-0.059562802
20	0xbafc28bf	-0.0019238218
21	0xbc9c1959	-0.019055055
22	0x3cc7f723	0.024409836
23	0xbbcbc3c3	-0.006218405
24	0xbd7c7d2a	-0.061642803
25	0x3b9a6efd	0.004712938
26	0x3d333162	0.043748267
27	0xbb9d93fd	-0.0048089013
28	0xbd20899d	-0.03919374
29	0x3bbc7868	0.005751658
30	0x3d92a2a0	0.071599245
31	0xbcc0200e	-0.023452785
32	0x3cc3184b	0.023815295
33	0xbd00e5d4	-0.03146918
34	0xbc9f262d	-0.019427383
35	0xbc947061	-0.018119993
36	0x3d92d4dd	0.07169507
37	0x3c77100c	0.0150795095
38	0x3d6251e5	0.055253882
39	0xbcd59ee2	-0.026076738
40	0x3dc3065c	0.09522697
41	0xbcc526a5	-0.024066279
42	0x3c2a2eac	0.010387104
43	0xbda7c292	-0.08191408
44	0x3d847bef	0.06468951
45	0xbd5c9665	-0.053854365
46	0x3d2084e4	0.039189234
47	0x3d902a5a	0.07039328
48	0x3badb290	0.0053008273
49	0x3d0933a2	0.033496507
50	0x3db85c4f	0.090019815
51	0x3d83a80c	0.06428537
52	0xbd8dd90e	-0.069261655
53	0xbd7779cd	-0.060418893
54	0xbcf1b3c0	-0.029504657
55	0x3d99c513	0.07508292
56	0x3d888a33	0.066669844
57	0x3c833fa9	0.016021566
58	0xbd9132fe	-0.07089804
59	0x3dab999d	0.08378909
60	0xbc471099	-0.012149953
61	0x3d650c10	0.055919707
62	0xbc97f8c7	-0.018551243
63	0xbc154ccd	-0.009112549
64	0x3c22b115	0.009929915
65	0x3c967de1	0.01837057
66	0xbd07833d	-0.033084143
67	0x3d96b8cc	0.07359466
68	0xbda9af22	-0.08285357
69	0x3da1d607	0.079021506
70	0xbcf7d09b	-0.030250838
71	0xbc9fa46b	-0.01948758
72	0x3d338a99	0.04383335
73	0xbdbbb609	-0.0916558
74	0x3dabaada	0.08382197
75	0xbdaf033b	-0.08545538
76	0x3d77a0fb	0.060456257
77	0x3d9fe8b5	0.07808057
78	0x36c38b72	5.8276864e-06
79	0x3d2a9ca8	0.041653305

weight f4 [40, 80]
0	0x3e3dd149	0.18536867
1	0xbc9a09cf	-0.018803505
2	0xbd15748b	-0.036488097
3	0xbd391755	-0.045188267
4	0x3e10f2f6	0.14155182
5	0x3dbae282	0.09125234
6	0x3d913361	0.07089878
7	0x3e9902f2	0.2988506
8	0x3d6bd289	0.05757383
9	0x3dcda253	0.100407265
10	0x3c980986	0.018559229
11	0x3e97a869	0.29620674
12	0x3d1e6154	0.038667038
13	0x3e39c188	0.18140233
14	0x3e3a83df	0.18214367
15	0xbc0132cd	-0.007885647
16	0x3d774a57	0.06037363
17	0x3d814096	0.06311147
18	0xbe8b9a68	-0.2726624
19	0x3d7cab39	0.06168673
20	0xbc3d747b	-0.011563416
21	0xbd0684c3	-0.032841455
22	0xbd359277	-0.044329133
23	0x3dde3f69	0.10851938
24	0x3cc92ef3	0.02455852
25	0x3e4f8432	0.20265272
26	0x3dfe38cf	0.12413179
27	0x3e80b0e6	0.25134963
28	0xbd5ab24c	-0.053392693
29	0x3c625c0e	0.013815893
30	0x3daebff9	0.0853271
31	0x3e844a02	0.25837713
32	0x3e5050b3	0.20343284
33	0x3d078f22	0.033095486
34	0x3e11b9a8	0.14230978
35	0x3e9ab343	0.3021489
36	0x3d94c056	0.07263248
37	0x3ccb120e	0.024788883
38	0x3d6cbc31	0.05779666
39	0x3e57e456	0.21083197
40	0x3d33a216	0.04385575
41	0xbc8154dc	-0.015787534
42	0xbda81d21	-0.08208681
43	0x3eb233b6	0.34805077
44	0xbd98c15a	-0.07458754
45	0xbcb2fd82	-0.021849398
46	0xbd23be30	-0.0399763
47	0xbdc948ba	-0.098283246
48	0x3eb617e9	0.35565117
49	0xbe13ba77	-0.144266
50	0xbd1e6783	-0.038672935
51	0x3e51f1ea	0.20502439
52	0x3eb11504	0.34586346
53	0x3e8874be	0.26651567
54	0x3c73eab7	0.014887503
55	0xbcffa2e0	-0.031205595
56	0x3d3e7b6e	0.04650443
57	0x3d41db0a	0.047328033
58	0x3dadc96c	0.08485684
59	0xbc9271ac	-0.017876469
60	0xbe53b02f	-0.20672677
61	0x3c59f25b	0.013302411
62	0xbe2e8ee1	-0.17046691
63	0xbca50a0c	-0.020146392
64	0x3dca1cbc	0.09868762
65	0x3dceefcd	0.10104332
66	0xbc764bdf	-0.0150327375
67	0x3e52277b	0.20522873
68	0x3ea7f3f1	0.328033
69	0x3e46de2b	0.19420688
70	0x3ed84217	0.42237923
71	0x3de44e21	0.111477144
72	0x3d37cd70	0.044873655
73	0x3e6cb3bd	0.2311544
74	0xbe1e7390	-0.15473771
75	0x3df423ee	0.119209155
76	0x3da60e1e	0.081081614
77	0x3e34dfdd	0.17663522
78	0x3d773022	0.060348637
79	0xbd669532	-0.056294627
80	0x3d05c015	0.032653887
81	0xbcd0bbd2	-0.025480185
82	0x3d9529cf	0.07283365
83	0xbda81bff	-0.08208465
84	0xbd338a3d	-0.043833006
85	0x3d9d07bc	0.07667491
86	0xbdc72f72	-0.09725846
87	0xbca13a07	-0.01968099
88	0xbc0565e7	-0.008141971
89	0x3db5b76d	0.08872876
90	0xbd9d3e7b	-0.07677933
91	0x3d04d16d	0.032426286
92	0xbc079c95	-0.008277078
93	0xbd53c39f	-0.05170023
94	0x3d6de61f	0.05808079
95	0x3d8d5890	0.069016576
96	0x3daa8d98	0.08327788
97	0x3d8dcdb0	0.069239974
98	0xbd8f4e91	-0.06997407
99	0x3c89390c	0.016750835
100	0xb7f20c8d	-2.8854492e-05
101	0xbb113130	-0.0022154562
102	0xbd515245	-0.05110385
103	0xbc4455f2	-0.011983382
104	0x3db4c895	0.088273205
105	0xbd9c67f6	-0.076370165
106	0xbd7097e5	-0.058738608
107	0xbd0d33a4	-0.034473076
108	0x3de3161b	0.11088201
109	0xbdb70c82	-0.089379326
110	0x3cef97f3	0.02924726
111	0x3daca94d	0.08430729
112	0xbddf789b	-0.109116755
113	0xbd7d3c2c	-0.061824962
114	0x3d8125c3	0.063060306
115	0x3cc7f1c0	0.024407268
116	0xbddcff27	-0.10790854
117	0x3cead4b6	0.028665882
118	0x3d7599df	0.059961196
119	0x3a9ffc05	0.0012205845
120	0xbb1e126c	-0.0024119867
121	0xba8e3c85	-0.0010851776
122	0x3ca7da20	0.020489752
123	0xbd32f9fe	-0.043695442
124	0x3d2d1b0e	0.04226213
125	0xbd88d0e0	-0.06680465
126	0xbd3cd898	-0.046104997
127	0x3dcd5c91	0.10027421
128	0x3c0e147f	0.008671879
129	0x3dc9f5b8	0.0986132
130	0x3b931ccb	0.0044895164
131	0x3b26b90c	0.0025439886
132	0x3d26e85f	0.04074895
133	0xbdbb81c5	-0.09155611
134	0xbdc2fd6c	-0.09520993
135	0xbcd661e9	-0.026169734
136	0xbd4f86d3	-0.050665688
137	0xbd728b58	-0.05921492
138	0xbd959d07	-0.07305341
139	0x3d9d5e5b	0.076840125
140	0xbd4d8357	-0.050174084
141	0xbcb03f88	-0.021514669
142	0xbb8337f7	-0.0040044743
143	0xbd968d57	-0.07351177
144	0xbdbed489	-0.093178816
145	0xbd18a011	-0.037262026
146	0xbdc96958	-0.09834546
147	0x3d9baecc	0.07601699
148	0xbd9e056b	-0.07715877
149	0xbda9a580	-0.0828352
150	0x3db459b1	0.0880617
151	0x3d90e058	0.0707404
152	0xbcdc9972	-0.026928637
153	0xbd81e7c6	-0.063430354
154	0xbcfcdff6	-0.030868512
155	0x3dc5a608	0.096508086
156	0x3d961736	0.07328646
157	0xbdca2aaa	-0.09871419
158	0x3d566ae9	0.05234805
159	0x3a6d3254	0.0009048332
160	0xbdcff1c0	-0.10153532
161	0x3dd4d28f	0.10391723
162	0xbdb6e9ae	-0.089312896
163	0xbda7eae7	-0.08199101
164	0x3d31447d	0.043278206
165	0xbe542328	-0.20716536
166	0xbd933e6f	-0.07189643
167	0xbe92756a	-0.28605205
168	0xbd9adf8b	-0.07562169
169	0xbe1cb23c	-0.15302366
170	0x3d7ed7cd	0.062217522
171	0xbece19fc	-0.402542
172	0xbac711d8	-0.0015187813
173	0xbe7c5d7e	-0.2464504
174	0xbd463696	-0.0483919
175	0x3e3a7c97	0.1821159
176	0x3c0920f2	0.008369671
177	0x3e36a397	0.17835842
178	0x3ead4b40	0.33846474
179	0xbdb30f6f	-0.08743178
180	0x3e27f08b	0.16400354
181	0x3e492713	0.19643812
182	0x3e4385dd	0.19094034
183	0x3d72f612	0.059316702
184	0x3d248f21	0.04017556
185	0xbe174a96	-0.14774546
186	0xbc6748d8	-0.014116488
187	0xbd88f00b	-0.066864096
188	0x3db16fe8	0.086639225
189	0xbe171552	-0.14754227
190	0xbc895d03	-0.016767984
191	0xbe98e831	-0.29864648
192	0xbe63ba27	-0.2223898
193	0xbda2989a	-0.07939263
194	0xbe026a67	-0.12735902
195	0xbe58ef7b	-0.21185105
196	0x3c9f5c43	0.019453174
197	0x3d87b369	0.06626017
198	0xbd94d48b	-0.07267102
199	0xbe58595d	-0.2112784
200	0x3e31f423	0.17378287
201	0xbd5e23a7	-0.05423322
202	0xbc81705e	-0.015800651
203	0xbe2f7689	-0.17135061
204	0x3dea4e31	0.11440695
205	0x3cb5ecc7	0.02220763
206	0x3df7560c	0.12076959
207	0x3df256a5	0.118329324
208	0xbe60af8d	-0.21941967
209	0x3d8ab3cb	0.06772574
210	0x3e0acd8f	0.13554977
211	0xbe1e8db9	-0.1548375
212	0xbe602b07	-0.21891414
213	0xbe44cc46	-0.19218549
214	0x3dbbab84	0.091635734
215	0x3da22eba	0.07919069
216	0x3e41e851	0.18936278
217	0x3df9ef61	0.12203861
218	0x3de2e72d	0.110792495
219	0x3df67285	0.120335616
220	0x3e4352da	0.19074574
221	0x3d5896af	0.052878078
222	0x3e4c24ff	0.19935988
223	0x3ca59844	0.020214207
224	0xbe233fdf	-0.15942334
225	0xbd79f1ff	-0.0610218
226	0x3d8453bc	0.064612836
227	0xbe39057e	-0.18068501
228	0xbe4c91eb	-0.19977538
229	0xbe827ab4	-0.2548424
230	0xbe32e7c2	-0.17471221
231	0xbdbddcf4	-0.09270659
232	0xbdef11f8	-0.11673349
233	0xbe43e2b3	-0.19129448
234	0x3e68ed6b	0.22746818
235	0xbde5cf68	-0.112212
236	0xbcdc274e	-0.02687421
237	0xbe2a994e	-0.16660044
238	0xbe88ae25	-0.26695362
239	0x3e2a1546	0.16609678
240	0xbe214361	-0.1574836
241	0xbd7d76f8	-0.061881036
242	0x3ce3b134	0.027794458
243	0xbd4e2ab2	-0.050333686
244	0xbce20bae	-0.02759346
245	0xbe6366df	-0.22207211
246	0xbe095f5c	-0.13415283
247	0xbe893ace	-0.26802677
248	0xbddc1e49	-0.10747964
249	0xbe058f66	-0.13042983
250	0x3dda7370	0.10666549
251	0xbea6a4b1	-0.32547525
252	0x3ce2f598	0.027704999
253	0xbdeb9926	-0.1150382
254	0xbe24c4bd	-0.16090675
255	0x3d40c21a	0.04706011

bias f4 [40]
0	0xbdc9d2a0	-0.09854627
1	0xbd7405db	-0.059575897
2	0x3d695055	0.056961376
3	0x3d957c0f	0.07299053
4	0x3dbcd7a0	0.09220815
5	0x3dd5cec8	0.10439831
6	0x3ab97238	0.001414842
7	0xbd902930	-0.07039106
8	0x3d55c5b3	0.052190494
9	0x3d058be4	0.032604113
10	0x3d76a6b4	0.060217574
11	0xbc730689	-0.014833101
12	0xbd8810ee	-0.06643854
13	0x3d5f3b13	0.054499697
14	0x3dc50193	0.09619441
15	0xbcfe9a13	-0.031079328
16	0x3d7612a7	0.060076382
17	0x3d883c8c	0.066521734
18	0x3d137590	0.03600079
19	0xbcc0e67d	-0.023547405
20	0xbc3a879b	-0.01138487
21	0xbd268a74	-0.040659383
22	0xbd5747aa	-0.05255858
23	0xbb0fce9a	-0.0021943212
24	0xbcf2257a	-0.029558886
25	0xbd0101a2	-0.031495698
26	0x3d657c1e	0.05602657
27	0x3be2b64e	0.006918705
28	0x3d516e7a	0.05113075
29	0x3d208484	0.039188877
30	0xbdcd9669	-0.10038454
31	0x3e03ca82	0.1287022
32	0x3b9cfa2a	0.004790564
33	0x3dfea3d1	0.12433589
34	0xbc81fabc	-0.01586663
35	0xbd83ac10	-0.06429303
36	0xbd87e235	-0.066349424
37	0x3dc221dc	0.094791144
38	0xbdddf67f	-0.10838031
39	0xbdb0c32e	-0.086309776

weight f4 [2, 40]
0	0x3eb6da68	0.35713506
1	0xbd217056	-0.039413773
2	0xbe92f822	-0.28704935
3	0xbe99b510	-0.30020952
4	0xbeaba7be	-0.33526415
5	0x3e2a3326	0.16621074
6	0x3ea34fec	0.31896913
7	0xbe7be63d	-0.24599548
8	0x3e66fa48	0.22556412
9	0xbeb654c8	-0.35611558
10	0x3e97aefd	0.29625693
11	0xbebec973	-0.3726307
12	0x3dfc46d5	0.12318198
13	0x3eafd619	0.3434303
14	0x3ed3cc6d	0.41366902
15	0x3e8cf6da	0.27532083
16	0x3ec501bf	0.38477895
17	0x3e967483	0.29385766
18	0xbda8d853	-0.082443856
19	0x3e90106a	0.28137523
20	0x3e8d08f7	0.27545902
21	0x3eafc377	0.34328815
22	0x3ea1d2c9	0.3160613
23	0xbe043be2	-0.12913468
24	0x3db3ba3b	0.08775755
25	0x3eb2ae66	0.3489868
26	0x3eb5d5e7	0.35514757
27	0x3ec1bd7e	0.37839884
28	0xbea3d456	-0.31997937
29	0x3eab775f	0.3348951
30	0x3dbf3568	0.09336358
31	0xbe6621df	-0.22473858
32	0xba9d50df	-0.0012002251
33	0xbe08e9be	-0.13370416
34	0x3eaff536	0.3436677
35	0xbd96ccf9	-0.07363314
36	0xbcf0ea6a	-0.029408652
37	0xbeb6a418	-0.3567207
38	0xbdcb36a4	-0.09922531
39	0x3eb85419	0.3600166
40	0xbe88e4f9	-0.26737192
41	0xbcbe1e47	-0.023207797
42	0x3e84bfc9	0.2592757
43	0x3eb3a23e	0.35084718
44	0x3dedc628	0.11610061
45	0xbeb12af1	-0.34603074
46	0xbe9981e2	-0.29981905
47	0x3e68e3df	0.22743176
48	0xbec56d98	-0.38560176
49	0x3e8e6a83	0.27815637
50	0xbe70d6fd	-0.23519512
51	0x3e31737b	0.17329209
52	0x3e17c866	0.1482254
53	0xbed30a75	-0.41218916
54	0xbebdb966	-0.3705551
55	0xbe9d9dc8	-0.3078444
56	0xbe39c4cf	-0.18141483
57	0xbe8b2080	-0.27173233
58	0x3ec16206	0.37770098
59	0xbe6fdda8	-0.23424399
60	0xbe833ca6	-0.2563221
61	0xbeafa5a0	-0.3430605
62	0xbea4ec2b	-0.32211432
63	0xbdf77d70	-0.12084472
64	0xbcd1c2cb	-0.02560558
65	0xbe6a33b2	-0.22871283
66	0xbec2078b	-0.3789638
67	0xbec0410a	-0.3754962
68	0x3e933990	0.28754854
69	0xbe934b85	-0.28768554
70	0xbcf03b27	-0.029325081
71	0x3ea95ac6	0.33077067
72	0xbbec1731	-0.007204913
73	0x3e9d3697	0.3070571
74	0xbe473d40	-0.19456959
75	0xbdf0b81f	-0.11753868
76	0xbcec2b78	-0.028829321
77	0x3e089dd6	0.1334146
78	0xbddc767e	-0.10764788
79	0xbe3b2a06	-0.1827775

bias f4 [2]
0	0xbd8d27f2	-0.068923846
1	0x3db2afa8	0.0872491
