classifier/test_FC_NN.pt (torch, 20375 bytes, 6 tensors)

weight f4 [20, 190]
00000000: 7f2b cf3c 5668 de3c 7f9c 543d 5ab7 e4bc
00000010: 90e8 18bd f42b 8d3c 3479 273d a6c3 b5bc
00000020: 57ae c73b aff9 16bc 93fd 623d cf0f 613d
00000030: cc9c 2ebd 81c1 d5bc 038f cf3d 50c4 c8bc
00000040: ab17 e9bd 4b97 133d c7d0 c9bd 021f 1f3d
00000050: e148 80be 491d ebbd 264a 37be d5ae 603d
00000060: 4f4f 053e f09a 04bd eec9 20bd 64dc b4bd
00000070: 88de 00be a1ff b7bc 7bcc 28bd a82a 0dbd
00000080: b2aa 173d 07b3 d8bd ff26 3ebd c8ac eebd
00000090: bd32 b4bd 1a6e 4abc 6aa9 1abd b722 0ebd
000000a0: 1b0f 4abd 9c37 8a3d d975 8f3c 5fd7 3b3e
000000b0: 4e8a 713d 427d 5abe 3376 d9bb c475 20be
000000c0: cbea 283e 5077 2d3d 8600 8c3c c428 b1bd
000000d0: 431f 2d3d 9a0c 9bbd 7a97 563d 7291 713c
000000e0: 2617 193e 2154 22be 7c6f fd3c 6890 58be
000000f0: 3103 9f3d 9f08 043d affc c33d 981a 903d
00000100: 1c74 2d3d 0ae7 b6bc 8de6 aebd 3028 1bbd
00000110: dd93 783c 0ddd 1abe 8cea 813c 597c 313b
00000120: 2fae 233d 9f3b 7a3c 64e7 29bd ddf8 3abc
00000130: 0d0a 0a3b 1cd7 1fbd e126 adbc 5989 e83b
00000140: 87ea 763c c578 1fbb b6c4 723d 7652 82bd
00000150: eaaf 86bb 6800 c73d 1004 ddba 0d04 3ebc
00000160: 2a10 e1bc 557d d23b 6788 b53d e13a 303e
00000170: 9753 84be d644 14be 02b5 cabd 4b60 b53d
00000180: f9f9 b13c 55b5 3bbd 8711 403c 3ad2 7f3e
00000190: 955a d03c 520b 873d f1b3 90bd 4b56 e83d
000001a0: ee88 7e3d ada8 8cba 9784 19be 14d6 af3d
000001b0: e50d 07be 127c 923c 7053 6bba 57a1 c83c
000001c0: 27ef debc 224a 39be 9b42 7a3d 21e3 99bd
000001d0: fa5a 21bb a4cf 95bd 9ce8 3f3e 050a df3d
000001e0: d876 8c3d d9e8 ee3c e173 223e 80b4 cf3b
000001f0: d58e cf3c 8327 56bd 535c b5bc 6f9d c03b
00000200: 2ad5 5e3d 23db 6cbc 4adf b7bd 59f6 85bd
00000210: fea4 813d bcb7 c73c ce82 bfbd 3e5d 2dba
00000220: c0ef 073e bf0f e5bd 1735 b2bd a817 473e
00000230: b2e0 9f3d 5979 4a3d 7c77 febc 2d9e 04be
00000240: 53ee da3d 84cf 023d 66c0 3c3d ef2c 1cbd
00000250: 0261 d8bc e92e 1a3c c61b 8dbd d30f 3d3d
00000260: 5bcc 113e d87e a03d 0b4f 9b3d 3577 d1bd
00000270: 416d 2b3e fdbb 2c3d bab5 5f3e 236d 283e
00000280: 1630 253c 578f efbd 1c3d 153e 0c03 473e
00000290: 6978 463d cd45 923b 674c 123e d092 7cbc
000002a0: 2083 273d 0702 bfbc 43a3 c3bd 5f77 053e
000002b0: d77f 81bd ef6b e9bd 1722 75be 5883 0cbd
000002c0: 54f8 f73c d5bc e8bd d5ec 57bc 0ed0 9bbd
000002d0: 8e2d 0f3b d31a c43d 7024 23bd d5ee f6bc
000002e0: f04d 15bd de4e de3d 62c9 02be 9995 d2bd
000002f0: cec0 273d f8be 3abd 8e99 243e c08b 713d
00000300: 36ed 3abd d736 e5bd da01 733d 7783 1e3e
00000310: 3065 383d 7273 be3c 1c36 5abb 1f90 a83d
00000320: 80bd f93d c459 8c3d 1ad9 f4bb 33ed 06bd
00000330: 6663 843d f90e 64bd 68c1 96bd 9e72 0c3c
00000340: 5f97 8f3d eaf5 d53c 5e87 90bd 3cff b4bd
00000350: 68de b1bd 358c dc3b 8b2b 51bd 3679 cabc
00000360: 1dd6 febd d610 0a3e 0d8c 953c 880c ae3c
00000370: dfe8 8d3d b712 d83a f528 84bd a126 99bd
00000380: cab2 88bd 6aeb 1fbe 726f f93c 8c17 2f3d
00000390: a0a2 45bd d855 80bd bc96 cbbd 7e7d 0e3e
000003a0: e671 313d 41d1 353d 6791 60bc f576 55bd
000003b0: e0be 1e3e f75f 8a3d 93b2 18bd c521 693d
000003c0: 3200 1d3d 853d 9bbd dda1 d23d b6d2 f7bd
000003d0: 9b56 50bd 6d86 a2bc 31ee fb3d 8a73 32be
000003e0: b46c 723d eacd 59bd 1131 963d fa1c 38bd
000003f0: 74a7 b23d 68f5 8ebd 141c dd3d 8044 9639
0.025289295 0.02714936 0.05190706 -0.02791946 -0.037331164 0.017232873 0.040887073 -0.022188019
0.006093781 -0.009214803 0.05541761 0.054946717 -0.042630002 -0.026093246 0.10134699 -0.024507672
-0.113814674 0.036032956 -0.09854274 0.03884793 -0.25055602 -0.11480195 -0.17899379 0.054854233
0.13018535 -0.032374322 -0.039255075 -0.08831099 -0.12584889 -0.02246076 -0.041210633 -0.03446451
0.037028022 -0.10581022 -0.04642391 -0.11654049 -0.0879874 -0.012355352 -0.037759222 -0.034701075
-0.049330812 0.06748888 0.017512249 0.18343876 0.05896979 -0.21336845 -0.006636405 -0.15669924
0.16495816 0.042350113 0.017090093 -0.086503536 0.04226614 -0.07570763 0.052390553 0.0147441495
0.14950237 -0.15852405 0.030936949 -0.21148837 0.077642806 0.032234784 0.0956968 0.07036322
0.04234706 -0.022326965 -0.08540068 -0.037880123 0.015171972 -0.15123387 0.015858911 0.0027082174
0.039961036 0.015273004 -0.041480437 -0.011411873 0.002106312 -0.039023504 -0.021136703 0.0070964512
0.015070564 -0.002433346 0.05926963 -0.063633844 -0.004110326 0.09716874 -0.0016862173 -0.0115976455
-0.027473528 0.006423632 0.08863907 0.1720996 -0.25845024 -0.14479384 -0.09897806 0.08856257
0.021725642 -0.04582723 0.011722929 0.24982539 0.025433818 0.06593956 -0.07065571 0.11344584
0.062142305 -0.0010731422 -0.14991985 0.08585754 -0.13188894 0.017881427 -0.0008976972 0.024490995
-0.027213646 -0.18094686 0.061098676 -0.075140245 -0.0024620877 -0.07314995 0.18741077 0.10890583
0.06858605 0.029163765 0.15864517 0.006338656 0.025336662 -0.052283775 -0.02213875 0.0058781425
0.054402508 -0.014456543 -0.08978136 -0.06541128 0.06330298 0.024379604 -0.09351121 -0.00066133204
0.13275051 -0.11184644 -0.08701532 0.19442618 0.07806529 0.049432132 -0.031062834 -0.12950964
0.10689988 0.031936184 0.046081923 -0.03812879 -0.026413444 0.009410598 -0.06890063 0.04615767
0.14238112 0.078366935 0.075834356 -0.10227815 0.16740896 0.042171467 0.21846667 0.16447882
0.010082265 -0.11697262 0.14574093 0.19434756 0.048454676 0.0044638873 0.14286958 -0.015415862
0.040896535 -0.023316396 -0.09552624 0.13033818 -0.06323212 -0.1139754 -0.23938785 -0.034304947
0.03026978 -0.11364142 -0.013179024 -0.07608043 0.002184722 0.09575429 -0.03982967 -0.03014318
-0.03645128 0.108548865 -0.12772134 -0.1028244 0.040955357 -0.04559228 0.16074201 0.058971167
-0.04563638 -0.111921005 0.059327938 0.15479837 0.045018375 0.023248408 -0.0033296412 0.08230614
0.121943474 0.06853059 -0.0074721696 -0.032941055 0.06464271 -0.05567834 -0.07361108 0.008572249
0.070112936 0.026118238 -0.07057069 -0.088377446 -0.08684999 0.006730581 -0.051066916 -0.024716001
-0.124431826 0.13482985 0.018255258 0.02124621 0.06929182 0.001648507 -0.064531244 -0.07478071
-0.06674726 -0.15617147 0.03044865 0.042747065 -0.048250794 -0.062663734 -0.0994086 0.13915059
0.043321513 0.044389013 -0.013706542 -0.0521154 0.155025 0.06756585 -0.037279677 0.05691697
0.038330264 -0.07580093 0.10284779 -0.12100737 -0.050863843 -0.01983949 0.12301291 -0.17426887
0.0591857 -0.05317489 0.073335774 -0.04494951 0.087233454 -0.06980401 0.10796371 0.00028661266

bias f4 [20]
00000000: e3b3 0ebd 7106 283d 4e6a 6dbd 54f2 f7bb
00000010: 2153 cabc b678 1e3d 6ace 213d ef4c 08bd
00000020: 17ee 82bc a6f5 573d 21e1 443d f1e3 9a3c
00000030: 1e03 e03c 5569 60bc 28b0 e83c 19f2 8f3d
00000040: f2da c6bc 5cb5 0c3d 7bd2 d23c 96a0 9f3c
-0.034839522 0.041021768 -0.05796271 -0.0075667296 -0.024697842 0.038689338 0.039503492 -0.033276495
-0.01598267 0.052724503 0.048066262 0.018907519 0.027345236 -0.013696988 0.02840431 0.07028598
-0.024274323 0.034352645 0.02573513 0.019485753

weight f4 [20, 20]
00000000: 93b6 97be 4e33 01bf ea96 ecbe 8d0a 9a3e
00000010: 51cc d7be d6ea 96be 7a66 9ebe 5711 a6be
00000020: 56ed 533e 6a84 173f 42ec d73e 39ef a5be
00000030: a6d0 c8be ec59 1c3f 6981 a6be 452e 223e
00000040: faba ba3e 4a6e aabe 199e 0fbd 200a d6bd
00000050: 6484 c93e faa9 b83e 3adf fc3e 6830 babe
00000060: 7401 053f c723 ef3e e4d6 de3e 5a32 163f
00000070: ed3b 43be 7bb1 c3be a873 e5be e168 ab3e
00000080: 92f8 9a3e c8ea 86be 4a87 013f 6bf5 96be
00000090: 0349 65be aa56 c43e d05e 6f3e 542c a93e
000000a0: 1241 aebe fbff 26be a580 3cbe dcb3 173f
000000b0: 37df 22be 05a0 1dbe d39d 00be c5d7 98be
000000c0: e64f 8f3e b0d5 a43e d5b8 c03e a28c 7cbe
000000d0: 3758 ffbd ac11 dd3e 7cf7 4dbe 7bde cf3e
000000e0: 6f46 da3e 687f 57be 3fe9 703d e61c 2fbe
000000f0: 699b d73e 04cf 973e 80e2 133f 6d90 66be
00000100: 9a4e bb3e 857a 0d3f 3e99 0f3f ae7e 253f
00000110: 2ae7 08be 6bf7 58be b955 2ebe cc1c 123f
00000120: 6750 c63e 9e0e 8abe a7f8 aa3e c7e5 19be
00000130: a133 61be 69dd 1c3f c900 373e 54df ce3e
00000140: 2b7a f1be 3896 b7be 4e99 c8be 5bd7 8d3e
00000150: e89a a7be 8010 67be c9a4 86be 9321 b2be
00000160: 6d04 e93e f67e cc3e 29e7 ff3e 6cb8 9dbe
00000170: 16fa 5cbe fafa bd3e f3aa 29be 742e 4c3e
00000180: aa34 963e af49 a4be b7c9 8abd 774d 35be
00000190: dc0d 353f 1bac df3e b716 003f 2fa5 a9be
000001a0: b413 173f c5c4 763e 406e 913e c777 043f
000001b0: 8fb8 97be 3a51 9bbe b3dc 6cbe a3c9 8d3e
000001c0: 5dcc b83e e47b f9be dd7b 013f 2b52 d1bd
000001d0: bbda 80be 4d90 863e cee1 5b3e d58a dc3e
000001e0: 3c4b 813d 4043 a0bd b17f a03d 8a00 343d
000001f0: 3fa5 bc3d e5ca 6dbe a9b5 003e 7fcf 79bd
00000200: 012c 25bb c533 4cbc 52d0 413d 7c1e c03c
00000210: 79b3 68be e950 89bd 0d17 81be 2fd5 953c
00000220: 44a4 ffbd b67a 49be 19b5 62be 57eb 5bbe
00000230: 3dc5 e63e c6a4 ba3e 36ab cc3e bc67 43be
00000240: b8d0 183e 4339 f13e 09cf b33e bb3b 0a3f
00000250: aec7 53be ce26 4ebe 8d38 1dbe 997f 563e
00000260: 0fba e63e a24e b4be ec5a ba3e 96ec 96bd
00000270: 7866 adbd fc6c 073f c94e b63e 1bd4 6e3e
00000280: ff4d 83be 58de a7be 401b e6be 7901 0f3f
00000290: 5c03 83be 2355 49be c67a c9be 8148 0cbf
000002a0: 9b7a a43e 9e09 263e 8ad9 0b3f 5958 6bbe
000002b0: 3ffc aebe edd7 1e3f 4400 91be 5b04 c03e
000002c0: b851 de3d ebd1 f0be fdc4 1bbe f05f 97be
000002d0: d93c e3be d7b5 0fbe 6b99 95be 5caa f33e
000002e0: dcc3 abbe 0b26 81be 77b3 0bbe 1175 d4be
000002f0: 11a5 df3e e7f4 633e fa4f 3a3e 0855 54be
00000300: 0a63 d2bd 9bf7 0c3f 51e4 9cbd 5ce9 c03e
00000310: c6b0 9a3e 85bf d7be 1b26 3ebe 0272 6dbe
00000320: bd6e dcbe bd79 94be f67c bfbe 8570 ff3e
00000330: 00e6 a5be ee22 b5be 2936 53be 97fa e0be
00000340: 8f47 813e 11ce a03e 8407 c73e f419 34be
00000350: 431c 95be 5e62 123f d443 a5be 3672 c53e
00000360: 8c77 4d3e 783f c1be d430 6fbe 1a7b 6ebe
00000370: 7870 37be 1919 f5bd 33e5 2ebe 1444 b43e
00000380: f6a2 43be 67ea 53be 5058 4fbe 188d 5cbe
00000390: bdf4 063f b33a e73d 0bf1 c53e 78d8 46be
000003a0: eb87 a6bd 5c16 0c3f 1857 0cbe 12f4 3b3e
000003b0: 46fc 003f 94a7 3cbe 2ed1 3ebd 967a 93bd
000003c0: ca85 a0be 062f 93be dbf0 80be 210c 123f
000003d0: 5e59 12be f567 13be 3cf5 88be 1f4d cdbe
000003e0: e1b1 863e eceb 943e 7fa9 0c3f f85e 82be
000003f0: cf18 35be ba84 113f 702b 04be 92e4 7b3e
-0.2963148 -0.5046891 -0.46208888 0.30086175 -0.4214807 -0.2947604 -0.30937558 -0.32435104
0.20696005 0.5918642 0.42172438 -0.32409075 -0.39221686 0.6107471 -0.32520607 0.15837963
0.36470777 -0.3328727 -0.035062883 -0.1045115 0.3935882 0.36067182 0.49389058 -0.36365056
0.5195534 0.46706983 0.43523324 0.5867058 -0.19065829 -0.38221344 -0.448148 0.33478454
0.3026777 -0.26351 0.5059706 -0.29484114 -0.22391133 0.3834737 0.23376012 0.33041632
-0.3403402 -0.16308586 -0.18408449 0.5925882 -0.15905462 -0.15393074 -0.12560205 -0.2985212
0.27990645 0.3219428 0.37641016 -0.24663022 -0.124679975 0.43177545 -0.20113939 0.40599427
0.42631862 -0.21044695 0.05881619 -0.17100868 0.42110756 0.29650128 0.57767487 -0.22516032
0.36583406 0.55265075 0.56093204 0.6464642 -0.13369432 -0.21188132 -0.17024888 0.5707519
0.38733217 -0.26964277 0.33392832 -0.1502906 -0.21992351 0.61275345 0.17871393 0.4040476
-0.4716352 -0.35856795 -0.39179462 0.27703366 -0.32735372 -0.22564888 -0.26297596 -0.3479124
0.4551119 0.39940614 0.4998105 -0.30804765 -0.21579775 0.37105542 -0.16569118 0.19939595
0.29337054 -0.32087466 -0.06776755 -0.17705332 0.7072427 0.43685994 0.5003466 -0.33133838
0.5901444 0.24098499 0.28404427 0.51745266 -0.29632995 -0.30335408 -0.23131065 0.276929
0.36093417 -0.48727334 0.50579625 -0.102207504 -0.25166878 0.26281968 0.21472856 0.4307467
0.06313178 -0.07825327 0.07836855 0.043945827 0.09211206 -0.2322193 0.12569298 -0.0609889
-0.002520323 -0.012463515 0.04731781 0.023452036 -0.22724713 -0.067048855 -0.252129 0.01829013
-0.12482503 -0.19675717 -0.22139396 -0.21476494 0.45072356 0.36453837 0.39974374 -0.1908254
0.1492337 0.47114 0.35118893 0.5399739 -0.2068164 -0.2013199 -0.15353604 0.20947112
0.45063826 -0.35216242 0.36397493 -0.07369344 -0.0846681 0.5290067 0.35606983 0.233231
-0.25645444 -0.32786822 -0.44942665 0.5586162 -0.255885 -0.19661383 -0.3935148 -0.5479813
0.3212479 0.16214606 0.54628813 -0.2298292 -0.34176823 0.62048227 -0.28320515 0.37503323
0.1085543 -0.47035155 -0.15211864 -0.29565382 -0.4438236 -0.1403421 -0.2921861 0.4759091
-0.33547866 -0.25224337 -0.13642679 -0.41495565 0.43680623 0.22261392 0.18194571 -0.20735562
-0.102727965 0.55065316 -0.076607354 0.3767804 0.30212992 -0.42138305 -0.18569224 -0.23188022
-0.43053237 -0.2899913 -0.37400025 0.49890533 -0.3240204 -0.35378212 -0.20626129 -0.43941185
0.25249907 0.31407216 0.3887292 -0.17588025 -0.29123124 0.57181346 -0.3227831 0.385637
0.20065135 -0.37743735 -0.2335847 -0.23289147 -0.17913997 -0.119676776 -0.1707962 0.3520819
-0.19105133 -0.20694886 -0.20248532 -0.21538198 0.5271719 0.11290493 0.38660464 -0.19418514
-0.08131393 0.5472162 -0.13705099 0.18354824 0.5038494 -0.18423301 -0.046586208 -0.07201116
-0.31352073 -0.28746814 -0.25183758 0.5704976 -0.14291903 -0.14395125 -0.267496 -0.400979
0.26307586 0.29086244 0.5494613 -0.2546308 -0.17685245 0.5684315 -0.12907195 0.24598911

bias f4 [20]
00000000: 601b 803e e018 af3d 3a94 d33d 6a54 bb3c
00000010: 5366 473e 91b5 833d 0503 62be 76a1 143c
00000020: 6f32 803e 1513 263e 02d4 643e c20e c53d
00000030: 805b 0f3e 9287 a83a 1295 433e 386f fd3d
00000040: 3c81 983d acc8 073e 2f32 673e 715f 383e
0.25020885 0.085496664 0.10331006 0.0228674 0.19472627 0.064311154 -0.22071464 0.009071698
0.25038478 0.16218217 0.223465 0.096219555 0.13999748 0.0012857786 0.19099835 0.12374729
0.074465245 0.13260144 0.22577737 0.18005158

weight f4 [2, 20]
00000000: 73c4 d63e 63cf 1dbf 294a 573f bb30 3cbf
00000010: 099d 0a3f afc2 11bf 390e 183e 0be2 4dbf
00000020: e24f 0a3f 4dee 373f bed8 2b3f fc99 483f
00000030: 4202 523f 279a 2cbf 2839 023f e074 08bf
00000040: fa94 363f a096 0e3f c63a 273f 5b64 e33e
00000050: 3f3e 10bf dfdb 153f 4b2e 25bf 1a30 103f
00000060: 4365 40bf 2780 2a3f 9044 fcbd 2294 423f
00000070: df0b 11bf e508 3abf 994e 14bf 7a29 32bf
00000080: 02f6 1ebf a857 333f 8ebf 14bf 3852 fd3e
00000090: 3f95 c6be 6686 5abf 1468 07bf 23c2 51bf
0.41946754 -0.6164457 0.84097534 -0.73511857 0.54145867 -0.5693769 0.14849176 -0.8042304
0.5402814 0.71847993 0.671276 0.7835996 0.82034695 -0.6742272 0.50868464 -0.5330334
0.7132107 0.55698586 0.65324056 0.44412503 -0.5634498 0.5853862 -0.6452376 0.563234
-0.75154513 0.66601795 -0.12317765 0.7600728 -0.5665874 -0.7266982 -0.5793243 -0.6959454
-0.6209413 0.7005563 -0.5810479 0.4947679 -0.3878574 -0.85361326 -0.52893186 -0.81936854

bias f4 [2]
00000000: 1218 89be 8dc7 bf3e
-0.26776177 0.37456933
