classifier/test_FC_NN.pt (torch, 20375 bytes, 6 tensors)

weight f4 [20, 190]
000000 51 51 75 3c c4 a1 6b be 32 64 7d be 6f 3b 0a be
       0.014973001 -0.23010927 -0.24745253 -0.13499235
000010 87 44 97 3d 66 4e f4 3b 8c 92 50 3e 3f db 2f be
       0.073861174 0.007455635 0.20368403 -0.1717348
000020 c0 eb 19 3c dd 8b 30 be 1d 33 1f be 71 13 84 be
       0.009394586 -0.17240854 -0.15546842 -0.25796083
000030 d4 91 02 3e a1 de 28 be ec de 27 be 7a a8 30 3d
       0.12750942 -0.16491176 -0.16393632 0.04312942
000040 36 9a ad bd dc 19 02 3e 1c 46 21 be 22 73 b8 3d
       -0.08476679 0.12705177 -0.15749401 0.09006335
000050 a9 ee 3c bd 04 d2 1c bd db a0 44 3d 06 2d d4 bc
       -0.04612604 -0.038286224 0.048004966 -0.025900375
000060 4c 48 3d 3e e5 11 59 bd fc 5c b4 3d 9d 61 46 3d
       0.1848461 -0.05299558 0.08806798 0.048432935
000070 04 c9 8a bd 76 a1 74 3c 80 2a fd bc 41 25 26 bd
       -0.06776622 0.014931073 -0.030904055 -0.04056287
000080 8f ab e7 bc 9b cd cf 3d 31 89 84 be cb 02 52 3d
       -0.028280048 0.10146638 -0.2588592 0.051272195
000090 88 e8 45 bc ff 2e b7 3d 16 ce 61 3d aa 29 39 bd
       -0.012079366 0.08944511 0.05512818 -0.04520575
0000a0 76 4e fa bd 3b 49 00 3e 38 99 bf bc 22 17 ad bd
       -0.122219965 0.12527935 -0.02338849 -0.08451678
0000b0 12 4b 79 3c 5f 06 59 bd e1 14 47 bb 27 46 87 be
       0.015215652 -0.05298459 -0.0030377435 -0.2642071
0000c0 49 ea 51 3d 62 f1 5d 3e 54 2a c5 3d f3 ae b1 bd
       0.051248822 0.21674111 0.09627214 -0.08675947
0000d0 e0 b9 57 bc 93 0e af bd 69 c0 0d 3e 92 40 bf 3d
       -0.013166875 -0.08547702 0.1384293 0.09338488
0000e0 f5 17 da 3d e8 2d eb bd fb 7d 1c bd 5f af 33 3e
       0.10649101 -0.11483365 -0.03820608 0.17547368
0000f0 12 87 ce bd 7e 37 57 3c e0 8e fb bd b7 89 0a be
       -0.10084356 0.013135789 -0.122831106 -0.13529097
000100 79 18 3e 3e 8b af bb 3d 89 48 cb bd 0c 64 f9 bd
       0.18564023 0.091643415 -0.09925944 -0.121772856
000110 67 f0 28 bd 3e 0d d3 bd b3 0b e7 bc 99 07 b9 bc
       -0.04124489 -0.1030526 -0.02820382 -0.02258663
000120 de e7 cc 3d c2 35 ef 3c 70 e5 08 3e b5 28 4b 3e
       0.10005163 0.029200438 0.13368773 0.19839747
000130 3d f3 e0 bc 8d 55 87 bd c2 cc 93 bc 17 98 82 bd
       -0.027459735 -0.066081144 -0.018041972 -0.06376665
000140 9f 21 82 bd cc f2 ef 3d 77 d8 3b 3e 63 cb 20 3d
       -0.06354069 0.11716232 0.18344294 0.039256465
000150 75 b7 7e bd 68 aa 82 3e 42 d1 97 bd 1a 75 d5 bd
       -0.062186677 0.25520635 -0.0741296 -0.10422726
000160 ed 77 c8 bc b7 f9 39 bb 92 12 49 3e fa cb c3 3d
       -0.024471248 -0.0028377601 0.1963599 0.0956039
000170 09 2f 1a 3d 91 3c e5 3c 55 fa 88 bd 17 8e 1d be
       0.037642512 0.027982982 -0.06688372 -0.15386234
000180 a3 0b 20 3e 5c a5 a6 3e cf 40 b1 3d e4 8f 3f 3e
       0.15629439 0.32548034 0.086549394 0.18707234
000190 2d 7d d7 3d 16 fe b9 bc 32 b1 ed 3d 99 62 c9 3d
       0.10521922 -0.022704165 0.11606063 0.09833259
0001a0 5e 22 64 bc 04 ef c1 3c 4b 18 05 be fd 08 6f bd
       -0.013924209 0.023673542 -0.12997548 -0.05835818
0001b0 b0 62 36 3c 3d 62 35 bc 92 23 29 3d 9b 2f d4 3d
       0.011131927 -0.011070785 0.041293688 0.103606425
0001c0 14 3b 22 bd 2b 23 ab 3c 13 b6 14 be b2 f6 f0 bd
       -0.039607123 0.020890793 -0.14522581 -0.117658034
0001d0 82 fc 6d 3e c5 69 8a 3d 88 aa bb 3d 8a c2 91 3d
       0.23240855 0.06758455 0.09163386 0.071171835
0001e0 a0 12 0e bd ae 91 da 3d ef 33 40 bc 89 c9 80 3e
       -0.03468573 0.106723174 -0.011731132 0.2515376
0001f0 d6 d9 f0 bd fb 07 2f 3e 2a c9 37 3e 9c 9a a5 bd
       -0.11760299 0.17092888 0.17947832 -0.0808613
000200 53 41 e1 3d da 29 1a be a5 90 aa be 95 ef 4c be
       0.10998788 -0.15055028 -0.3331348 -0.20013268
000210 65 5b 31 3d dc 47 79 3c 47 75 3e 3e 52 e5 4e 3b
       0.04330005 0.0152148865 0.18599425 0.003156979
000220 67 91 c9 bd 0e e1 5e 3c 6f 30 d7 bd 8d b0 09 3d
       -0.098421864 0.013603462 -0.10507285 0.033615638
000230 b9 69 e5 ba 42 f0 d2 3c 47 e1 a9 3c 1f 19 8e 3d
       -0.0017502821 0.02574933 0.020737303 0.06938385
000240 e7 a4 1a be a6 d1 a9 bd d7 0b 66 bd 79 6b 99 bc
       -0.15101968 -0.082919404 -0.056163635 -0.018728005
000250 66 9b 55 3d 82 b5 c0 bd 67 db 79 bd a2 73 89 bd
       0.052150153 -0.0940962 -0.061000254 -0.06711508
000260 5e bd 93 3e 52 f5 89 b9 54 8f 5c 3e ec 4a ee 3d
       0.28855413 -0.00026313454 0.2153905 0.11635384
000270 9f ae 3c be f0 b5 12 be aa 23 5a 3e 6f e0 5c 3d
       -0.18425988 -0.14327216 0.21302667 0.053924974
000280 ed ad 2d be b7 9c ba bb 63 e3 02 bc e8 2c d3 3d
       -0.16960879 -0.0056949514 -0.0079887835 0.103112996
000290 d2 c1 f6 bc 29 8d aa 3d 7e 72 ed 3c bd 3a b4 3d
       -0.030121718 0.083277054 0.028985258 0.08800266
0002a0 d1 c9 15 be e1 cc f6 bd c4 91 a0 3c 7b 34 ad 3d
       -0.14627768 -0.12050796 0.019600756 0.084572755
0002b0 86 32 df bd 57 cf 2f be 94 bf 14 3e a7 5b 38 bc
       -0.108983085 -0.17168938 0.14526206 -0.01125232
0002c0 c0 03 00 be 21 8c 70 bd 17 ff d4 3c 11 ae 74 be
       -0.1250143 -0.058727387 0.026000543 -0.23894526
0002d0 1b 35 15 3d 99 86 8b be c6 e6 39 3c da c9 6e bd
       0.0364276 -0.27251127 0.011346525 -0.05829797
0002e0 93 44 ed 3d 00 31 84 3d 4d 1c 03 3d 0f 24 da 3d
       0.11585345 0.064546585 0.03200941 0.10651409
0002f0 fb 19 87 be 37 be 60 3d 3b e5 e9 3d cc 0b 94 3c
       -0.2638701 0.054868903 0.11420675 0.018072031
000300 a7 52 c4 bc 58 ca d4 3d 20 f6 94 bc 15 91 5c bd
       -0.023965193 0.103901565 -0.018183768 -0.0538493
000310 0f b6 0a be 87 9a 08 3e b7 e5 3f 3c 20 ea bd bd
       -0.13546012 0.13340198 0.011712483 -0.092731714
000320 ed 7b 34 3e 3c 09 a8 3d 68 f0 b6 3d 8a 7f 53 3d
       0.17625399 0.08204886 0.089325726 0.051635303
000330 29 a5 9f bd b4 39 00 3d b6 4a 28 3e 35 5e 07 3e
       -0.07795174 0.03130503 0.1643475 0.13219531
000340 03 e4 8b 3d 9b 77 05 3d 2f 72 4a bd 21 6e d5 3c
       0.06830599 0.032584768 -0.0494253 0.02605349
000350 16 9b b2 3c 2b 6c d8 3c 95 83 51 be 07 c1 8c 3d
       0.021802466 0.026418766 -0.20460351 0.068727545
000360 6d 57 db bd 64 97 31 3d d4 c9 93 bc 0b 95 dd bc
       -0.107100345 0.043357268 -0.018040575 -0.027048608
000370 80 73 64 bd cb 61 35 3c f5 fa 80 bd c9 2c 28 bd
       -0.055774212 0.011070679 -0.06297866 -0.041058335
000380 12 9b c5 3d 80 2b 9f 3c bd 74 36 3e e8 0b 65 be
       0.09648718 0.019429922 0.1781797 -0.22367823
000390 ee 50 92 3c 0e cc 6d 3c 70 0b 00 3d 9c 70 86 bc
       0.017860856 0.014513982 0.031260908 -0.016411118
0003a0 fb 9b b2 bd 1e 38 2f 3d de 66 4a 3d b7 ce f5 3b
       -0.08721157 0.042778127 0.049414508 0.007501449
0003b0 37 01 ff 3d 79 ea 7f 3e 70 32 07 be d8 64 59 be
       0.124514036 0.24991788 -0.13202834 -0.21229875
0003c0 c9 3f 6e 3e 94 c9 49 3e 20 2b 03 3c cb 48 c6 bd
       0.2326652 0.19705802 0.008005887 -0.09681853
0003d0 91 b1 17 be 22 f1 fd 3d 5b 0c 8d be b3 eb 3f 3d
       -0.1481383 0.12399508 -0.2754849 0.04685564
0003e0 08 37 81 3d c0 52 4b be ce cc 73 bd a4 b7 84 bd
       0.063093245 -0.19855785 -0.05952149 -0.06480339
0003f0 47 71 1a be e9 bb 17 3e 67 35 98 3d 1c 16 71 3e
       -0.15082274 0.14817776 0.07432061 0.2354359

bias f4 [20]
000000 3c 6e 70 be 2f 55 17 be 1f d9 17 be 4c 7b 99 bd
       -0.23479551 -0.14778589 -0.14828919 -0.0749422
000010 f3 e5 83 bd be 56 31 be 5f aa 10 3d 73 89 60 bd
       -0.06440344 -0.17318246 0.03531873 -0.05481858
000020 a5 3e 41 be e8 e4 b4 be ff 64 33 be 50 89 f1 bd
       -0.18871553 -0.35330892 -0.17518996 -0.117937684
000030 6a 6f ca bc b5 7c 11 bd 27 03 83 be 04 e4 0a be
       -0.02471133 -0.03551932 -0.25588343 -0.13563544
000040 3f dd bc bd 49 aa bc bd 0c 27 63 be 02 a7 2a be
       -0.09221887 -0.09212167 -0.22182864 -0.16665271

weight f4 [20, 20]
000000 8c 2c 9b 3e 5f 8f 60 bf 86 1b a0 3e 81 3b 0a 3f
       0.30307424 -0.87718767 0.31271 0.53997046
000010 16 7e 8a bf 77 ad 7d 3e de 39 05 3e 2f 7c ae bf
       -1.0819728 0.24773203 0.13010356 -1.3631648
000020 6e 2c 08 c0 83 8d a7 3e 23 ad 98 3e cc e6 a2 bf
       -2.1277118 0.32725152 0.29819593 -1.2726684
000030 02 22 13 3f 40 96 1c bd 4c 92 9d 3e 96 ba 96 3e
       0.57473767 -0.038229227 0.30775678 0.2943923
000040 a1 05 06 3f eb 8f 88 3e 08 b4 51 3e 14 fa 59 3f
       0.5235234 0.266723 0.20478833 0.85147214
000050 5c f9 a3 3e 70 1b 39 bf 0b 1a d9 3e c7 60 f8 3e
       0.32026184 -0.7230749 0.42402682 0.48511335
000060 32 3c 88 bf 81 d6 8c 3e 7e 4e 2c bd 45 a6 c0 bf
       -1.064337 0.27507403 -0.042067043 -1.5050741
000070 60 dd 02 c0 75 7e 91 3e f0 23 81 3e 8e 49 9d bf
       -2.0447617 0.28416792 0.2522273 -1.2288072
000080 0e f5 24 3f 1b 61 78 3d 77 d6 9f 3e 0d b3 81 3e
       0.64436424 0.060639482 0.3121831 0.25331917
000090 ba 95 f4 3e 10 96 87 3e 2a be 79 3e e5 8f 46 3f
       0.47770482 0.26481676 0.24388948 0.77563316
0000a0 7e 7b ee be 53 bd fa 3e 14 04 db be 16 3e f6 be
       -0.46578592 0.48972568 -0.4277655 -0.48094243
0000b0 2b b4 68 3f f4 f4 de be 5e 52 1a bd 19 73 ba 3f
       0.90899915 -0.4354626 -0.037676208 1.4566375
0000c0 4a d7 0c 40 0d b7 0c bf bc 4a b0 be c7 3a 8c 3f
       2.2006402 -0.54966813 -0.34432018 1.0955437
0000d0 b5 60 1a bf 94 7b 0b be 75 5d 15 bf 2c 76 06 bf
       -0.60303813 -0.1362136 -0.5834573 -0.52524066
0000e0 bf ff 2a be f2 cf d6 be 59 92 f1 be 87 d9 3f bf
       -0.16699122 -0.41955525 -0.47181967 -0.74941295
0000f0 59 b7 c2 be 14 2d fe 3e 76 55 b4 be 44 ff 83 be
       -0.38030508 0.49643767 -0.35221452 -0.2578069
000100 91 59 6e 3f 62 16 ad be eb 1a 10 3e bc 84 b4 3f
       0.9310542 -0.3380614 0.14072768 1.4103007
000110 db a1 02 40 e5 ef dc be 4c e2 8e be fa f3 96 3f
       2.0411289 -0.43151775 -0.27907026 1.1793206
000120 51 72 44 bf 96 87 0d 3e b9 89 e1 be e1 bb ba be
       -0.76736933 0.13821253 -0.44050387 -0.36471465
000130 32 98 8c be ba 69 ba be cd 49 a8 be bd 9f 4e bf
       -0.27459866 -0.36408788 -0.32868806 -0.8071249
000140 a8 a7 92 bf 7a d7 31 3f cc 7b 65 bf f7 17 25 bf
       -1.1457415 0.69469416 -0.89642024 -0.6448969
000150 4c ef 7f 3f 96 86 a4 bf 83 e5 e6 3c 26 7c cc 3f
       0.99974513 -1.2853572 0.028185612 1.5975387
000160 fc 41 b6 3f f7 51 b0 bf fb fc 77 bf ab 74 8c 3f
       1.4238887 -1.3775014 -0.9687039 1.0973104
000170 f0 56 9c bf 80 e5 5b 3e e9 da 99 bf 60 73 b1 bf
       -1.2214031 0.21474266 -1.2019931 -1.3863335
000180 ef d5 07 bf 57 d8 9b bf 92 d8 ae bf c8 a8 6a bf
       -0.5306081 -1.2175397 -1.3659842 -0.9166379
000190 d8 00 8a 3e 9b 64 37 bf 5a 21 ae 3e e7 5d f4 3e
       0.2695377 -0.71637887 0.3400982 0.47727892
0001a0 f0 69 83 bf 13 9f 79 3e d4 8f 3b 3e a8 e4 9e bf
       -1.0266705 0.24377088 0.18316585 -1.241353
0001b0 d9 c2 fe bf 11 c4 8e 3e 14 3e 85 3e 1c dd 92 bf
       -1.9903213 0.27883962 0.26023924 -1.1473727
0001c0 83 fe 10 3f d3 87 b7 3d 3d 21 b1 3e 53 b0 84 3e
       0.56638354 0.08961453 0.3459567 0.25915775
0001d0 74 4c fd 3e fb da 81 3e 28 da 7a 3e 34 b4 3c 3f
       0.49472392 0.2536238 0.24497283 0.7371247
0001e0 96 6d 4d bf 46 95 1e 3f 4b d3 13 bf 26 74 ff be
       -0.8024534 0.61946523 -0.5774428 -0.49893302
0001f0 e9 15 89 3f e8 7b 5e bf 80 15 ac bd 85 a6 d5 3f
       1.0709811 -0.86907816 -0.08402538 1.6691443
000200 68 8b ef 3f ca e0 73 bf 8a f6 22 bf bf a4 9c 3f
       1.8714418 -0.95264876 -0.6365744 1.2237777
000210 45 d7 78 bf e8 da 47 be e9 b5 55 bf 66 c4 75 bf
       -0.97203475 -0.195171 -0.834807 -0.96002805
000220 8a 84 b3 be 1c 66 4e bf 77 23 76 bf 0b 10 3b bf
       -0.35062057 -0.80624557 -0.96147865 -0.73071355
000230 c5 80 88 3e 29 7e 34 bf cb c1 b6 3e 6c b6 fb 3e
       0.26660743 -0.70505005 0.35694727 0.49162614
000240 e0 b0 96 bf c0 e7 83 3e 77 26 b3 bd 4a 6d c9 bf
       -1.1772728 0.2576275 -0.08747571 -1.5736477
000250 dc 82 04 c0 6f 88 a0 3e 8b 65 85 3e 24 54 9c bf
       -2.070487 0.3135409 0.26054034 -1.2213178
000260 af 9a 49 3f 68 5b 7e 3d ea 7e b3 3e b0 43 9b 3e
       0.78751653 0.06209889 0.35057765 0.3032508
000270 db dc f1 3e 36 63 4f 3e 6f 82 88 3e cb 51 54 3f
       0.47238812 0.2025269 0.26662013 0.82937306
000280 87 20 a3 3e a6 d2 4f bf d3 e7 b3 3e 9b 97 24 3f
       0.31860754 -0.811808 0.35137805 0.6429383
000290 b4 6f 98 bf 68 78 96 3e a7 2d 04 bd a2 be d1 bf
       -1.1909089 0.29388738 -0.0322701 -1.6386302
0002a0 85 a4 05 c0 c0 c8 9b 3e 94 53 71 3e fc b9 a1 bf
       -2.0881665 0.30426598 0.23567039 -1.2634883
0002b0 d5 ae 3a 3f c8 dc ab bd 7d 0b ae 3e 09 e6 92 3e
       0.7292302 -0.0839172 0.3399314 0.28691128
0002c0 cf d3 08 3f bf 8a a2 3e 9f 8b 63 3e b3 dd 40 3f
       0.53448194 0.3174648 0.2222123 0.75338286
0002d0 8a 45 84 3e 77 70 85 bf 68 f2 c9 3e b6 ef 1b 3f
       0.25834304 -1.0424947 0.39442754 0.60912645
0002e0 f1 cb a8 bf 41 a7 8d 3e 91 ab 2d 3d 86 87 c1 bf
       -1.3187238 0.27666667 0.042399947 -1.5119483
0002f0 36 70 18 c0 fe 9e b0 3e cb 72 97 3e 9a d7 b1 bf
       -2.3818488 0.344963 0.29579768 -1.3893921
000300 c9 52 33 3f f0 a1 2e be 1d c3 a5 3e 54 d7 ac 3e
       0.70048195 -0.17053962 0.32375422 0.33758032
000310 d8 21 2b 3f e1 1c ab 3e 21 87 c3 3e 59 a3 2a 3f
       0.66848516 0.3342047 0.38189033 0.666555
000320 94 d7 84 3e 4a 2d 53 bf 79 c0 bf 3e 2f 99 f4 3e
       0.25945723 -0.8249098 0.37451532 0.4777312
000330 78 74 94 bf 8f 13 62 3e 3d 83 83 bd 8a d0 b6 bf
       -1.1598043 0.22077774 -0.06421516 -1.4282391
000340 02 60 05 c0 3d 55 b2 3e ec f7 90 3e 18 f1 94 bf
       -2.0839849 0.34830657 0.2831415 -1.1636076
000350 31 96 21 3f ed 17 43 be ab 88 90 3e 16 68 96 3e
       0.631198 -0.19052096 0.2822927 0.29376286
000360 5f 33 ec 3e c8 6d 63 3e 2d 7d 9e 3e 77 73 2a 3f
       0.46132943 0.22209847 0.30954877 0.66582435
000370 3e 4c 9a 3e 32 21 2a bf 97 d3 a6 3e 56 3e dd 3e
       0.30136293 -0.664569 0.32583305 0.4321162
000380 42 fb 67 bf 77 ca 2c 3e 52 b1 36 be da b4 ab bf
       -0.90617764 0.16874109 -0.1784108 -1.3414567
000390 67 f9 ef bf a8 6a 9f 3e 0a 2a 51 3e 3d 32 8a bf
       -1.8747987 0.3113606 0.20426193 -1.0796582
0003a0 79 33 3d 3f c4 77 74 bd b4 c9 7b 3e 4b 16 95 3e
       0.73906666 -0.05968453 0.24588662 0.2911857
0003b0 0d 9f d7 3e 87 b0 80 3e 00 f8 73 3e 0a 1b 33 3f
       0.42113534 0.2513468 0.23825073 0.69963133
0003c0 86 99 99 3e 24 7c 0f bf 9f b2 b9 3e bf ac f8 3e
       0.29999942 -0.560488 0.3626909 0.48569295
0003d0 8d 7f 83 bf 02 20 44 3e 8e 70 07 bd 24 18 b1 bf
       -1.02733 0.19152835 -0.033066325 -1.3835492
0003e0 32 8b ef bf 41 f7 8e 3e e3 89 4c 3e aa e5 8b bf
       -1.8714354 0.27923015 0.19974475 -1.0929463
0003f0 f6 c2 3b 3f 3e fa 0e 3e 08 fa a4 3e e6 5b 47 3e
       0.7334436 0.13962647 0.3222201 0.1946865

bias f4 [20]
000000 ee ab ec bc 37 c1 8e bb 2b 8d 2f 3d 10 cd ea 3c
       -0.028890576 -0.004356529 0.042859238 0.028662235
000010 b6 ed 82 3d 2f 78 02 bc e7 63 4f 3d 80 c8 b6 b9
       0.06392996 -0.007963224 0.050632384 -0.0003486313
000020 a7 48 90 bb 11 91 c2 bc 74 6f 92 bb e2 56 33 bb
       -0.004403192 -0.023750814 -0.0044688527 -0.0027365019
000030 e4 d8 86 bb 62 49 91 3d 01 ea e6 bb a8 7f 88 3d
       -0.004115211 0.07094075 -0.0070469384 0.066649735
000040 de eb 24 bb cf f3 6f 3d 6d 71 2f bc 29 e7 ef bb
       -0.0025165002 0.058582123 -0.010708195 -0.0073212576

weight f4 [2, 20]
000000 28 f8 1b c0 ad 75 ef bf 52 62 b1 40 f0 fc 98 40
       -2.4370213 -1.8707787 5.543252 4.780876
000010 28 af 09 41 58 61 09 c0 1a 27 c8 40 58 05 08 c0
       8.605263 -2.1465664 6.254773 -2.1253262
000020 1e 0d 08 c0 80 9f 0a c0 ab f5 fa bf 05 2e 10 c0
       -2.1258006 -2.165985 -1.9606222 -2.2528088
000030 35 2d fd bf 42 81 0c 41 4c 1e 01 c0 80 f3 0d 41
       -1.9779421 8.781557 -2.0174742 8.871948
000040 7a 64 13 c0 3a b0 01 41 ef 4e 10 c0 35 d1 04 c0
       -2.3030076 8.105524 -2.2548177 -2.075269
000050 31 6a 14 40 1d 7a 11 40 4f df b2 c0 cf 9e 9d c0
       2.3189814 2.2730782 -5.5897593 -4.925636
000060 e3 a4 0d c1 d6 cd ff 3f f8 3f bf c0 fd a8 fe 3f
       -8.852756 1.9984691 -5.9765587 1.9895321
000070 cb 89 07 40 52 1a 0c 40 34 c6 10 40 dd d9 0c 40
       2.1177852 2.1891065 2.2620974 2.2007973
000080 eb 2e 0a 40 98 19 0d c1 13 aa 11 40 4b 03 0f c1
       2.1591136 -8.818748 2.2760055 -8.938304
000090 f0 a7 12 40 eb 7a ff c0 82 f6 0a 40 60 9e 0a 40
       2.2915 -7.9837546 2.1712956 2.1659164

bias f4 [2]
000000 0c d2 31 3f 9e b1 1c bf
       0.6946113 -0.6120852
