classifier/test_dual_CNN.pt (torch, 69447 bytes, 10 tensors)

weight f4 [6, 2, 3, 3]
0.1769022 0.18473504 -0.088639945 -0.31354 -0.16616136 0.18528405 0.1663329 0.02931385
0.35014462 0.056607787 -0.07951455 0.11795736 0.019892147 0.003288595 0.36429515 -0.047498867
0.18789047 -0.18785454 -0.30392888 -0.13952069 -0.031491823 -0.054387342 0.2503549 0.37699404
-0.14933307 -0.3124192 -0.05975629 -0.14623536 0.075620756 -0.014177911 -0.17872661 0.122205585
0.26954955 -0.10200548 0.15658903 -0.07857295 -0.21751472 -0.15111595 -0.34326524 -0.3786052
-0.19672634 -0.1554741 -0.23267311 0.015900113 0.07303334 0.33855465 0.088528335 -0.16818573
0.15537193 0.0691232 0.34050795 0.08946991 0.2945359 0.14896072 -0.09240292 -0.32704958
-0.24287966 0.13069554 0.2365487 0.16381748 0.07121763 -0.22030684 0.19978918 0.20145503
0.4015543 0.20016731 -0.021128532 0.19192588 0.21380778 0.07531264 0.09559148 0.2384245
-0.1354698 -0.37813646 -0.26284498 0.10167904 0.14097963 -0.22210021 0.103709504 0.32342872
-0.15342198 -0.26602772 -0.09282822 -0.027246 0.029816981 -0.02238517 0.098507926 -0.1404885
-0.19755349 -0.0938666 -0.17738211 -0.041260134 0.16308706 0.08360129 -0.10038718 0.24205494
-0.013265589 -0.06394682 -0.03418587 0.074324474 0.41486457 -0.007075079 0.07871327 0.2839718
0.427572 0.0408949 0.13409805 0.14959976
00000000: da25 353e 2f2b 3d3e dc88 b5bd 5188 a0be
00000010: 3426 2abe 1abb 3d3e 2c53 2a3e 9923 f03c
00000020: 2846 b33e 91dd 673d 86d8 a2bd a193 f13d
00000030: dbf4 a23c 7885 573b e584 ba3e 2c8e 42bd
00000040: 5c66 403e f15c 40be 919c 9bbe 83de 0ebe
00000050: 92fd 00bd 43c5 5ebd 842e 803e 5d05 c13e
00000060: c5ea 18be 69f5 9fbe 03c3 74bd b9be 15be
00000070: 0edf 9a3d 784a 68bc 1c04 37be ec46 fa3d
00000080: 6602 8a3e 40e8 d0bd e058 203e dbea a0bd
00000090: 2ebc 5ebe 24be 1abe 76c0 afbe 8ad8 c1be
000000a0: a172 49be 9a34 1fbe dc41 6ebe f440 823c
000000b0: 8192 953d 0957 ad3e 584e b53d e138 2cbe
000000c0: d219 1f3e 7790 8d3d 0f57 ae3e 003c b73d
000000d0: 69cd 963e 2989 183e be3d bdbd 0b73 a7be
000000e0: 72b5 78be 0dd5 053e d339 723e c5bf 273e
000000f0: 8cda 913d 1e98 61be 8995 4c3e 3a4a 4e3e
00000100: 8698 cd3e a9f8 4c3e be15 adbc 3888 443e
00000110: 6df0 5a3e 833d 9a3d 77c5 c33d 8d25 743e
00000120: 98b8 0abe 1a9b c1be 9e93 86be 1a3d d03d
00000130: f75c 103e 3d6e 63be a665 d43d 7398 a53e
00000140: a71a 1dbe c934 88be b91c bebd 0133 dfbc
00000150: be42 f43c 1b61 b7bc 86be c93d 38dc 0fbe
00000160: 764b 4abe 223d c0bd a8a3 35be 6300 29bd
00000170: 4b00 273e 2737 ab3d cb97 cdbd 40dd 773e
00000180: ea57 59bc 8df6 82bd 7c06 0cbd 6e37 983d
00000190: 2169 d43e 10d6 e7bb 6c34 a13d c064 913e
000001a0: b8ea da3e 6981 273d 0051 093e ae30 193e

bias f4 [6]
-0.12253609 0.0151536 0.04994864 -0.0528193 0.03714711 -0.1495808
00000000: 34f4 fabd ce46 783c f296 4c3d 0d59 58bd
00000010: 9127 183d b62b 19be

weight f4 [16, 6, 3, 3]
0.2421476 0.033691525 -0.04475055 -0.14059946 0.1054792 0.10520401 -0.094873235 0.1086885
-0.051432416 0.11438754 -0.013382951 -0.0192411 -0.015212452 -0.14036262 0.02100035 -0.15538293
0.0759776 -0.05508028 0.026786266 -0.033997107 -0.16942096 -0.10192445 -0.050880842 -0.15693784
0.02130408 -0.07872237 -0.117802 -0.06800625 0.23501326 -0.019164724 -0.080379896 0.12115488
-0.007779261 -0.13289279 -0.088251255 0.030716646 -0.018547336 -0.10425255 -0.04089552 -0.079117335
-0.007251576 -0.1271681 0.096918866 -0.057505723 0.0480983 0.102324456 0.2511187 -0.13200282
-0.27173415 -0.029471064 -0.084565334 -0.12481839 0.10380847 -0.0620345 -0.085092075 0.1433677
0.03850875 0.03774971 -0.05931145 0.14663582 -0.06939949 0.08741832 0.0040103495 -0.036558613
0.196253 -0.18283144 -0.0058341525 0.010538034 0.13910788 0.12654187 -0.1028593 -0.030899033
-0.18473442 0.031307664 -0.12347373 -0.10255412 -0.090650216 0.08045946 0.075399406 -0.055895075
0.029284732 -0.15433453 0.1127512 -0.12609704 0.028670091 -0.047031946 0.123847075 0.055246882
0.016161552 -0.024527136 -0.022960596 0.074640885 -0.006157451 -0.06877918 0.13129579 0.098702304
-0.051191844 -0.065384194 0.15654986 -0.19637278 -0.03373934 -0.16385601 -0.068288065 -0.12399244
-0.018754914 0.21637781 -0.22024526 0.10426333 -0.02351076 0.010568918 -0.17718434 -0.011638054
0.09062676 0.031433858 -0.023616953 0.082192615 0.27708215 0.073677205 0.05275353 -0.12175104
-0.051799353 -0.12961516 -0.03731586 -0.016383858 -0.06279814 -0.062598646 0.16322607 0.10103766
-0.056688197 0.03518576 -0.13246718 -0.021889891 -0.00082712347 -0.11687741 -0.047235835 0.11906153
0.07178577 -0.05616405 0.052063942 -0.12220092 0.13292143 -0.1041817 -0.10915852 -0.01172931
-0.13421103 0.1840352 -0.078875914 0.087690175 -0.07726468 -0.018037762 0.045430813 0.039780047
-0.0254806 0.15163577 0.2253172 -0.04029588 -0.039119583 -0.060253296 -0.16472445 0.050635852
-0.08687645 0.13777365 -0.033183865 0.17233273 -0.06891408 -0.04243602 0.027837718 -0.1732699
0.017164826 -0.053301703 0.046628773 -0.079864725 0.1521683 -0.011371937 -0.05841873 -0.076150626
0.10055548 0.17695105 -0.08531117 -0.04040879 0.035410605 0.2098436 -0.007761906 -0.15314354
0.058536045 -0.06352742 -0.13536818 -0.1561062 -0.14552428 -0.020371214 0.10292044 0.14708556
-0.07144692 0.12698387 -0.09094912 0.14052683 -0.064492635 0.09696669 0.14268547 -0.0731786
-0.06005153 0.09748194 -0.030353567 -0.08190885 0.064296424 -0.03573316 0.009944789 0.04768705
0.20610337 0.07275696 -0.10207132 -0.027393889 -0.08663559 -0.016350443 -0.030748015 -0.11160333
-0.11792793 0.06702766 0.013432482 -0.004583489 -0.1091368 0.13106585 0.10959071 -0.09206281
0.15479717 0.0015633582 0.16956028 -4.920134e-05 0.11991353 -0.11849242 -0.012862702 -0.020354874
0.07686953 0.17923115 -0.09509197 0.013423888 0.04759785 -0.038796816 -0.104478225 -0.10467656
-0.03920426 -0.15689178 -0.10836681 -0.07238886 -0.018362613 -0.052628696 -0.09911072 -0.120132886
0.14034978 0.042061053 -0.10227994 -0.038316783 0.0460659 -0.090004556 -0.21409027 0.010876248
00000000: 8af5 773e 2000 0a3d 5a4c 37bd 4ef9 0fbe
00000010: 7b05 d83d 3375 d73d e64c c2bd 1498 de3d
00000020: ccaa 52bd 0444 ea3d 2a44 5bbc 839f 9dbc
00000030: a63d 79bc 38bb 0fbe ed08 ac3c b41c 1fbe
00000040: 259a 9b3d dc9b 61bd df6e db3c 8d40 0bbd
00000050: b07c 2dbe c4bd d0bd 6e68 50bd 50b4 20be
00000060: e585 ae3c 3239 a1bd 2d42 f1bd dc46 8bbd
00000070: 51a7 703e 57ff 9cbc 379e a4bd 0d20 f83d
00000080: 2ce9 febb 0c15 08be 13bd b4bd 7aa1 fb3c
00000090: 95f0 97bc 5c82 d5bd 1082 27bd 4508 a2bd
000000a0: a19e edbb 5b38 02be 667d c63d 1f8b 6bbd
000000b0: b902 453d 7c8f d13d a192 803e bf2b 07be
000000c0: bd20 8bbe 4d6d f1bc 9730 adbd c9a0 ffbd
000000d0: 8999 d43d e317 7ebd c144 aebd fbce 123e
000000e0: 5abb 1d3d 719f 1a3d 90f0 72bd b327 163e
000000f0: 5221 8ebd 6008 b33d 4069 833b 7cbe 15bd
00000100: 8cf6 483e 2a38 3bbe 6b2c bfbb b8a7 2c3c
00000110: 4c72 0e3e 3194 013e e6a7 d2bd f81f fdbc
00000120: 052b 3dbe 773c 003d ccdf fcbd e507 d2bd
00000130: d2a6 b9bd eec7 a43d 016b 9a3d 3cf2 64bd
00000140: 89e6 ef3c df09 1ebe 1aea e63d 951f 01be
00000150: 8add ea3c 92a4 40bd 89a3 fd3d 8e4a 623d
00000160: 3b65 843c 22ed c8bc dc17 bcbc 52dd 983d
00000170: 71c4 c9bb 19dc 8cbd 6772 063e 6f24 ca3d
00000180: 8aae 51bd 26e8 85bd 9b4e 203e f215 49be
00000190: 4332 0abd dfc9 27be 9dda 8bbd c0ef fdbd
000001a0: e8a3 99bc 2592 5d3e f987 61be 0388 d53d
000001b0: a399 c0bc 4129 2d3c d06f 35be 89ad 3ebc
000001c0: 869a b93d cac0 003d 5778 c1bc 9a54 a83d
000001d0: b6dd 8d3e 13e4 963d 1614 583d 9c58 f9bd
000001e0: 8f2b 54bd d6b9 04be 84d8 18bd 7137 86bc
000001f0: 509c 80bd b833 80bd bc24 273e d5ec ce3d
00000200: e231 68bd f21e 103d 7aa5 07be 6e52 b3bc
00000210: 51d3 58ba 6c5d efbd 5d7a 41bd 88d6 f33d
00000220: 6b04 933d 460c 66bd 0041 553d 7a44 fabd
00000230: 8e1c 083e 375d d5bd 818e dfbd 4b2c 40bc
00000240: 9e6e 09be b973 3c3e b289 a1bd e896 b33d
00000250: f23c 9ebd eec3 93bc a915 3a3d 67f0 223d
00000260: b1bc d0bc 6846 1b3e 8db9 663e 4b0d 25bd
00000270: db3b 20bd 29cc 76bd 87ad 28be 8a67 4f3d
00000280: 48ec b1bd 8914 0d3e ceeb 07bd fe77 303e
00000290: d322 8dbd 64d1 2dbd ed0b e43c aa6d 31be
000002a0: 409d 8c3c e352 5abd d0fd 3e3d 1e90 a3bd
000002b0: 02d2 1b3e 5c51 3abc 7a48 6fbd dcf4 9bbd
000002c0: 08f0 cd3d a832 353e 9fb7 aebd b083 25bd
000002d0: b60a 113d 3ee1 563e 9657 febb a9d1 1cbe
000002e0: 7ec3 6f3d aa1a 82bd f59d 0abe 4eda 1fbe
000002f0: 5104 15be 88e1 a6bc f4c7 d23d 999d 163e
00000300: c352 92bd 0f08 023e 8843 babd 44e6 0f3e
00000310: b714 84bd 7996 c63d 241c 123e a9de 95bd
00000320: 98f8 75bd 9da4 c73d 0ba8 f8bc d4bf a7bd
00000330: d8ad 833d ef5c 12bd 78ef 223c 7f53 433d
00000340: c30c 533e 9a01 953d c50a d1bd 2669 e0bc
00000350: 006e b1bd 5df1 85bc 43e3 fbbc 4990 e4bd
00000360: 3384 f1bd cc45 893d ea13 5c3c 1831 96bb
00000370: 1d83 dfbd 2036 063e 1871 e03d 6d8b bcbd
00000380: 2683 1e3e 99e9 cc3a 36a1 2d3e 895d 4eb8
00000390: 3a95 f53d 27ac f2bd 15be 52bc 44bf a6bc
000003a0: c66d 9d3d 5f88 373e 94bf c2bd deef 5b3c
000003b0: f7f5 423d 69e9 1ebd aef8 d5bd aa60 d6bd
000003c0: a594 20bd 3da8 20be 6bef ddbd 9c40 94bd
000003d0: 316d 96bc 3091 57bd 90fa cabd 3b08 f6bd
000003e0: dab7 0f3e 3648 2c3d 2578 d1bd 0ff2 1cbd
000003f0: 99af 3c3d 4f54 b8bd 7b3a 5bbe 4a32 323c

bias f4 [16]
0.04078503 -0.0008873576 -0.048637044 -0.018462822 0.0016982835 -0.047841318 0.02667552 -0.09952331
0.075410515 -0.07073228 -0.17527042 -0.08942284 0.04110337 -0.01719424 -0.11548791 -0.13669057
00000000: 340e 273d 8f9d 68ba a337 47bd 583f 97bc
00000010: f098 de3a 42f5 43bd 9f86 da3c e1d2 cbbd
00000020: d470 9a3d 16dc 90bd 177a 33be 5223 b7bd
00000030: 025c 283d efda 8cbc ed84 ecbd 9df8 0bbe

weight f4 [80, 144]
0.019460155 0.09301441 -0.015381237 0.099471666 -0.055664763 0.0099710515 -0.047035318 -0.06496623
0.059452675 -0.07961406 -0.0849828 -5.049371e-05 0.08015076 -0.0054698964 0.006095424 0.089272864
0.11193534 -0.01563724 0.033168722 -0.04597303 -0.08798102 -0.05541125 -0.101412 0.025921483
0.02128042 -0.019530168 0.098582454 0.08617904 0.05414452 -0.03253351 -0.035855398 -0.05620115
0.11575088 -0.017990595 0.0029989677 0.08268067 0.09453516 -0.0051732888 0.03317115 -0.08714641
0.031558443 0.09330323 -0.073994674 0.04883635 0.05610051 0.0035426149 -0.043213043 -0.0049243034
-0.03694716 -0.025210831 -0.11165987 -0.10654134 0.08968315 0.026130231 -0.0056038587 -0.056693394
-0.034126874 0.0034498125 0.028357135 0.019320365 -0.04728611 0.056333892 0.019164296 0.019074457
-0.012624974 0.02950488 0.04404535 0.006189136 -0.0043445295 0.07383683 -0.045484204 -0.06959292
-0.019237872 0.08876354 0.10485089 -0.002558939 0.059934553 -0.009174408 0.00057019223 -0.019132605
0.027980072 0.06643774 -0.043577645 -0.028527452 0.07462084 -0.02246615 0.04220236 0.018089224
0.010954745 0.052121643 0.03366213 0.019641843 -0.030958863 -0.08584675 -0.04578713 0.019018667
-0.043863337 -0.109339185 -0.033958267 0.07295235 0.060402054 0.029952211 0.018651025 -0.021187445
0.0020489385 -0.03836393 0.058085434 0.06840909 -0.109632544 0.09596387 -0.0003287076 0.031842586
-0.030738257 0.06945763 -0.002968906 -0.043889973 0.015939016 -0.08058133 0.06259719 0.01636757
-0.0055867825 -0.0052925157 0.07611747 0.030249555 0.10169536 0.0025272982 0.11679152 0.015153629
-0.039057788 -0.0670208 -0.027699973 0.010846007 0.021036195 -0.08578677 0.039192773 -0.042401787
-0.051556226 -0.01930716 0.05270021 0.06447315 0.038041998 -0.040911958 0.02726211 0.075997986
-0.026501067 0.04095832 0.04817824 -0.009939855 0.06084694 0.02695805 0.02624254 0.087430984
0.02950036 -0.08248305 0.019110175 -0.030090721 0.010608449 -0.07182264 0.10296023 0.025548749
0.08397018 -0.039027795 -0.0072512017 0.04188115 -0.010939298 -0.024266332 0.0088968 0.059295896
0.0123293465 -0.052557617 0.029367441 0.076165065 -0.016780438 -0.06104121 0.001645141 0.048464082
0.03771544 -0.042167008 0.07492632 -0.022813207 0.14905648 -0.054384783 -0.08893249 -0.06470654
0.094167896 -0.008923213 0.066836484 -0.0624993 0.10950779 0.11337412 0.032373372 -0.094668984
0.086264364 -0.0024300562 -0.08640735 0.046503536 0.08672164 0.022018684 -0.036394637 0.017195437
-0.0062807444 0.05134613 -0.03254694 -0.09625381 0.07210083 -0.00788681 -0.05601919 -0.035277415
0.005133642 -0.07384837 -0.05676139 0.08890044 -0.028572405 0.027348652 0.012728121 0.002321348
-0.059107948 -0.02238737 0.03343652 0.084902585 -0.03603742 0.054822717 0.038743515 -0.06363463
0.093084686 -0.05011822 -0.16413328 0.015696345 0.0421289 -0.08011642 0.050017692 -0.005655024
0.11194865 0.041573618 0.10241896 0.049917635 -0.085848495 -0.12573665 0.025576472 0.07689662
-0.055156156 -0.08855588 0.025134476 0.04525979 0.0016459909 -0.09146945 0.032485016 0.08392292
0.025674174 0.047741365 -0.067546785 0.017603414 -0.12414853 0.043633215 -0.091244176 0.0013455038
00000000: e76a 9f3c 577e be3d 9501 7cbc cdb7 cb3d
00000010: bc00 64bd 9f5d 233c 1ba8 40bd 040d 85bd
00000020: a684 733d b20c a3bd 760b aebd 35c9 53b8
00000030: 1526 a43d d13c b3bb 1fbc c73b b1d4 b63d
00000040: 5b3e e53d ab19 80bc eddb 073d 374e 3cbd
00000050: 652f b4bd e8f6 62bd 18b1 cfbd 4a59 d43c
00000060: 4654 ae3c bbfd 9fbc 99e5 c93d a37e b03d
00000070: a5c6 5d3d dc41 05bd 1cdd 12bd 2d33 66bd
00000080: cc0e ed3d 0361 93bc 548a 443b 7c54 a93d
00000090: a69b c13d b184 a9bb 79de 073d d179 b2bd
000000a0: 6d43 013d c415 bf3d 858a 97bd a008 483d
000000b0: a6c9 653d 372b 683b 2900 31bd 0d5c a1bb
000000c0: e855 17bd f286 cebc eead e4bd 5932 dabd
000000d0: cdab b73d 110f d63c 93a0 b7bb 5537 68bd
000000e0: 9fc8 0bbd 4016 623b 394d e83c be45 9e3c
000000f0: 15af 41bd 5ebe 663d 71fe 9c3c 0942 9c3c
00000100: fbd8 4ebc 38b4 f13c e668 343d 3cce ca3b
00000110: 8e5c 8ebb c437 973d a54d 3abd bc86 8ebd
00000120: be98 9dbc a9c9 b53d 10bc d63d dfb3 27bb
00000130: ef7d 753d 4250 16bc f478 153a fbbb 9cbc
00000140: 7736 e53c 8310 883d 797e 32bd 67b2 e9bc
00000150: d0d2 983d ee0a b8bc 62dc 2c3d da2f 943c
00000160: 887b 333c 817d 553d 4de1 093d eee7 a03c
00000170: 719d fdbc 6cd0 afbd 498b 3bbd 09cd 9b3c
00000180: 0baa 33bd 39ed dfbd d317 0bbd 0b68 953d
00000190: 2568 773d 575e f53c 09ca 983c 4b91 adbc
000001a0: 7c47 063b 7f23 1dbd feea 6d3d 111a 8c3d
000001b0: 0787 e0bd b588 c43d 6356 acb9 5f6d 023d
000001c0: ccce fbbc cd3f 8e3d fa91 42bb f9c5 33bd
000001d0: 8a92 823c d307 a5bd f532 803d 4815 863c
000001e0: 5411 b7bb d76c adbb 7ae3 9b3d eacd f73c
000001f0: a845 d03d 07a1 253b 6430 ef3d ed46 783c
00000200: 0ffb 1fbd 3442 89bd 0eeb e2bc 73b3 313c
00000210: 1954 ac3c f9b0 afbd 9a88 203d 7fad 2dbd
00000220: 9f2c 53bd 0d2a 9ebc 2ddc 573d 800a 843d
00000230: edd1 1b3d 4c93 27bd ca54 df3c d5a4 9b3d
00000240: c418 d9bc e9c3 273d 8c56 453d c6da 22bc
00000250: a43a 793d 21d7 dc3c 98fa d63c 040f b33d
00000260: bdaa f13c e0ec a8bd f18c 9c3c d180 f6bc
00000270: 0fcf 2d3c c017 93bd d0dc d23d 9c4b d13c
00000280: 8ff8 ab3d 9cdb 1fbd 7d9b edbb 928b 2b3d
00000290: be3a 33bc 30ca c6bc e2c3 113c 41e0 723d
000002a0: 0701 4a3c a846 57bd fd93 f03c 6efc 9b3d
000002b0: 2177 89bc 5906 7abd c6a1 d73a 4682 463d
000002c0: 817b 1a3d 50b7 2cbd f872 993d c3e2 babc
000002d0: 43a2 183e 94c2 5ebd 3d22 b6bd dd84 84bd
000002e0: 19db c03d ab32 12bc 91e1 883d 44ff 7fbd
000002f0: 9f45 e03d b130 e83d f199 043d d0e1 c1bd
00000300: 5fab b03d 9441 1fbb 56f6 b0bd 7e7a 3e3d
00000310: 1d9b b13d 8760 b43c 8b12 15bd 72dd 8c3c
00000320: b4ce cdbb 5250 523d f14f 05bd b820 c5bd
00000330: 9aa9 933d ae37 01bc 6174 65bd 0d7f 10bd
00000340: 1c38 a83b d03d 97bd a27e 68bd 6f11 b63d
00000350: ad10 eabc 480a e03c 9c89 503c c221 183b
00000360: 2d1b 72bd b865 b7bc bbf4 083d 68e1 ad3d
00000370: f99b 13bd c98d 603d 85b1 1e3d df52 82bd
00000380: 2fa3 be3d c348 4dbd 8e12 28be 9f95 803c
00000390: 5a8f 2c3d 1414 a4bd 5adf 4c3d c84d b9bb
000003a0: 5545 e53d 1949 2a3d 08c1 d13d 6f76 4c3d
000003b0: 56d1 afbd 1cc1 00be c085 d13c fa7b 9d3d
000003c0: 6ceb 61bd c95c b5bd d1e6 cd3c 5462 393d
000003d0: 4abe d73a 5654 bbbd 020f 053d c8df ab3d
000003e0: a552 d23c 738c 433d f855 8abd 0935 903c
000003f0: 9641 febd beb8 323d 3ade babd 9e5b b03a

bias f4 [80]
-0.045231607 0.055859033 -0.019753726 0.08724396 0.018707762 0.006236835 0.019351065 0.020592513
-0.08870366 0.05479767 -0.028980397 -0.02747482 0.045461733 0.008214066 0.0009845452 0.06941562
0.0430124 0.0035566234 -0.03621242 0.060635395 0.0073937243 -0.06475013 0.04560414 0.030342583
0.031652085 -0.059247456 0.05777675 0.0679742 -0.022574082 0.07247858 -0.00089698855 -0.04441767
0.034642342 0.024709279 0.036926143 -0.023309918 0.012244073 0.035305288 0.03566153 -0.001490894
-0.0739169 0.016008398 -0.042948067 0.059325814 -0.06663679 0.077025436 0.04580975 -0.031656563
0.11835753 0.03965148 0.07681485 -0.05490463 -0.057394143 0.07196355 0.040646464 -0.058808897
-0.040166747 0.007519466 0.07215727 -0.0641806 0.07096816 0.10104428 0.010589124 -0.036787476
0.011016245 0.02229428 -0.03822455 0.018285656 0.06588935 0.03759147 0.018001497 0.047697976
-0.041006938 -0.06343014 0.007883892 -0.04893807 0.06366263 -0.059462667 0.07541209 -0.07876025
00000000: c744 39bd 71cc 643d 91d2 a1bc f6ac b23d
00000010: 0541 993c 5d5e cc3b 2086 9e3c a1b1 a83c
00000020: 44aa b5bd 8673 603d 4c68 edbc e012 e1bc
00000030: 1536 3a3d 4a94 063c db0b 813a c729 8e3d
00000040: c52d 303d 3d16 693b 7953 14bd d25c 783d
00000050: 0e47 f23b b79b 84bd 68cb 3a3d 0291 f83c
00000060: 9ea5 013d 76ad 72bd 50a7 6c3d 0f36 8b3d
00000070: 48ed b8bc a66f 943d e223 6bba 4eef 35bd
00000080: 21e5 0d3d 1d6b ca3c de3f 173d 71f4 bebc
00000090: 5d9b 483c 479c 103d d311 123d 1a6a c3ba
000000a0: be61 97bd 0b24 833c 50ea 2fbd a0ff 723d
000000b0: df78 88bd 83bf 9d3d 01a3 3b3d 50aa 01bd
000000c0: 6f65 f23d 9769 223d 1b51 9d3d ade3 60bd
000000d0: 1f16 6bbd a061 933d e87c 263d 99e1 70bd
000000e0: e385 24bd da65 f63b 31c7 933d 1e71 83bd
000000f0: c157 913d 4ef0 ce3d 017e 2d3c 77ae 16bd
00000100: 7b7d 343c 7ea2 b63c 5991 1cbd cdcb 953c
00000110: fff0 863d 83f9 193d e077 933c f45e 433d
00000120: e4f6 27bd a9e7 81bd 712b 013c 4973 48bd
00000130: 8e61 823d 208f 73bd a771 9a3d 0e4d a1bd

weight f4 [40, 80]
0.016494378 0.12867291 0.12384716 0.19559692 -0.098747484 0.0068057296 0.19343409 -0.008940297
-0.05305289 -0.046318453 0.124906436 0.18184344 -0.066112585 0.1270084 0.06859633 -0.07963508
-0.06006243 -0.055820353 0.07549085 -0.103256315 0.20535971 0.07615338 0.023878677 -0.057838954
-0.090825826 -0.025563743 0.16465145 0.011359557 0.0012579341 -0.01134047 0.054210592 -0.08161784
0.10343995 0.20087154 -0.029440582 0.075116396 0.18878527 -0.021502316 0.11277515 0.105641186
-0.008945091 -0.054546 0.17492798 0.028399011 -0.087239176 0.08087414 0.039824426 -0.065171055
0.00889164 -0.0573588 0.2069362 -0.08786262 0.074473724 0.0012595359 -0.09458711 -0.013221706
-0.14469835 0.014402762 0.08478726 -0.15556638 0.21035117 0.17083368 0.11370982 -0.09346123
0.071861066 0.08717757 -0.08028872 -0.009032408 0.064376965 0.1059279 0.09455954 0.02517208
-0.03722128 -0.05376506 -0.103525124 -0.08954331 -0.06710315 -0.14933012 0.118061766 -0.03066112
0.066321954 0.108762555 0.06565575 -0.0057527744 0.054883335 -0.021864602 0.05656562 0.08563329
-0.03138099 -0.005532976 -0.007407305 0.19855143 -0.09033648 0.054216944 0.22209874 -0.016097277
-0.09439487 -0.13853063 0.114623 -0.10755516 0.21667922 0.13340054 -0.09063446 -0.09278233
0.014426516 -0.08501586 0.1324609 -0.022405982 0.10813548 0.067404024 0.022468528 -0.08818117
-0.005841717 0.1571434 -0.0065506706 0.09416213 0.025969401 -0.066355415 0.20197505 0.0011295142
-0.06374996 -0.13070159 0.14359418 -0.083386876 0.009235553 0.13747832 0.093289696 -0.10240464
0.10658024 0.0194385 0.16676663 -0.058451887 0.0024219716 0.00483916 0.050868288 -0.07244854
-0.00023657044 0.14584069 -0.05056568 0.03068336 0.14378728 0.018147314 0.19119318 -0.04500457
0.08706399 0.0936396 0.040624887 -0.09912936 -0.012107728 0.0024380623 0.058575526 0.20982733
0.07155291 -0.06828222 -0.050476357 0.0625572 -0.073599726 -0.13756278 0.10566629 -0.13405214
-0.15350968 0.0052316445 -0.027362935 -0.14014281 0.10710473 -0.070717044 -0.0077090426 -0.019734738
-0.032803718 0.06598892 -0.06330011 0.0064683375 0.055058043 -0.16775806 -0.19480407 0.127594
0.003236772 0.10171544 -0.04108967 0.14880015 -0.11096641 -0.067446224 0.023183668 0.12466438
-0.014078443 -0.04948793 -0.0038101256 0.053885806 -0.00079630106 0.21091822 0.051779598 0.2067788
0.053242207 -0.08716576 0.09455503 0.06883062 0.03622114 0.010347436 -0.1647381 -0.12737516
0.009268837 0.16451885 -0.14335449 0.16739619 0.08166355 0.0143081965 -0.049004804 -0.024077378
0.10503579 0.18458927 0.0054365844 0.17728509 0.07140339 0.053257775 0.012279404 0.020268088
0.08653648 0.012607161 0.022534555 0.045464884 -0.10072698 -0.109315544 -0.116079494 0.078638785
0.014258573 -0.030266065 0.145191 0.12762688 0.035704482 0.019478016 0.02742683 -0.15496829
0.092087045 -0.055826087 0.091601886 -0.079252034 0.14403097 0.0784164 -0.05447339 -0.011289745
0.036656037 0.0043349126 -0.048037622 0.05645057 -0.003088036 -0.11431208 -0.0034605954 0.16754453
0.040272806 0.07647013 0.049921177 -0.159967 0.15692812 0.00029875388 -0.005451207 0.025047215
00000000: 381f 873c d5c2 033e 94a3 fd3d 8f4a 483e
00000010: 1f3c cabd 9902 df3b 9613 463e 537a 12bc
00000020: fd4d 59bd 6bb8 3dbd f2ce ff3d 2b35 3a3e
00000030: 0966 87bd 7d0e 023e 3c7c 8c3d b817 a3bd
00000040: 0604 76bd e2a3 64bd f29a 9a3d 0c78 d3bd
00000050: d149 523e 4ef6 9b3d 379d c33c 8ae8 6cbd
00000060: e402 babd 0e6b d1bc 649a 283e 6f1d 3a3c
00000070: 44e1 a43a 61cd 39bc ed0b 5e3d 4127 a7bd
00000080: 53d8 d33d 45b1 4d3e 602d f1bc a0d6 993d
00000090: ed50 413e a025 b0bc a8f6 e63d 685a d83d
000000a0: 6e8e 12bc a06b 5fbd 5220 333e 0ba5 e83c
000000b0: 74aa b2bd 57a1 a53d f01e 233d 6778 85bd
000000c0: 3eae 113c 10f1 6abd 15e7 533e 51f1 b3bd
000000d0: ae85 983d 0317 a53a e3b6 c1bd db9f 58bc
000000e0: ce2b 14be 90f9 6b3c f1a4 ad3d cb4c 1fbe
000000f0: 4c66 573e 06ef 2e3e b2e0 e83d 9a68 bfbd
00000100: e52b 933d 278a b23d 6a6e a4bd aafc 13bc
00000110: 12d8 833d baf0 d83d 6fa8 c13d ae35 ce3c
00000120: 5775 18bd c038 5cbd fb04 d4bd 7c62 b7bd
00000130: 606d 89bd ffe9 18be 5eca f13d 072d fbbc
00000140: ced3 873d e7be de3d 8676 863d c581 bcbb
00000150: 59cd 603d 651d b3bc 5ab1 673d 8260 af3d
00000160: 5a89 00bd f74d b5bb fab8 f2bb 1151 4b3e
00000170: 5502 b9bd 9612 5e3d da6d 633e 70de 83bc
00000180: 1952 c1bd f9da 0dbe 77bf ea3d e145 dcbd
00000190: 28e1 5d3e 279a 083e 8f9e b9bd aa04 bebd
000001a0: 325d 6c3c cc1c aebd d5a3 073e c08c b7bc
000001b0: 2276 dd3d 1f0b 8a3d eb0f b83c 5498 b4bd
000001c0: e06b bfbb 33ea 203e 02a7 d6bb 13d8 c03d
000001d0: c8bd d43c 59e5 87bd 8cd2 4e3e 350c 943a
000001e0: 578f 82bd a3d6 05be 5a0a 133e bdc6 aabd
000001f0: b850 173c 1ec7 0c3e ab0e bf3d 86b9 d1bd
00000200: be46 da3d 7d3d 9f3c dfc4 2a3e 3f6b 6fbd
00000210: f1b9 1e3b d191 9e3b 445b 503d e65f 94bd
00000220: e50f 78b9 4357 153e f51d 4fbd ab5b fb3c
00000230: f93c 133e ada9 943c 25c8 433e b656 38bd
00000240: 9b4e b23d 1ec6 bf3d 4866 263d 5504 cbbd
00000250: 7e5f 46bc e6c7 1f3b e4ec 6f3d fadc 563e
00000260: 558a 923d 8cd7 8bbd 4cc0 4ebd fd1d 803d
00000270: 74bb 96bd 42dd 0cbe 9167 d83d f744 09be
00000280: a431 1dbe 376e ab3b 3c28 e0bc 9981 0fbe
00000290: ba59 db3d 19d4 90bd 239c fcbb bfaa a1bc
000002a0: 315d 06bd 3325 873d 7da3 81bd 59f4 d33b
000002b0: 8b84 613d c5c8 2bbe b87a 47be 00a8 023e
000002c0: 0620 543b 2f50 d03d a44d 28bd 115f 183e
000002d0: 5b42 e3bd 3f21 8abd adeb bd3c 0a50 ff3d
000002e0: 45a9 66bc dbb3 4abd 4db3 79bb 5db7 5c3d
000002f0: dcbe 50ba f2fa 573e d816 543d d2bd 533e
00000300: 8014 5a3d f683 b2bd 11a6 c13d 11f7 8c3d
00000310: 9e5c 143d 4b88 293c 1bb1 28be a26e 02be
00000320: 52dc 173c a177 283e 85cb 12be e869 2b3e
00000330: 383f a73d ed6c 6a3c 43b9 48bd ec3d c5bc
00000340: 011d d73d f804 3d3e 6025 b23b 398a 353e
00000350: f13b 923d d324 5a3d 8e2f 493c 4309 a63c
00000360: 0a3a b13d 448e 4e3c 639a b83c 6339 3a3d
00000370: f249 cebd d4e0 dfbd 16bb edbd 5f0d a13d
00000380: ca9c 693c 8af0 f7bc f3ac 143e 9fb0 023e
00000390: dd3e 123d 5c90 9f3c 3bae e03c 02b0 1ebe
000003a0: 2298 bc3d e5a9 64bd c599 bb3d e44e a2bd
000003b0: db7c 133e c798 a03d 7d1f 5fbd 9ff8 38bc
000003c0: a424 163d e20b 8e3b 19c3 44bd b638 673d
000003d0: a660 4abb 741c eabd 28cb 62bb cb90 2b3e
000003e0: 19f5 243d 5f9c 9c3d 267a 4c3d 64ce 23be
000003f0: c4b1 203e 11a2 9c39 0aa0 b2bb d12f cd3c

bias f4 [40]
-1.9112586e-05 -0.033532836 0.06095278 0.026486145 0.026249485 0.008051996 0.015976662 0.094796374
0.08462287 0.031005146 0.09670197 -0.026311874 -0.036336347 -0.020307003 -0.05873129 -0.08830154
-0.033260632 0.103999965 -0.0044658775 -0.02773381 0.020955676 0.014884056 0.09332719 -0.05102027
0.08372562 -0.0056787934 -0.02321804 -0.01758255 -0.028058657 -0.041980036 -0.0349356 0.06420758
-0.0586696 0.05754064 0.08523929 -0.0137773575 0.020849742 0.11921006 0.10184227 0.112939864
00000000: f753 a0b7 ba59 09bd 9fa9 793d 79f9 d83c
00000010: 2909 d73c 85ec 033c 7de1 823c 9a24 c23d
00000020: c14e ad3d 81fe fd3c af0b c63d 008c d7bc
00000030: 6cd5 14bd df5a a6bc 3990 70bd 70d7 b4bd
00000040: 4d3c 08bd effd d43d 7f56 92bb 0432 e3bc
00000050: 3dab ab3c 41dc 733c 5322 bf3d a1fa 50bd
00000060: 5678 ab3d 2c15 babb c233 bebc 4809 90bc
00000070: 45db e5bc 42f3 2bbd a218 0fbd 447f 833d
00000080: 894f 70bd bcaf 6b3d f091 ae3d 6dba 61bc
00000090: 14cd aa3c 6724 f43d ae92 d03d 044d e73d

weight f4 [2, 40]
-0.32561764 -0.23776673 0.21459234 0.22284186 -0.2657676 -0.14377765 0.1619098 -0.24381305
0.2436336 0.19400506 -0.21646401 -0.29594502 0.09718655 0.2039677 0.05418735 -0.058030438
0.00822465 0.06385387 0.112092115 0.15901406 -0.08920441 0.26538447 -0.17270134 -0.2695905
0.10042803 -0.25970772 0.072730504 0.23671757 0.20161162 -0.0030067654 0.2563337 0.009356464
0.090375945 -0.20319228 0.069866925 -0.30516872 -0.29261845 0.10801167 -0.035323583 -0.2391523
0.21890186 0.19183725 -0.024961134 -0.1744826 0.2152283 0.33170354 -0.07754892 0.26888078
-0.14652412 -0.11814923 0.2585291 0.15103117 -0.23217979 -0.21230592 -0.1448147 -0.048607394
-0.31063178 -0.18437295 -0.29337808 -0.2475898 0.2671123 -0.09746898 0.20963937 0.050445966
-0.2223352 0.08191581 -0.2672559 -0.18036677 -0.035317063 0.08734844 -0.2666922 -0.20396402
-0.117560335 0.19442867 -0.30086276 0.22527437 0.09455365 -0.10590664 0.26515093 0.120704345
00000000: 5bb7 a6be 1f79 73be 18be 5b3e a830 643e
00000010: b112 88be 733a 13be afcb 253e 21aa 79be
00000020: 167b 793e 43a9 463e bea8 5dbe 1b86 97be
00000030: be09 c73d e9dc 503e 8ef3 5d3d 53b1 6dbd
00000040: afc0 063c d1c5 823d 8d90 e53d 95d4 223e
00000050: cdb0 b6bd 79e0 873e 9fd8 30be c407 8abe
00000060: 36ad cd3d 69f8 84be bbf3 943d 1766 723e
00000070: 4773 4e3e 270d 45bb 2c3e 833e db4b 193c
00000080: 0617 b93d a311 50be 6416 8f3d 133f 9cbe
00000090: 16d2 95be 3935 dd3d 76af 10bd 57e4 74be
000000a0: cf27 603e fc70 443e 4b7b ccbc 91ab 32be
000000b0: cf64 5c3e 0cd5 a93e f8d1 9ebd beaa 893e
000000c0: 6b0a 16be 39f8 f1bd ed5d 843e eaa7 1a3e
000000d0: 8ac0 6dbe b966 59be 4e4a 14be 8c18 47bd
000000e0: 210b 9fbe 43cc 3cbe a735 96be 2e88 7dbe
000000f0: f2c2 883e d19d c7bd b4ab 563e 6ea0 4e3d
00000100: d7ab 63be 7ac3 a73d c4d5 88be 11b2 38be
00000110: a0a8 10bd bde3 b23d e18b 88be f2db 50be
00000120: 79c3 f0bd 4f18 473e af0a 9abe 53ae 663e
00000130: 58a5 c13d 95e5 d8bd ddc1 873e d733 f73d

bias f4 [2]
-0.119976275 0.06330393
00000000: 1fb6 f5bd 7ea5 813d
