classifier/test_CNN.pt (torch, 69255 bytes, 10 tensors)

weight f4 [6, 1, 3, 3]
0	0x3f04c179	0.51857716
1	0x3eb223d2	0.34792954
2	0x3e86247e	0.26199716
3	0xbe2c06f1	-0.16799523
4	0xbdac3314	-0.0840818
5	0x3e8c93db	0.27456555
6	0x3b7bd9c1	0.0038429352
7	0xbec6eb46	-0.38851374
8	0x3ea5bfdd	0.32372943
9	0xbd20fe7c	-0.039305195
10	0xbef3c7ca	-0.47613364
11	0xbef29af1	-0.47383836
12	0x3ddeff67	0.10888558
13	0x3e31d976	0.17368111
14	0x3de3d131	0.111238845
15	0x3e91ab06	0.28450793
16	0x3dac6221	0.08417154
17	0x3ba648ed	0.0050746114
18	0xbef61728	-0.48064542
19	0xbef379eb	-0.47553954
20	0xbef496de	-0.47771353
21	0xbe9cdc0f	-0.3063664
22	0xbde974ef	-0.113992564
23	0xbec47bd3	-0.3837572
24	0x3b0aa99f	0.002115823
25	0x3e155f90	0.14587235
26	0x3ebf4af4	0.37361872
27	0xbd8cb069	-0.06869585
28	0xbe536e6d	-0.20647593
29	0xbdf46adb	-0.119344436
30	0xbd8f51db	-0.069980346
31	0xbdca5001	-0.09878541
32	0xbf182318	-0.5942855
33	0xbe4b59d2	-0.19858482
34	0xbeb41c7f	-0.3517799
35	0xbeaea591	-0.34110692
36	0xbf23aee8	-0.6393876
37	0xbecf7b8a	-0.4052394
38	0xbed0a177	-0.40748188
39	0x3dd0f45e	0.10202859
40	0x3e1a9dc9	0.15099253
41	0x3e334621	0.17507221
42	0x3d43fa66	0.04784622
43	0x3cd24ee5	0.025672385
44	0x3e02472a	0.1272246
45	0xba99c5d1	-0.0011731928
46	0xbf11d976	-0.56972444
47	0xbe866c5f	-0.26254556
48	0x3d607038	0.05479452
49	0x3d32e98e	0.043679766
50	0xbebc0d95	-0.36729112
51	0x3950a008	0.00019896042
52	0x3a8c01bf	0.0010681673
53	0x3e1c6eaa	0.1527659

bias f4 [6]
0	0x3e2086ae	0.15676376
1	0xbd0b1489	-0.03395513
2	0x3a43e31c	0.00074725016
3	0xbbd3337d	-0.006445347
4	0xbb03f5ea	-0.002013559
5	0xb9188ab6	-0.00014547523

weight f4 [16, 6, 3, 3]
0	0xbcc90716	-0.024539512
1	0x3df091e7	0.11746579
2	0x3d69407c	0.056946263
3	0x3e0fd8ef	0.14047597
4	0x3d0fe2bd	0.035128344
5	0x3df3189b	0.118699275
6	0x3d22f74f	0.039786633
7	0x3ce5a4c6	0.028032672
8	0xbcfda269	-0.030961232
9	0xbc06a7e0	-0.008218735
10	0xbeb6d0b5	-0.35706106
11	0xbd3dfe5c	-0.046385154
12	0xbe5ee8a9	-0.2176844
13	0xbda282fb	-0.07935139
14	0xbe56bf6f	-0.20971464
15	0xbc886038	-0.016647443
16	0x3cc6f937	0.024288757
17	0x3e801ce3	0.2502204
18	0xbe679d46	-0.22618589
19	0xbe951cd7	-0.29123566
20	0xbe350e99	-0.1768135
21	0xbcf00274	-0.029298045
22	0x3d2cf589	0.042226348
23	0xbd97472f	-0.07386624
24	0x3d1f7b38	0.03893587
25	0x3d086aed	0.033305097
26	0xba85623a	-0.0010176369
27	0xbe4ccd72	-0.20000246
28	0xbe4972b1	-0.19672658
29	0xbe343495	-0.17598183
30	0x3d3f3056	0.046676956
31	0x3d2838ea	0.041069902
32	0x3d28f6a9	0.04125086
33	0x3e5fd97e	0.2186031
34	0x3e149153	0.14508562
35	0x3d22e870	0.03977245
36	0xbde2eeda	-0.110807136
37	0xbe3a44db	-0.18190329
38	0xbdd12e5b	-0.1021392
39	0xbd7d946e	-0.06190913
40	0xbd355b67	-0.04427662
41	0xbd26110a	-0.040543593
42	0x3c96154a	0.018320698
43	0x3e321b3f	0.17393206
44	0xbc85d352	-0.016336117
45	0xbe2172ae	-0.15766403
46	0xbe813044	-0.25232136
47	0xbe7d1662	-0.2471557
48	0xbdaecbb0	-0.08534944
49	0xbc6c78cd	-0.014433098
50	0xbe2c473f	-0.16824053
51	0x3dd85bdc	0.10564396
52	0x3e190520	0.14943361
53	0x3e035541	0.1282549
54	0xbde04fa6	-0.10952692
55	0xbe2928fa	-0.16519538
56	0xbe1adbf8	-0.15122974
57	0xbdbf9d1d	-0.09356139
58	0xbe2c0df7	-0.16802202
59	0xbe242827	-0.16030942
60	0x3c9c0050	0.019043118
61	0xbdea391a	-0.114366725
62	0xbdc07446	-0.093971774
63	0x3c60f477	0.01373016
64	0x3e2efcfe	0.17088696
65	0x3e018c41	0.12651159
66	0xbd79fd43	-0.061032545
67	0x3e26f698	0.16305006
68	0x3e0954e8	0.13411295
69	0x3e07af93	0.1325057
70	0x3dd72cc1	0.10506583
71	0xbcdc0892	-0.026859555
72	0x3e19fa79	0.15036954
73	0x3e51b58b	0.2047941
74	0x3e11386c	0.1418168
75	0xbd616429	-0.05502716
76	0x3cee6b2d	0.02910384
77	0x3e43c3a5	0.19117601
78	0xbddc4204	-0.10754779
79	0xbdd24ae1	-0.10268188
80	0xbe2005ff	-0.15627287
81	0x3d9c8239	0.076420255
82	0xbba66aed	-0.0050786645
83	0x3e216b2b	0.15763538
84	0xbd587245	-0.05284335
85	0x3c3dbb4d	0.0115803005
86	0xbd11856e	-0.03552764
87	0xbd8f8315	-0.07007424
88	0xbd8760d1	-0.06610263
89	0xbd16e6e7	-0.0368413
90	0x3cc99b23	0.024610108
91	0xbd957a7f	-0.07298755
92	0x3cd2d7c6	0.025737654
93	0x3d100133	0.035157394
94	0xbc066f30	-0.00820522
95	0x3e05b8e1	0.13058807
96	0xbca18cdf	-0.019720493
97	0xbc128175	-0.008941998
98	0xbe31fd40	-0.17381763
99	0xbd8eed01	-0.06978799
100	0x3d8e8186	0.069582984
101	0x3dc2f70d	0.095197774
102	0xbd41a801	-0.04727936
103	0x3ded6316	0.11591165
104	0x3cb48482	0.02203584
105	0xbd2d9c3a	-0.042385317
106	0xbb9d794c	-0.0048057195
107	0x3d2c41af	0.04205483
108	0x3d0f89a3	0.03504337
109	0xbd3b7f05	-0.045775432
110	0xbd972398	-0.07379836
111	0xbda57636	-0.080791876
112	0xbc5c9bf5	-0.013464917
113	0xbd5ec264	-0.054384604
114	0xbd822955	-0.0635554
115	0xbc10f520	-0.008847505
116	0xbdc60bab	-0.09670194
117	0x3d0bc9e2	0.034128077
118	0x3e819ffe	0.25317377
119	0xbd4594f0	-0.04823774
120	0xbe70ffe5	-0.23535116
121	0xbe83e4a1	-0.25760368
122	0xbe43e5b5	-0.19130595
123	0xbd984530	-0.074350715
124	0x3e14b1d5	0.14520963
125	0xbda0d5e9	-0.078533
126	0x3e742f6f	0.2384622
127	0xbcb195cb	-0.021677872
128	0xbd7878c5	-0.06066205
129	0xbc8a3753	-0.016872084
130	0xbd60fbaf	-0.054927524
131	0xbe751a48	-0.23935807
132	0xbdd5f931	-0.1044792
133	0x3e4303c9	0.19044413
134	0x3d877588	0.06614214
135	0x3da4ba79	0.08043379
136	0xbd87e579	-0.06635565
137	0xbe0f10cc	-0.13971251
138	0x3b9cc047	0.0047836634
139	0xbd074cdb	-0.03303228
140	0xbd16a4d7	-0.036778297
141	0xbe34a88e	-0.17642424
142	0x3e7dc30a	0.24781433
143	0xbc371130	-0.011173531
144	0x3e649651	0.22322966
145	0xbd6f4cd3	-0.058422875
146	0xbcfbc7fa	-0.030735005
147	0x3ca0ea87	0.019643081
148	0xbde1f861	-0.11033703
149	0xbe54b318	-0.20771444
150	0x3cd2d2f5	0.025735358
151	0x3d51cae8	0.051218897
152	0x3dbf6b33	0.093466185
153	0x3e5232e7	0.2052723
154	0x3dc92472	0.098214045
155	0x3b889421	0.004168049
156	0xbdacf30d	-0.08444796
157	0xbe437544	-0.19087702
158	0xbd8100a5	-0.06298951
159	0xbc152eb1	-0.00910537
160	0x3ea42d71	0.3206592
161	0xbdb81c3d	-0.08989761
162	0xbccafd72	-0.024779055
163	0x3cab7e80	0.020934343
164	0xbd508197	-0.050904837
165	0xbc8cc0b5	-0.017181734
166	0x3c86138e	0.016366746
167	0xbd09f9e6	-0.033685587
168	0x3d253360	0.0403322
169	0x3d3fadbb	0.04679654
170	0xbd3cfc33	-0.046138953
171	0x3e7c3de0	0.24632978
172	0xbd17e717	-0.03708562
173	0x3dd7359d	0.10508273
174	0x3db71af0	0.08940685
175	0xbd889242	-0.066685215
176	0x3e6f48f0	0.23367667
177	0x3d9b27e2	0.075759664
178	0x3a037e45	0.0005016069
179	0xbdd9c5de	-0.10633443
180	0x3e055784	0.13021666
181	0xbdbcb294	-0.092137486
182	0xbdabc1a1	-0.08386541
183	0x3dadc656	0.08485095
184	0xbe29c492	-0.16578892
185	0x3e55c9c2	0.20877746
186	0x3be80d17	0.0070816386
187	0xbc8d196a	-0.017224032
188	0xbda5a081	-0.08087254
189	0x3d925c42	0.07146503
190	0xbcfa340f	-0.030542402
191	0x3e1567c2	0.14590362
192	0xbc8cb7d4	-0.0171775
193	0xbe17ddb7	-0.14830671
194	0x3c5fe688	0.013665803
195	0xbd0f7d38	-0.035031527
196	0x3db01c05	0.08599094
197	0x3d8558aa	0.06511052
198	0xbc89ad9f	-0.016806422
199	0xbdf49f86	-0.11944489
200	0xbd720d71	-0.05909485
201	0x3dcb01af	0.099124305
202	0xbdf39cbd	-0.1189513
203	0x3e07361b	0.13204233
204	0x3d4df146	0.050278924
205	0xbd401160	-0.04689157
206	0xbe6faff1	-0.2340696
207	0x3cfd8504	0.030947216
208	0xbd7a21e2	-0.06106747
209	0x3d7d2ee9	0.061812315
210	0x3d6b6204	0.05746652
211	0xbe55ecff	-0.20891188
212	0x3de4fc49	0.11180932
213	0x3e87ec27	0.26547357
214	0xbe0572d9	-0.13032092
215	0xbe2f5bc5	-0.17124851
216	0xbdcd319f	-0.1001923
217	0x3cf66d5c	0.030081443
218	0xbc186e3f	-0.0093036285
219	0xbba7a9d4	-0.0051166806
220	0xbdc22e89	-0.09481532
221	0xbdbcc5d5	-0.09217421
222	0xbdcfdde7	-0.101497464
223	0x3b8aba49	0.0042336327
224	0xbd04a8e3	-0.032387625
225	0xbd5bcbb4	-0.053661063
226	0x3e43eee1	0.19134094
227	0xbd950b95	-0.072776
228	0xbca46365	-0.020066926
229	0xbe4689b2	-0.19388464
230	0x3cbd1f24	0.023086138
231	0xbd0c8967	-0.034310725
232	0xbcabc5f2	-0.020968411
233	0x3e288ac8	0.16459191
234	0xbe0fd4f5	-0.1404608
235	0x3d8b33aa	0.067969635
236	0x3e240a8e	0.16019651
237	0x3d80d515	0.06290642
238	0xbdaa7715	-0.08323494
239	0x3e211230	0.15729594
240	0xbe09a826	-0.1344305
241	0xbcb26bf3	-0.02177999
242	0x3d474da0	0.048658013
243	0xbd6641a2	-0.056214936
244	0x3e124bf1	0.14286782
245	0x3cc41cb1	0.023939462
246	0x399d141c	0.00029960356
247	0xbcd9363d	-0.02651512
248	0x3e19fee5	0.15038641
249	0xbcb94ace	-0.022618677
250	0xbd545e5f	-0.05184781
251	0xbd1b46c2	-0.037909277
252	0xbdb32581	-0.08747388
253	0x3e259d2f	0.16173242
254	0x3ddbcb1f	0.10732102
255	0xbd5fd422	-0.054645665

bias f4 [16]
0	0xbd9d837a	-0.07691093
1	0xbd2cb86d	-0.04216807
2	0x3c853223	0.016259259
3	0xbd7cba50	-0.06170112
4	0xbbcffb66	-0.0063471077
5	0xbd720c6a	-0.05909387
6	0xbd9bae80	-0.076016426
7	0xbe28802e	-0.16455147
8	0xbd437d60	-0.04772699
9	0xbd9739e1	-0.073840864
10	0xbdece6f3	-0.115674876
11	0xbda9fdbf	-0.08300351
12	0x3d13b0cb	0.036057275
13	0xbc8e9226	-0.017403673
14	0x3d3cbaf5	0.046076734
15	0x3e0df46b	0.1386277

weight f4 [80, 144]
0	0x3da69773	0.081343554
1	0xbba02dbd	-0.004888265
2	0x3cae3b19	0.021268414
3	0xbcda7f18	-0.026671931
4	0x3d94cad3	0.07265248
5	0x3d5992ec	0.05311863
6	0xbd591f21	-0.053008202
7	0xbd2819f7	-0.041040387
8	0xbc616028	-0.013755836
9	0x3cce7233	0.025200939
10	0x3dbb3291	0.09140504
11	0x3d7dda05	0.061975498
12	0xbc856893	-0.016285216
13	0xbd9b4ebe	-0.07583378
14	0x3d5345ba	0.05158017
15	0x3d12c648	0.035833627
16	0x3cf86706	0.030322563
17	0x3ce94ec3	0.02847994
18	0x3ab601a7	0.001388599
19	0xbce017ad	-0.02735504
20	0xbd96a17a	-0.07355018
21	0xbc2cc003	-0.010543826
22	0x3c068ebd	0.008212742
23	0xbceed9eb	-0.029156646
24	0x3cc33471	0.023828717
25	0x3d792c4e	0.060833268
26	0x3d9f41a5	0.077761926
27	0x3dad2d1f	0.08455872
28	0xbc64c7a8	-0.013963617
29	0xbdaa4ed8	-0.083158195
30	0x3c303d7c	0.0107568465
31	0x3d927f61	0.07153202
32	0x3e14b4f4	0.14522153
33	0x3d25da80	0.04049158
34	0x3dcc0831	0.099625
35	0x3d58c19e	0.052919023
36	0x3bbd1cb8	0.005771246
37	0x3cf1f457	0.029535456
38	0xbd5d448f	-0.05402046
39	0xbd2a81fd	-0.041627873
40	0x3d3cffe9	0.046142492
41	0xbc02101f	-0.007938414
42	0x3d20f9d0	0.03930074
43	0x3db6aacd	0.089192964
44	0x3cfc08e4	0.030765958
45	0xbdbd90bc	-0.092561215
46	0x3d63474a	0.05548791
47	0x3da81c31	0.08208502
48	0x3db97ded	0.090572216
49	0x3e03556c	0.12825555
50	0xbd4033a9	-0.046924267
51	0xbbea2389	-0.0071453494
52	0xbc6c632f	-0.014427944
53	0xbda3ed2a	-0.0800422
54	0x3ca7aac4	0.02046717
55	0x3d15bc0e	0.036556296
56	0x3d967e35	0.07348291
57	0x3dbe8b0a	0.09303863
58	0xbc80a3f4	-0.015703179
59	0x3d4e9687	0.050436523
60	0xbd92edf1	-0.0717429
61	0x3cd4340c	0.025903724
62	0xbb2c02bd	-0.002624675
63	0xbd451d8e	-0.04812389
64	0x3dbeda2d	0.093189575
65	0x3dd5cde5	0.10439662
66	0x3d59aa96	0.0531412
67	0xbb26a73b	-0.0025429267
68	0x3d0d3a10	0.0344792
69	0x3df530a7	0.1197217
70	0x3e31f049	0.17376818
71	0xbdadf8c7	-0.08494716
72	0x3c602658	0.013681017
73	0xbc26b147	-0.010174102
74	0x3d350b4f	0.044200238
75	0x3d09b6ed	0.033621717
76	0x3d7c1546	0.061543725
77	0xbca366ac	-0.019946419
78	0x3c56fb46	0.013121432
79	0xbd59d923	-0.053185593
80	0x3da18523	0.07886722
81	0x3e52c1f7	0.20581804
82	0x3c4b4c4d	0.012408328
83	0x3d6f8b42	0.058482416
84	0x3e125349	0.14289583
85	0x3d78618d	0.060639907
86	0x3c86ce1c	0.016455702
87	0xbd2ab8a0	-0.04167998
88	0x3dc09172	0.094027415
89	0x3e03e873	0.12881641
90	0xbda49086	-0.08035378
91	0x3d9ad2c6	0.07559733
92	0xbc125860	-0.008932203
93	0x3d297a62	0.04137648
94	0xbab34197	-0.0013676164
95	0xbd8941d6	-0.0670201
96	0x3d36795c	0.04454933
97	0x3d9fd81e	0.07804893
98	0x3d996e37	0.07491725
99	0xbb3abac9	-0.002849268
100	0xbdbbd1fd	-0.091709115
101	0xbd6ecbb5	-0.05829974
102	0xbcc84cf9	-0.024450766
103	0xbbdc5dcc	-0.0067250486
104	0xbd3e0d29	-0.04639927
105	0x3d3ed522	0.046589978
106	0x3d9ea44a	0.077461794
107	0xbda942dd	-0.08264706
108	0x3e0dfd8b	0.1386625
109	0xbd6c64bc	-0.057713255
110	0xbc221239	-0.00989204
111	0xbd8ded2d	-0.06930003
112	0xbd75a54a	-0.059972085
113	0xbd76e8f5	-0.06028076
114	0xbd5c4d63	-0.05378474
115	0x3d7136b1	0.05889005
116	0x3b85a6c6	0.004078719
117	0xbd01a80f	-0.031654414
118	0xbd9e600f	-0.077331655
119	0xbaa45e30	-0.0012540277
120	0x3dc28927	0.09498816
121	0x3b2c9d65	0.0026338932
122	0xbb674ef2	-0.0035294858
123	0xbce4fa6a	-0.027951438
124	0xbd6f5856	-0.058433853
125	0xbc27b75a	-0.0102365855
126	0x3d878d1b	0.066187106
127	0x3c828749	0.01593365
128	0xbda4d77d	-0.08048914
129	0xbde92eb7	-0.11385863
130	0x3db6f888	0.08934122
131	0x3c6a83ee	0.014313681
132	0x3d15c45a	0.03656421
133	0x3ca721e4	0.020401902
134	0x3d527312	0.05137927
135	0xbd890ff8	-0.06692499
136	0xbd397a1b	-0.045282464
137	0x3dc8eb62	0.09810521
138	0x3d5f50e8	0.054520518
139	0x3d9e3c48	0.077263415
140	0x3d9dc779	0.07704062
141	0xbb49be3c	-0.0030783555
142	0x3d45cc85	0.04829075
143	0x3d7f41b1	0.062318508
144	0xbcf7172b	-0.030162415
145	0x3cb17bd7	0.021665497
146	0xbca73051	-0.020408781
147	0x3d4a99f8	0.049463242
148	0xbd50b622	-0.050954945
149	0xbbdbfe86	-0.006713691
150	0x3d77ca83	0.060495865
151	0x3d0e55d5	0.034749825
152	0xbde25c54	-0.110527664
153	0xbc4ef99a	-0.012632752
154	0x3cfffc8d	0.031248355
155	0x3a1bb154	0.0005939205
156	0xbd6d6340	-0.05795598
157	0xbcc48409	-0.02398874
158	0xbd2c8dc7	-0.042127397
159	0xbd61d911	-0.05513865
160	0x3d77d8cd	0.06050949
161	0xbd453ae9	-0.048151884
162	0x3bc94fdc	0.006143553
163	0x3bf66758	0.0075196438
164	0x3c7cb583	0.015424135
165	0x3d9bfd45	0.07616667
166	0x3c5ece6f	0.013599022
167	0x3da705d9	0.08155412
168	0xbd00b65b	-0.031423908
169	0xbca22e70	-0.019797534
170	0x3d880b9d	0.0664284
171	0x3d35992c	0.04433553
172	0x3c7f2328	0.015572347
173	0xbc246e78	-0.010036103
174	0x3dc0f9b9	0.09422631
175	0x3d853ea7	0.065060906
176	0x3d45b64b	0.04826955
177	0x3c90b4d4	0.01766435
178	0x3c6d365f	0.014478295
179	0x3d34faeb	0.044184607
180	0x3d866705	0.06562618
181	0xbda7d23e	-0.081943974
182	0xbd0d0597	-0.03442916
183	0x3d322828	0.043495327
184	0x3c8aa8d9	0.016926216
185	0x3da0b7ae	0.07847534
186	0x3ca713e0	0.02039522
187	0xbce02c47	-0.027364863
188	0xbdb6c7b5	-0.0892481
189	0x3d85209f	0.065003626
190	0xbd6d42e0	-0.057925105
191	0x3aabbcd8	0.0013102544
192	0xbcd363d6	-0.025804441
193	0xbd22d228	-0.039751202
194	0x3d2c64b7	0.042088237
195	0x3d15ec65	0.036602397
196	0x3c875c0d	0.016523385
197	0x3c05a92e	0.008158011
198	0x3df9c4bb	0.121957265
199	0x3d50eba5	0.051005978
200	0x3c906c24	0.01762969
201	0xbbd0676a	-0.006359984
202	0xbd57cbad	-0.052684475
203	0x3c953181	0.018212082
204	0xbd3a45c3	-0.045476686
205	0xbc08ca75	-0.008349051
206	0xbd0ae46b	-0.033909243
207	0x3dd63456	0.10459201
208	0xbd92fa4b	-0.07176646
209	0x3cdd0ad8	0.02698271
210	0xbd0ad264	-0.03389205
211	0xbc037bf5	-0.008025159
212	0x3b408d5d	0.0029381134
213	0x3ca0ea5c	0.019643001
214	0xbd9100d3	-0.07080235
215	0x3d2a5475	0.04158445
216	0x3cfe0424	0.031007834
217	0x3d6e794e	0.058221154
218	0xbd846467	-0.06464463
219	0x3c43f663	0.011960599
220	0xbd268161	-0.04065073
221	0xba7c9fb8	-0.0009636837
222	0x3af2f4c0	0.0018536076
223	0x3dfd87fe	0.12379454
224	0xbce131d1	-0.027489575
225	0x3c4747fd	0.012163159
226	0x3d6231b6	0.05522319
227	0xbcdf33bb	-0.027246347
228	0x3d319450	0.043354332
229	0xbd3d1672	-0.046163984
230	0xbcddc9b0	-0.027073711
231	0xbcd7b31d	-0.026330525
232	0x3d32e9c6	0.043679975
233	0xbc0e9d11	-0.00870444
234	0x3da7b839	0.081894346
235	0xbd1bf556	-0.038075767
236	0xbdbc7c00	-0.092033386
237	0xbce347fc	-0.027744286
238	0xbd4945c9	-0.049138818
239	0xbd1ec1cd	-0.03875904
240	0x3d635364	0.05549945
241	0x3cc5b458	0.024133846
242	0xbda11515	-0.07865349
243	0x3c8fa385	0.017534027
244	0x3d8de3f1	0.06928242
245	0xbdb34e8d	-0.08755217
246	0x3ca1a97a	0.019734133
247	0xbc087000	-0.008327484
248	0x3c7aba80	0.015303254
249	0xbd248e19	-0.040174577
250	0x3da82de9	0.08211882
251	0xbd72a782	-0.05924178
252	0x3df686be	0.12037419
253	0xbcae0fce	-0.02124777
254	0xbbe333e8	-0.006933678
255	0xbb919211	-0.0044424613

bias f4 [80]
0	0xbd94b3e9	-0.07260878
1	0x3cebdc01	0.02879143
2	0x3a133aec	0.0005616385
3	0xbdfe0dd4	-0.12404981
4	0xbd0b1722	-0.033957608
5	0xbdace6a5	-0.084424295
6	0xbdd81f5a	-0.10552855
7	0x3cdc34ae	0.026880588
8	0xbd1c5b3b	-0.03817294
9	0x3d933589	0.071879454
10	0x3bd73cf8	0.0065685473
11	0xbde19ae6	-0.11015873
12	0x3d293019	0.041305635
13	0x3d9e097a	0.07716651
14	0xbd1cb397	-0.038257208
15	0x3d35d5c0	0.0443933
16	0xbd26a558	-0.040685028
17	0xbb332daf	-0.0027340462
18	0xbd435339	-0.04768679
19	0x3d7f7e29	0.062376175
20	0x3c7d879b	0.015474225
21	0xbe03676d	-0.12832423
22	0xbdb90c8a	-0.09035595
23	0x3d3f048f	0.046635207
24	0xbdde3359	-0.108496375
25	0x3d65f650	0.056143105
26	0x3da1f8b9	0.07908768
27	0x3d40e53e	0.047093622
28	0x3d7c363b	0.061575156
29	0x3bf50c1a	0.0074782493
30	0x3dc9141d	0.098182894
31	0x3d89850b	0.06714829
32	0x3cdc838d	0.026918197
33	0xbd4af882	-0.0495534
34	0x3d296610	0.0413571
35	0x3d1a2118	0.037629217
36	0xbd9a12b7	-0.07523101
37	0x3d15a82c	0.036537334
38	0x3a88ad97	0.001042771
39	0x3d4b72d6	0.049670063
40	0x3cdc82f8	0.02691792
41	0xbdec7403	-0.11545565
42	0xbe043698	-0.12911451
43	0xbad5dea0	-0.0016316958
44	0x3d4dc467	0.050236132
45	0x3b51a2b7	0.0031987855
46	0x3d4a3cac	0.049374267
47	0x3d0fbcff	0.03509235
48	0xbddff4ff	-0.10935401
49	0x3d28d5ec	0.041219637
50	0xbd793cc5	-0.06084897
51	0x3d03dd71	0.032193605
52	0x3c6bcccd	0.01439209
53	0x3d3fddb9	0.04684231
54	0xbd31e5e1	-0.04343212
55	0x3db8d8bd	0.090257145
56	0x3cf20fa5	0.029548476
57	0x3b60b343	0.0034286536
58	0xbd9056f9	-0.07047839
59	0x3da0556f	0.07828795
60	0x3d9609ca	0.07326086
61	0x3cc6c057	0.024261637
62	0x3d93accd	0.072106935
63	0x3d0b5f93	0.034026694
64	0xbde6b0c0	-0.11264181
65	0x3dc20537	0.09473651
66	0x3c6850ca	0.014179418
67	0xbd71c3c9	-0.059024606
68	0x3d571070	0.05250591
69	0xbdb9cc59	-0.09072179
70	0x3d9d4a70	0.076802135
71	0x3cf9590f	0.030437974
72	0xbbace847	-0.005276713
73	0xba35aa4e	-0.00069299794
74	0xbcf0218b	-0.02931287
75	0x3ddadfd8	0.10687226
76	0x3b889aa6	0.004168826
77	0x3d2556c9	0.040365968
78	0x3d5189cb	0.0511568
79	0x3d8e1627	0.06937819

weight f4 [40, 80]
0	0x3e0f2e60	0.13982534
1	0x3b5fcb6b	0.0034148346
2	0x3c85a10e	0.016312148
3	0x3dbb1343	0.09134533
4	0x3d91a008	0.07110602
5	0x3e42b3af	0.19013856
6	0x3e1f49c1	0.15555479
7	0x3e63237b	0.22181503
8	0xbe250094	-0.16113502
9	0x3c6fe373	0.01464163
10	0xbd06b13e	-0.032883875
11	0xbcbda7e7	-0.023151351
12	0xbddd481f	-0.10804772
13	0x3d7a1cc2	0.06106258
14	0x3dcda882	0.10041906
15	0xbc05e428	-0.0081720725
16	0x3df73b52	0.12071861
17	0xbd8dd1be	-0.06924771
18	0xbc4ec54e	-0.012620283
19	0xbd5dde92	-0.054167338
20	0x3e32f239	0.17475213
21	0x3df6193c	0.12016532
22	0x3d78fdf0	0.06078905
23	0xbe084d63	-0.1331077
24	0x3e3129c4	0.17301089
25	0x3dec80f6	0.11548035
26	0x3cdc92af	0.026925413
27	0x3e3fa0d4	0.18713695
28	0xbddb757e	-0.10715769
29	0xbd83aec9	-0.06429822
30	0x3db27afc	0.08714864
31	0xbde59d86	-0.11211686
32	0xbd1b68ab	-0.037941616
33	0x3de634ca	0.112405375
34	0x3d39feab	0.045408886
35	0x3d29d575	0.041463334
36	0x3e117664	0.14205319
37	0x3e36b548	0.17842591
38	0x3de8f916	0.11375634
39	0x3dda9534	0.106729895
40	0x3e4952a2	0.19660428
41	0x3cad1a07	0.021130575
42	0x3d799b0d	0.060938884
43	0x3e043c44	0.12913615
44	0xbd9a69f1	-0.07539738
45	0x3ddaac4f	0.106773965
46	0x3db217a8	0.08695918
47	0x3c6e0598	0.014527701
48	0x3e0bf0b3	0.13666038
49	0xbe11af60	-0.14227057
50	0x3dd60444	0.10450032
51	0xbc2bd2e5	-0.010487293
52	0xbdfb2aac	-0.122639984
53	0xbd31406c	-0.043274328
54	0xbe0c219e	-0.13684699
55	0xbd34371f	-0.04399788
56	0xbd8de340	-0.0692811
57	0x3dbf37ee	0.093368396
58	0x3e498a15	0.1968158
59	0xbbc82825	-0.006108301
60	0xbd8633e9	-0.0655287
61	0x3d19ca8a	0.037546672
62	0x3c8b190b	0.016979715
63	0x3dc94010	0.09826672
64	0x3da0918d	0.078402616
65	0x3c4dac1b	0.01255324
66	0x3dfb6810	0.12275708
67	0x3e522dd9	0.20525302
68	0xbdb15bd3	-0.08660092
69	0x3e55ee38	0.20891654
70	0x3cb3f2c8	0.021966353
71	0xbd0321e7	-0.032014754
72	0xbe2883a7	-0.16456471
73	0xbcf87c5a	-0.030332733
74	0x3e33ce1b	0.17559092
75	0x3db31e06	0.08745961
76	0xbd4c3604	-0.0498562
77	0x3e181e5c	0.14855331
78	0x3d977a34	0.07396355
79	0xbd767586	-0.060170673
80	0x3e204e3c	0.15654844
81	0xbcd83e49	-0.026396887
82	0xbe3519bb	-0.17685597
83	0x3e3e3c98	0.18577802
84	0x3e3ca76c	0.18423241
85	0x3df62ec9	0.12020642
86	0xbc90df3f	-0.017684577
87	0x3e107535	0.14107211
88	0xbd369ae2	-0.0445813
89	0x3db34626	0.08753614
90	0xbe180845	-0.14846905
91	0x3bb37851	0.0054769893
92	0x3adb642c	0.0016738228
93	0xbcf50c32	-0.029913042
94	0x3dea0698	0.11427039
95	0xbdf9ad4b	-0.12191256
96	0x3d85241c	0.06501028
97	0xbdf91eb3	-0.121640585
98	0x3d912add	0.07088254
99	0xbd2a7d84	-0.041623607
100	0x3d0b32d8	0.033984035
101	0x3dbc0159	0.091799445
102	0x3de7cb68	0.113180935
103	0xbde15601	-0.11002732
104	0x3e46c9df	0.19412945
105	0x3e7038d4	0.23459178
106	0xbdc86b66	-0.097861096
107	0x3e2d4506	0.16920862
108	0xbdd8bed0	-0.105832696
109	0x3acc1e27	0.0015572951
110	0x3c07d2b3	0.008289981
111	0x3d52dbae	0.051479034
112	0xbe3ec4e5	-0.18629797
113	0x3da8da8a	0.08244808
114	0x3e4dc685	0.2009526
115	0xbd0cfc48	-0.03442028
116	0x3d9da8f8	0.07698244
117	0x3da50db3	0.080592535
118	0x3dda30fc	0.10653874
119	0x3e145258	0.14484537
120	0x3d9a8016	0.07543962
121	0x3d841238	0.064487875
122	0x3e45fd13	0.19334821
123	0x3e2ac87b	0.1667804
124	0xbdadd474	-0.08487788
125	0x3e67101b	0.22564737
126	0x3d9b2d5f	0.07577013
127	0xbc9998a0	-0.018749535
128	0x3c462d4c	0.012095761
129	0x3d5761a5	0.052583355
130	0x3d54ef1e	0.051985852
131	0x3e24c2cf	0.16089939
132	0xbe0209e8	-0.12699091
133	0x3c68d63b	0.014211233
134	0xbe0f8c7e	-0.14018437
135	0xbd1a79e8	-0.037713915
136	0xbde6bdd3	-0.11266675
137	0x3d822955	0.0635554
138	0x3e500340	0.2031374
139	0xbd6692e5	-0.056292433
140	0x3b8ec256	0.0043566627
141	0x3dd0e2dc	0.1019952
142	0x3de1870b	0.110120855
143	0x3d2aabeb	0.04166786
144	0x3e7263c3	0.23670869
145	0x3dd3984b	0.10331782
146	0x3d949caf	0.072564475
147	0x3e3f2de0	0.18669844
148	0x3df062fe	0.11737631
149	0x3e248cbd	0.16069312
150	0xbcec5f2e	-0.028853979
151	0x3db62ea4	0.08895615
152	0xbdf655b4	-0.12028065
153	0x3dcaec5a	0.09908362
154	0x3db93f2a	0.09045251
155	0xbd819307	-0.06326871
156	0x3d5c076e	0.053718023
157	0x3e028cd1	0.1274903
158	0x3e5764fb	0.21034615
159	0xbd41e150	-0.047334015
160	0xbde339d0	-0.11095011
161	0x3d3a11bd	0.045427073
162	0x3d619006	0.055068992
163	0xbe1305b3	-0.14357643
164	0xbde28536	-0.11060564
165	0xbe3580f6	-0.17724976
166	0xbdbc3837	-0.0919041
167	0xbdb2d2a3	-0.08731582
168	0x3e035e76	0.12829003
169	0xbe17f081	-0.14837839
170	0x3e42cbd8	0.19023073
171	0xbda8de46	-0.0824552
172	0x3e65da9e	0.22446677
173	0x3d750cb2	0.05982656
174	0xbdea64f1	-0.11445034
175	0x3e3962aa	0.18104044
176	0x3ceeaff4	0.029136635
177	0x3dbb18ca	0.091355875
178	0xbc581f48	-0.013191052
179	0x3e0cdffd	0.1375732
180	0xbd6e9d5c	-0.05825554
181	0xbe0d62fb	-0.1380729
182	0xbd049e88	-0.03237775
183	0x3e4f46b1	0.2024181
184	0xbda2a78c	-0.07942113
185	0xbd8b1ba4	-0.067923814
186	0x3e4ce68e	0.20009825
187	0xbbb7530f	-0.005594618
188	0xbd0fa49c	-0.035069093
189	0x3dc24dd2	0.09487499
190	0x3dd0fe59	0.10204763
191	0x3e2261b4	0.15857583
192	0x3e41b41a	0.1891636
193	0xbde73a19	-0.11290378
194	0x3d0e3b95	0.03472479
195	0x3dab621f	0.083683245
196	0xbe153ccd	-0.14573975
197	0xbddabeb9	-0.10680909
198	0x3c7f1abf	0.015570342
199	0xbe191a89	-0.14951529
200	0xbe2edecd	-0.17077179
201	0xbc86003a	-0.01635753
202	0xbd9ddaaa	-0.077077225
203	0xbe02062e	-0.1269767
204	0x3e52d268	0.20588076
205	0xbe04c53e	-0.12965867
206	0xbda921a6	-0.08258371
207	0x3e3d90d8	0.18512285
208	0xbdfbe697	-0.12299841
209	0x3dc270ce	0.09494172
210	0xbda30f37	-0.079618864
211	0x3d394ba9	0.04523817
212	0x3cbe642d	0.023241127
213	0x3d16ae32	0.03678722
214	0x3e1bc841	0.1521311
215	0x3e1ddf8d	0.15417309
216	0x3e2fec00	0.1717987
217	0xbd31f77a	-0.043448903
218	0xbd620905	-0.055184383
219	0x3d78dda1	0.060758237
220	0x3d9c6496	0.07636373
221	0xbdd59c53	-0.10430207
222	0x3bbad115	0.005701194
223	0xbdf3e85c	-0.119095534
224	0xbd8a56fd	-0.06754873
225	0x3ce73c2b	0.028226933
226	0x3c31b1dd	0.010845629
227	0x3c979d85	0.018507728
228	0xbd0b329d	-0.033983815
229	0xbdfc6534	-0.123239905
230	0x3e26e575	0.16298468
231	0x3e3db1e4	0.18524891
232	0x3e895c15	0.26828066
233	0x3d77429f	0.06036627
234	0x3c0af13f	0.008480369
235	0x3d9f4560	0.07776904
236	0x3e52505e	0.2053847
237	0x3d776f1a	0.06040869
238	0xbe21b85e	-0.15792987
239	0x3e08aec0	0.13347912
240	0x3da9ab79	0.08284659
241	0x3db1aa32	0.0867504
242	0x3c83f6f0	0.01610896
243	0x3c3fea35	0.011713554
244	0xbd866840	-0.06562853
245	0xbdf75af7	-0.12077897
246	0x3bb1c364	0.0054249037
247	0xbbd9b43f	-0.0066438015
248	0x3da69994	0.081347615
249	0xbe04e32c	-0.12977284
250	0x3e5cb35b	0.21552794
251	0xbd8b9244	-0.06815007
252	0x3df6b666	0.120465085
253	0x3d8de7e4	0.06928995
254	0xbdb6616f	-0.08905303
255	0x3e2ad581	0.16683008

bias f4 [40]
0	0x3d451ade	0.048121326
1	0x3baccb7f	0.005273282
2	0x3e05ac71	0.13054062
3	0x3cdb52ee	0.026772942
4	0xb997b047	-0.000289323
5	0x3dbcf9de	0.09227346
6	0xbd676755	-0.05649503
7	0x3d7f5213	0.06233413
8	0xbd7a909f	-0.061173078
9	0xbc54ccc6	-0.012988275
10	0x3d7357c3	0.059409868
11	0x3d990b01	0.07472802
12	0x3c8f4e89	0.017493503
13	0x3d9fecb7	0.07808822
14	0xbc5ee739	-0.013604932
15	0xbc52934f	-0.012852504
16	0x3d2567b7	0.040382113
17	0x3d156b05	0.036479015
18	0x3dc244b2	0.09485759
19	0x3de3bf88	0.11120516
20	0x3da7bfb1	0.08190859
21	0x3d4fe4f4	0.050755456
22	0xbd5668e7	-0.052346136
23	0x3cc12965	0.023579309
24	0xbd009b3f	-0.031398054
25	0xbc7659c5	-0.015036051
26	0x3ddb3876	0.107041284
27	0x3d172491	0.036900107
28	0xbb8b7a95	-0.0042565563
29	0xbb6fc5a2	-0.0036586304
30	0x3da24071	0.079224475
31	0x3d8395fd	0.06425092
32	0xbdc732cf	-0.09726488
33	0xbd82dd45	-0.0638986
34	0x3da63b57	0.08116787
35	0xbd0bf867	-0.03417244
36	0x3dc8f1a1	0.09811712
37	0x3d77162c	0.06032388
38	0x3c4e15cb	0.012578438
39	0xbb1a7b0e	-0.0023571881

weight f4 [2, 40]
0	0x3e65c01f	0.2243657
1	0x3e95ac7e	0.29233164
2	0xbe263584	-0.16231352
3	0xbe8f1807	-0.2794802
4	0x3e5d011b	0.21582453
5	0xbe071271	-0.13190629
6	0x3e22f578	0.15913951
7	0x3e67d2aa	0.22638956
8	0x3e7a88b4	0.2446621
9	0x3e972ea7	0.2952778
10	0xbe9fb96b	-0.3119615
11	0x3e7a0ee0	0.24419737
12	0xbeb0dbeb	-0.34542784
13	0xbe7a217d	-0.24426837
14	0xbea6d3dc	-0.3258351
15	0x3e4ac0b6	0.19800076
16	0xbea78c77	-0.32724354
17	0xbe5d6ffb	-0.21624748
18	0x3e4b2bc3	0.19840913
19	0xbe6e23c8	-0.23255837
20	0x3e262169	0.16223682
21	0x3e5d53e7	0.21614037
22	0x3dfbd85f	0.12297129
23	0xbe87db1a	-0.2653435
24	0x3ea1e9a1	0.31623557
25	0xbeb987b2	-0.3623634
26	0xbd96b552	-0.07358803
27	0xbe82fd78	-0.25584006
28	0xbe2afb0c	-0.1669733
29	0x3e93946c	0.28824174
30	0x3e099140	0.13434315
31	0x3e55e083	0.20886426
32	0xbd972f9c	-0.07382128
33	0x3e4ba775	0.19888099
34	0xbea5a2b5	-0.32350698
35	0x3dc5154e	0.09623204
36	0x3e5cbeaf	0.21557115
37	0xbe223357	-0.15839897
38	0x3d84cb23	0.06484058
39	0x3e3973cf	0.18110584
40	0xbe6a1218	-0.22858465
41	0xbe6dc62e	-0.23220131
42	0x3e2fb0b4	0.1715725
43	0x3e192a94	0.14957649
44	0xbe65f036	-0.22454914
45	0x3e132eb4	0.14373285
46	0xbea0f9d0	-0.31440592
47	0xbdec6853	-0.11543336
48	0xbe14c6bc	-0.14528936
49	0xbdcb7e1f	-0.09936165
50	0x3e81345a	0.25235254
51	0xbe4c736a	-0.19965902
52	0x3eb9b9ff	0.36274716
53	0x3e842fe5	0.2581779
54	0x3e9c04cd	0.30472413
55	0xbe8fd8fa	-0.28095227
56	0x3dd3c8dc	0.10341045
57	0x3eaf3382	0.34218985
58	0xbe842276	-0.25807542
59	0x3e76551a	0.24055901
60	0xbe6655cb	-0.22493665
61	0xbe925c72	-0.28586155
62	0xbe8a2db1	-0.26987985
63	0x3e2012f7	0.15632235
64	0xbcecb93e	-0.028896924
65	0x3e804918	0.25055766
66	0x3ea713c0	0.32632256
67	0x3e962677	0.2932622
68	0x3e88a3a1	0.2668734
69	0xbe7fd446	-0.2498332
70	0xbe6f9aa9	-0.23398842
71	0xbe3cd05d	-0.1843886
72	0xbd02ad7a	-0.03190372
73	0xbe98acb4	-0.29819262
74	0x3e889170	0.2667346
75	0xbe999dbb	-0.3000315
76	0xbde6505b	-0.11245795
77	0x3e90a7b2	0.2825294
78	0xbeaf9712	-0.34294945
79	0xbe60646d	-0.2191331

bias f4 [2]
0	0x3d743da5	0.0596291
1	0x3e4105ba	0.18849841
