classifier/test_dual_CNN.pt (torch, 69447 bytes, 10 tensors)

weight f4 [6, 2, 3, 3]
0	0xbd201bc5	-0.039088983
1	0xbe2cbe51	-0.16869475
2	0x3e15f568	0.14644396
3	0x3d1e275a	0.038611747
4	0xbe714606	-0.23561868
5	0xbb7f14ae	-0.0038922238
6	0x3e3c97eb	0.18417327
7	0xbd30422d	-0.04303186
8	0x3c70a290	0.014687195
9	0x3d2cd055	0.04219087
10	0x3ea90bdb	0.33016858
11	0xbda27971	-0.07933319
12	0xbd4ff34c	-0.050769135
13	0x3d624c88	0.055248767
14	0xbdae9399	-0.08524246
15	0xbdba6bb9	-0.09102578
16	0xbdfbf63f	-0.12302827
17	0xbe6de202	-0.23230746
18	0xbdc5ec4a	-0.09664209
19	0x3d717eac	0.058958694
20	0x3e3f302f	0.18670724
21	0xbe6c298d	-0.23062725
22	0xbdd3d205	-0.103427924
23	0xbc10b4c7	-0.008832163
24	0x3b9472ad	0.004530272
25	0xbd0b0676	-0.03394171
26	0x3debb48a	0.115090445
27	0x3eb3663a	0.3503893
28	0x3c8887d9	0.01666634
29	0x3dfa1f0e	0.122129545
30	0x3e71e19f	0.23621224
31	0x3ecf4a51	0.40486386
32	0x3eb5f291	0.35536626
33	0xbdf6af4e	-0.120451555
34	0x3d332ca8	0.04374376
35	0x3d5a20e4	0.053254023
36	0x3d824531	0.063608535
37	0x3d99ccd0	0.07509768
38	0xbd6d8ef1	-0.057997648
39	0x3da77f93	0.0817863
40	0xbdc1f599	-0.09470672
41	0x3a95210f	0.001137765
42	0x3e577da9	0.2104403
43	0x3de1b97e	0.11021708
44	0x3df95c20	0.121757746
45	0x3ecdb4e9	0.40177086
46	0x3e9c90da	0.30579263
47	0x3ed769de	0.42072958
48	0xbe09e581	-0.13466455
49	0xbc5675f8	-0.013089649
50	0xbdad7604	-0.08469775
51	0xbe86ed0b	-0.26352724
52	0xbcfcb5e5	-0.030848453
53	0xbde80c8e	-0.113305196
54	0xbd3f2b2a	-0.046672024
55	0xbe550dae	-0.20806
56	0xbc078853	-0.008272248
57	0x3d87391f	0.06602692
58	0xbd4cd61c	-0.050008878
59	0xbcafef58	-0.021476433
60	0x3e41ca95	0.18924935
61	0x3e923a1b	0.28559956
62	0x3df37b71	0.11888779
63	0x3e0ff426	0.14057979
64	0x3e9a5535	0.30143133
65	0x3e02f6dc	0.12789482
66	0x3e8db81c	0.27679527
67	0x3e57058d	0.20998211
68	0x3ebeae8b	0.3724254
69	0x3dca82e5	0.098882474
70	0xbcc6c6e4	-0.02426476
71	0xbc9a11bf	-0.01880729
72	0x3cb60025	0.022216866
73	0x3e9b8361	0.30373672
74	0xbe89d660	-0.26921368
75	0x3def6e5a	0.1169097
76	0x3ecea55d	0.40360537
77	0xbd334c36	-0.043773852
78	0x3cd25d5c	0.025679283
79	0xbe044f53	-0.12920885
80	0xbe77d493	-0.24202184
81	0x3cac46fd	0.021029944
82	0x3e4519cc	0.19248122
83	0x3dd9f735	0.10642854
84	0x3e9db1e5	0.30799785
85	0x3e618cac	0.22026318
86	0x3ea50350	0.3222909
87	0x3e2ae086	0.16687211
88	0xbd03870c	-0.032111213
89	0x3d88bb6b	0.06676372
90	0xbc9ea2fd	-0.019364828
91	0xbd92e669	-0.071728535
92	0xbd2e6074	-0.042572454
93	0xbec7aed7	-0.3900058
94	0xbde1e491	-0.11029924
95	0xbce76a5d	-0.02824896
96	0x3e0a2156	0.13489279
97	0xbeb6ec75	-0.35727277
98	0xbe61a1b4	-0.22034341
99	0x3e84a174	0.2590443
100	0xbd5ca5ee	-0.05386918
101	0x3eaaebe8	0.33383107
102	0xbe36d9d4	-0.17856532
103	0xbc75b62f	-0.014997049
104	0x3d7589b4	0.059945777
105	0xbdb61bd3	-0.08892026
106	0x3e7b8e4d	0.24566002
107	0xbdcd5227	-0.10025435

bias f4 [6]
0	0x3d86ac44	0.06575826
1	0xbcb3e1de	-0.021958288
2	0xbde567ae	-0.11201416
3	0xbe12d41e	-0.14338729
4	0xbd1e0855	-0.038582165
5	0xbd432caa	-0.047650017

weight f4 [16, 6, 3, 3]
0	0x3d87ab48	0.06624466
1	0xbe0bebb6	-0.13664135
2	0xbc98bed1	-0.018645676
3	0xbdf6383d	-0.12022445
4	0xbc602c7a	-0.013682479
5	0x3dbcb6e5	0.09214572
6	0xbd93bc90	-0.072137
7	0xbdc9a8d6	-0.09846656
8	0xbcf241af	-0.029572336
9	0xbdab8877	-0.08375638
10	0x3da06c01	0.078331
11	0xbd450977	-0.04810473
12	0x3dd58e56	0.10427539
13	0x3e29d9d3	0.16587
14	0xbbcd83b9	-0.006271806
15	0x3d883a02	0.06651689
16	0xbdf34a19	-0.118793674
17	0x3e3b3ea1	0.1828561
18	0xbc191705	-0.009343867
19	0x3e31dd56	0.17369589
20	0xbda43a0e	-0.080188856
21	0xbd8f4799	-0.06996078
22	0x3db24e0d	0.08706293
23	0x3d32c809	0.0436478
24	0x3d3d71f6	0.04625126
25	0x3d9f2468	0.07770616
26	0xbd82db50	-0.06389487
27	0x3e461d4d	0.19347115
28	0x3e24fde7	0.16112481
29	0x3e6ef95f	0.23337315
30	0xbdb688ba	-0.08912797
31	0x3deb8345	0.11499647
32	0x3e0f0667	0.13967286
33	0xbd292756	-0.04129728
34	0xbde82134	-0.11334458
35	0x3de4424b	0.11145457
36	0xbd022a2c	-0.0317785
37	0xbca9a5b6	-0.0207089
38	0x3d66eeed	0.0563802
39	0xbd1e1649	-0.03859547
40	0x3e09f14d	0.13470955
41	0x3d84343e	0.06455277
42	0xbdf70c62	-0.12062909
43	0xbdbc8520	-0.09205079
44	0x3dd9adb1	0.10628832
45	0xbd88fe05	-0.066890754
46	0x3d0a9f3e	0.03384327
47	0x3e318270	0.17334914
48	0xbd8cd2d4	-0.0687615
49	0x3e0a35d9	0.13497104
50	0x3d2955de	0.041341655
51	0x3e3f9d4f	0.18712352
52	0x3e10a731	0.14126278
53	0x3e378839	0.17923059
54	0x3cc8cd5e	0.02451199
55	0x3c986dd2	0.018607054
56	0xbcc48d47	-0.023993148
57	0x3dd7c1a6	0.105349824
58	0xbc044763	-0.008073661
59	0xbe210b70	-0.1572702
60	0x3dcbf400	0.09958649
61	0xbcbfe5c8	-0.023424998
62	0x3d09ee08	0.03367427
63	0x3c13ef9f	0.009029298
64	0x3dee7369	0.116431065
65	0x3cd2e1e0	0.025742471
66	0xbd5600b6	-0.05224677
67	0xbddca975	-0.10774509
68	0x3d6fb4e7	0.05852213
69	0xbcff4e4d	-0.031165266
70	0xbc3dbb18	-0.011580251
71	0xbc04f847	-0.008115835
72	0x3e58ed65	0.21184309
73	0x3e20304b	0.15643422
74	0xbded7279	-0.115940996
75	0x3e17fdc1	0.14842893
76	0x3d605e5f	0.0547775
77	0xbcbfe1a7	-0.02342303
78	0xb93ee3ae	-0.0001820463
79	0xbdc48305	-0.095953025
80	0xbdd29b2a	-0.102835014
81	0x3e277ee5	0.16357
82	0x3e4d5d50	0.20055127
83	0x3c16e911	0.009210841
84	0x3e2dbad0	0.16965795
85	0x3dbabf01	0.09118462
86	0x3dd102fc	0.10205647
87	0xbd45c3b9	-0.04828236
88	0xbddd6a44	-0.10811284
89	0x3d85f14f	0.065401666
90	0x3cc13042	0.023582581
91	0x3c3a34c9	0.011365124
92	0x3deaf1d4	0.11471906
93	0x3c9f4e18	0.019446418
94	0x3d97ba03	0.07408526
95	0x3e161a3d	0.14658447
96	0x3df452ce	0.11929856
97	0xbc9a4e51	-0.018836172
98	0x3d1a644c	0.037693307
99	0x3e94ff73	0.29101142
100	0xbd1bd2ca	-0.03804282
101	0x3d899d27	0.067194276
102	0x3df05c01	0.11736298
103	0x3e40580b	0.18783586
104	0x3da41af4	0.080129534
105	0xbd628879	-0.05530593
106	0xbe519e5b	-0.20470564
107	0xbe1f1fa8	-0.1553942
108	0x3c8915ea	0.016734082
109	0x3ad790b6	0.0016446325
110	0x3d6c15a9	0.057637844
111	0xbc42f15e	-0.011898367
112	0xbd461794	-0.04836233
113	0x398d0797	0.0002689927
114	0xbde7cae9	-0.11317999
115	0x3dd8d690	0.105877995
116	0xbe0d1d07	-0.13780604
117	0xbe19a126	-0.1500288
118	0x39300184	0.00016785233
119	0x3e214aa4	0.1575113
120	0x3da7025e	0.081547484
121	0xbde3fba6	-0.111319825
122	0xbd195a0e	-0.0374394
123	0xbe250815	-0.16116364
124	0xbe1385f7	-0.14406572
125	0xbe03f0b0	-0.12884784
126	0xbe7fc9da	-0.24979344
127	0x3e1d57e8	0.15365565
128	0x3e12bffa	0.14331046
129	0xbe058d34	-0.13042146
130	0x3c63f9e2	0.013914557
131	0x3c9e09f0	0.019291848
132	0x3c5dae4c	0.013530325
133	0xbda295be	-0.07938717
134	0xbde0e517	-0.109811954
135	0x3cdb638a	0.026780862
136	0x3d995260	0.07486415
137	0x3da1dcff	0.0790348
138	0x3d3e7eae	0.04650753
139	0x3de509b7	0.111834936
140	0x3e6d1c27	0.2315527
141	0xbd6776be	-0.056509726
142	0xbddb875f	-0.10719179
143	0xbe476278	-0.19471157
144	0xbdf123f4	-0.11774436
145	0x3e5d7bfb	0.21629326
146	0x3dbb15fc	0.091350526
147	0x3c8313b9	0.016000615
148	0x3e388598	0.18019712
149	0x3e0eefd8	0.1395868
150	0xbd55f10d	-0.052231837
151	0xbcb4e7e0	-0.022083223
152	0xbcfba31a	-0.030717421
153	0xbe48f580	-0.19624901
154	0x3db5b2b2	0.08871974
155	0xbdbe7943	-0.093004726
156	0xbe0d4c3b	-0.13798611
157	0x3ded99ee	0.116016254
158	0x3e93451a	0.28763658
159	0x3e2c6f11	0.16839243
160	0xbd7867ac	-0.060645744
161	0xbd8e17ba	-0.06938119
162	0x3d0ccadc	0.03437315
163	0x3dd6fb21	0.10497118
164	0x3d7c5b52	0.061610527
165	0x3c9218b0	0.017834038
166	0xbdfd5b15	-0.12370888
167	0xbe30b1cf	-0.17255329
168	0x3cd978dc	0.026546888
169	0xbe084ec7	-0.13311301
170	0xbc9c9f99	-0.01911907
171	0x3d0bfd3d	0.034177054
172	0x3e1908e2	0.14944795
173	0xbd74cf5f	-0.059768077
174	0xbda35ca0	-0.07976651
175	0x3dc5e770	0.09663284
176	0x3db2feb0	0.08739984
177	0xbe176ce8	-0.14787638
178	0xbd48b827	-0.049003746
179	0x3dbb9756	0.091597244
180	0x3e23f25d	0.16010423
181	0x3e80d1e6	0.2516014
182	0x3dc7b763	0.09751775
183	0x3df13df5	0.117793955
184	0xbd90a046	-0.0706182
185	0xbd921770	-0.071333766
186	0xbd92a2a5	-0.07159928
187	0xbe6827cc	-0.22671431
188	0x3c9829e3	0.01857466
189	0x3e1ac3a8	0.151137
190	0x3e824f9b	0.2545136
191	0x3ca01502	0.019541267
192	0x3dd1b829	0.10240204
193	0x3cc1d51e	0.023661193
194	0x3d15a0b3	0.036530208
195	0xbe6d4e65	-0.23174436
196	0xbd1ed665	-0.03877868
197	0x3d02e638	0.031957835
198	0x3e34bfad	0.17651244
199	0x3dc6898c	0.09694204
200	0xbd6f847b	-0.058475953
201	0xbdaa1907	-0.08305555
202	0xbe047753	-0.12936144
203	0xbd9754d9	-0.0738923
204	0x3d832e33	0.06405296
205	0x3cb120d8	0.021622106
206	0x3dc93277	0.098240785
207	0xbc1aaffc	-0.009441372
208	0x3d8ad32a	0.067785576
209	0x3cd2c842	0.025730256
210	0x3d4ae0c0	0.049530745
211	0x3da0486a	0.07826312
212	0x3c9acf6f	0.01889774
213	0xbcde978e	-0.027171876
214	0xbe4ce866	-0.20010528
215	0x3cf96724	0.03044469
216	0xbddb1e4e	-0.106991395
217	0x3d7ccac5	0.061716814
218	0xbd8fbfd4	-0.0701901
219	0x3c1df280	0.009640336
220	0x3da923b9	0.08258767
221	0xbdb9bc68	-0.09069139
222	0xbdbe3f14	-0.09289375
223	0xbd6261e5	-0.05526914
224	0x3cc6185f	0.024181543
225	0x3d9b915d	0.07596085
226	0xbd2e39f6	-0.042535745
227	0xbd7d6458	-0.061863273
228	0x3e17966c	0.14803475
229	0xbd98390e	-0.07432757
230	0xbe351715	-0.17684586
231	0x3d152eb7	0.036421504
232	0xbdcdca24	-0.10048321
233	0xbcc56519	-0.024096059
234	0xbdc8c5f5	-0.09803382
235	0xbdd81607	-0.105510764
236	0xbe488fbf	-0.19586085
237	0x3da03d47	0.07824188
238	0x3e1714f1	0.14754082
239	0xbe0a22df	-0.13489865
240	0xbe869b81	-0.26290515
241	0xbe87d1a3	-0.26527128
242	0xbd06416b	-0.03277723
243	0x3e0f2c12	0.13981655
244	0xbdd9c9aa	-0.106341675
245	0xbdb8f24c	-0.090305895
246	0x3e37882a	0.17923036
247	0x3db7fb17	0.089834385
248	0xbe5d0666	-0.21584472
249	0x3c3e4d55	0.011615117
250	0x3cc52fd3	0.024070656
251	0x3d96b165	0.07358054
252	0x3c6d9339	0.014500433
253	0xbd75e2d9	-0.060030792
254	0xbdc2e1eb	-0.09515747
255	0x3e63228e	0.2218115

bias f4 [16]
0	0xbded2896	-0.11580007
1	0xbe245e79	-0.16051663
2	0xbd4b3e64	-0.049620047
3	0xbdab7232	-0.083713904
4	0x3da5d567	0.08097344
5	0x3d127045	0.0357516
6	0xbcd82824	-0.026386328
7	0xbd8b6df4	-0.06808081
8	0x3da4406c	0.080201
9	0xbd152809	-0.036415134
10	0xbd96bf47	-0.07360702
11	0xbd9c3580	-0.07627392
12	0xbd004afe	-0.031321518
13	0xbb854a57	-0.0040677
14	0x3d96dfbf	0.07366895
15	0xbda3e4f0	-0.08002651

weight f4 [80, 144]
0	0x3da47cc5	0.080316104
1	0xbd5fa406	-0.054599784
2	0xbcc44286	-0.023957502
3	0xbcebfaa8	-0.028806046
4	0x3b81326e	0.0039427793
5	0xbd4d038c	-0.05005221
6	0xbd11af81	-0.035567764
7	0xbca5aab7	-0.020223005
8	0xbab92d63	-0.0014127906
9	0xbb7bfadd	-0.0038449087
10	0xbd4dbdfc	-0.05023001
11	0xbcb742b8	-0.022370681
12	0xbd3761c9	-0.04477099
13	0x3cb657f9	0.022258746
14	0x3d106b9d	0.035258878
15	0x3d3f6262	0.046724685
16	0x3dc711fd	0.09720228
17	0x3d69d67e	0.05708932
18	0x3c2bf062	0.010494323
19	0xbd9a7588	-0.075419486
20	0xbd93d6f3	-0.07218733
21	0xbd92a12e	-0.07159649
22	0xbd72c42c	-0.059269115
23	0x3c9ef9e5	0.019406268
24	0xbc8e558e	-0.01737478
25	0x3d13ac0f	0.03605276
26	0x3da9e307	0.08295255
27	0x3c2bf229	0.010494747
28	0x3db3c66b	0.087780796
29	0x3c7e6f26	0.01552943
30	0xbd35ca6a	-0.04438249
31	0xbb62b85a	-0.0034594745
32	0x3dde7448	0.10862023
33	0xbd80a01a	-0.06280537
34	0x3c873132	0.01650295
35	0x3c6b8f4f	0.014377429
36	0xbd6b92d0	-0.05751306
37	0xbc65f45c	-0.014035311
38	0x3e01c52d	0.12672873
39	0xbc151734	-0.00909977
40	0xbc01559e	-0.007893948
41	0x3d79edd7	0.061017837
42	0x3d7ff8be	0.06249308
43	0x3d9a3f73	0.07531633
44	0x3dd15c31	0.10222662
45	0xbb87b1c7	-0.0041410658
46	0xbce11e39	-0.027480232
47	0xbd957e3f	-0.0729947
48	0xbc206e20	-0.009791881
49	0xbd9786c6	-0.07398753
50	0x3bbb48c6	0.0057154624
51	0xbd58a004	-0.052886978
52	0x3c2a89a3	0.010408792
53	0x39c1cbd7	0.000369637
54	0xbddf621f	-0.10907387
55	0x3ca74883	0.020420318
56	0x3d210a11	0.03931624
57	0x3ddcf472	0.10788812
58	0x3c9a5275	0.018838147
59	0xbd385342	-0.045001276
60	0x3bd0ba8d	0.006369895
61	0x3dcf59ef	0.10124575
62	0xbdfc9e1d	-0.12334845
63	0x3dd504e3	0.10401323
64	0x3d45dda0	0.04830706
65	0xbcffc010	-0.031219512
66	0xbdf879e2	-0.12132622
67	0xbc9de152	-0.01927248
68	0x3c0b1894	0.008489747
69	0x3d6e9cbd	0.058254946
70	0x3cd2fd27	0.025755478
71	0xbd90f30e	-0.07077609
72	0x3c0c958d	0.008580578
73	0x3e03f44e	0.12886164
74	0x3d806c89	0.062707014
75	0x3c167ce3	0.009185049
76	0x3d7bad98	0.06144485
77	0x3d8fea0c	0.07027063
78	0x3bd2284c	0.006413495
79	0xbcd25592	-0.025675569
80	0xbd5e0388	-0.054202586
81	0x3d1d76ed	0.038443495
82	0x3df2cb33	0.118551634
83	0x3cf57f07	0.029967798
84	0xbce0e5cb	-0.027453324
85	0x3dab3a6b	0.08360752
86	0x3da7532c	0.08170161
87	0xbd73a10e	-0.059479766
88	0x3e2f7aa4	0.17136627
89	0xbd5de989	-0.054177795
90	0x3d33dce2	0.043911822
91	0xbd42171c	-0.04738532
92	0xbd395457	-0.04524645
93	0x3c89c81d	0.016819054
94	0x3cb0cd8f	0.021582393
95	0x3cb8f23d	0.022576446
96	0xbc373c8b	-0.011183868
97	0xbac9cd16	-0.0015396203
98	0xbb89b3cb	-0.004202341
99	0x3d07afe2	0.03312672
100	0x3d938a7c	0.07204148
101	0xbc4ca2c2	-0.012489976
102	0x3b464693	0.0030254468
103	0x3b92caac	0.004479727
104	0x3d057f1c	0.032591924
105	0x3cfdb74c	0.030971192
106	0x3dde78e8	0.10862905
107	0x3d9e363a	0.07725187
108	0xbdd5b001	-0.10433961
109	0x3e1acbaa	0.15116754
110	0x3da6b88a	0.08140667
111	0xbdd1a807	-0.10237127
112	0x3d0ecb8c	0.034862086
113	0xbd89b2bf	-0.06723546
114	0x3c85e6a1	0.016345324
115	0x3d2ccea4	0.042189255
116	0x3d044ac6	0.032297872
117	0xbdc4f6af	-0.09617364
118	0x3d94da92	0.072682515
119	0x3d8c6858	0.068558395
120	0xbd1dc404	-0.038517013
121	0x3d387085	0.045029182
122	0xbcf62597	-0.030047221
123	0x3d8e95c4	0.06962159
124	0xbc7f7b61	-0.015593381
125	0xbcae9e7f	-0.021315811
126	0x3d41e487	0.04733708
127	0x3b34d50a	0.0027592801
128	0xbd1a0c82	-0.037609585
129	0xbd222bf1	-0.039592687
130	0x3de8f5d1	0.11375011
131	0xbdae3bd5	-0.08507506
132	0xbccba99d	-0.024861151
133	0xbcef976d	-0.02924701
134	0x3df4df54	0.11956659
135	0x3dba1acc	0.09087142
136	0x3d75d57a	0.06001804
137	0xbd0ff837	-0.035148825
138	0xbd0ad340	-0.03389287
139	0x3d3286e3	0.04358567
140	0xbce2f475	-0.027704457
141	0xbc99eeb7	-0.018790586
142	0x3cab42bc	0.020905845
143	0x3e029fc1	0.12756254
144	0x3d2f4eaf	0.042799648
145	0xbd14c2d0	-0.0363186
146	0x3bb060bd	0.005382626
147	0xbd0a30e0	-0.033738017
148	0x3c30287a	0.010751838
149	0x3dea04d4	0.11426702
150	0x3d56ef8b	0.05247454
151	0x3de7f79e	0.11326526
152	0x3d8290c0	0.06375265
153	0x3b366ad9	0.0027834682
154	0x3dcd45e5	0.10023097
155	0x3d4f44b6	0.050602637
156	0x3d54c35a	0.051944114
157	0x3d54762e	0.051870517
158	0xbcfc36ae	-0.030787792
159	0x3d8d4101	0.06897164
160	0x3d97933a	0.07401128
161	0xbd400f72	-0.04688973
162	0xbd3d7ebb	-0.046263438
163	0xbcc1bf94	-0.023650922
164	0xbd9dd139	-0.07705922
165	0xbce070b9	-0.0273975
166	0xbd67cc51	-0.056591336
167	0x3c8e7b82	0.017392877
168	0x3cd5e71b	0.026111176
169	0x3dad2a20	0.084553
170	0xbd82f6a1	-0.06394697
171	0x3d5d9638	0.054098338
172	0xbd35bdfd	-0.04437064
173	0x3c4594fe	0.012059448
174	0x3da69df8	0.08135599
175	0x3dcd821b	0.10034581
176	0x3d915d04	0.070978194
177	0xbcd955a6	-0.026530098
178	0x3de69b31	0.11260069
179	0x3d3c7ede	0.046019427
180	0x3cb12ee3	0.021628803
181	0xbd720152	-0.05908329
182	0xbbd464dc	-0.00648175
183	0xbc17bb7c	-0.009261008
184	0xbbcba180	-0.0062143207
185	0xbcebc6ff	-0.028781412
186	0xbda815ce	-0.08207284
187	0xbdbfe645	-0.09370092
188	0xbc907fb3	-0.017639017
189	0x3d075f0d	0.033049632
190	0xbd6ff099	-0.05857906
191	0x3d9b052a	0.07569344
192	0xbbd87519	-0.006605756
193	0x3c37a9ef	0.011209949
194	0xbd33733a	-0.04381106
195	0x3d920c8b	0.07131299
196	0xbcc96d78	-0.024588332
197	0x3d82288d	0.06355391
198	0xbd106857	-0.035255756
199	0x3cf7ad5a	0.030234028
200	0x3d20bc42	0.039242037
201	0x3cf91ae5	0.030408332
202	0x3c9b177f	0.018932102
203	0x3dabbc1f	0.083854906
204	0x3d121144	0.035660997
205	0x3d465c11	0.048427645
206	0xbc900dcb	-0.017584702
207	0x3d18de50	0.03732139
208	0xbcbd3008	-0.023094192
209	0x3cc6bd61	0.024260225
210	0xbcd70128	-0.026245669
211	0xbd0d0610	-0.03442961
212	0x3db07ae2	0.08617188
213	0xbd5fc83d	-0.05463432
214	0x3df1357b	0.11777779
215	0x3c43224e	0.011910034
216	0x3cfb85ef	0.030703513
217	0xbda52fec	-0.08065781
218	0xbd5c1285	-0.0537286
219	0x3d7786be	0.060431235
220	0xbd89e455	-0.06733004
221	0xbd701890	-0.058617175
222	0xbd81d504	-0.06339458
223	0x3d142b9c	0.0361744
224	0xbd8dc55d	-0.0692241
225	0xbd2a8188	-0.041627437
226	0xbd9a1022	-0.07522608
227	0xbd362298	-0.044466585
228	0x3b875cae	0.0041309213
229	0xbd35662c	-0.04428689
230	0x3d7ef334	0.062243655
231	0xbd5553bf	-0.05208182
232	0xbdd9b61d	-0.106304385
233	0x3a5a3a73	0.00083247497
234	0xbd54179e	-0.051780336
235	0x3c9c6546	0.01909126
236	0x3d386cc1	0.04502559
237	0xbd65baaa	-0.05608622
238	0x3d1ccdbd	0.038282145
239	0xbc90c08c	-0.017669939
240	0xbc83aa16	-0.016072314
241	0x3d1fe56c	0.039037153
242	0xbc7190f5	-0.014744033
243	0xbd3f0015	-0.046630938
244	0xbcfbaf1b	-0.030723145
245	0xbc221c98	-0.009894513
246	0x3cbf7014	0.023368873
247	0x3d77c23d	0.060487974
248	0xbd89f936	-0.06736986
249	0xbdbffd94	-0.09374538
250	0xbcb383c7	-0.021913422
251	0x3dc362b8	0.095403135
252	0x3dd7836c	0.105231136
253	0xbddc430b	-0.10754975
254	0xbcef3363	-0.029199308
255	0xbcb04346	-0.021516453

bias f4 [80]
0	0xbc70e37e	-0.014702676
1	0xbc20f319	-0.009823584
2	0x3d8917c6	0.066939875
3	0x3d915636	0.070965216
4	0x3c920d5e	0.01782864
5	0xbdba05f1	-0.090831645
6	0x3da81ff0	0.082092166
7	0x3db9bc07	0.090690665
8	0xbce05bfc	-0.027387612
9	0x3da17625	0.078838624
10	0xbd606766	-0.05478611
11	0xbd449d71	-0.04800171
12	0xbba5c4f2	-0.005058878
13	0x3bc56033	0.0060234307
14	0x3d229f1a	0.039702512
15	0xb957b1ee	-0.00020570282
16	0x3d90c97b	0.07069679
17	0x3d349ce8	0.04409495
18	0x3d8fedfd	0.070278145
19	0xbd1fa9b1	-0.03898019
20	0x3ca69741	0.020335795
21	0x3db18e1e	0.08669685
22	0xbac9fcdf	-0.0015410444
23	0x3d825883	0.063645385
24	0xbb5cabe5	-0.0033671793
25	0x3d23258f	0.03983074
26	0xbdb33856	-0.087509796
27	0xbc229021	-0.009922058
28	0x3d297310	0.041369498
29	0x3c1536d7	0.009107313
30	0x3db5f971	0.08885468
31	0xbd34d55d	-0.04414879
32	0xbd2e67cd	-0.04257946
33	0xbd761815	-0.06008156
34	0xbd2d331f	-0.04228508
35	0x3ce95d7a	0.028486956
36	0x3d2dcf0a	0.042433776
37	0x3d6fc0f6	0.05853363
38	0xbd0cd36c	-0.034381315
39	0x3d8d46dd	0.06898282
40	0x3cae2b89	0.021260994
41	0x3d8e46fa	0.069471315
42	0x3d8e9291	0.06961549
43	0xbd4375d9	-0.04771981
44	0xbd33c8a9	-0.043892536
45	0x3d4eff0a	0.050536193
46	0x3d1b3693	0.037893843
47	0xbd7e7cdc	-0.062130794
48	0x3c8d0e8f	0.017218856
49	0x3ac0074b	0.0014650611
50	0xbdab0a06	-0.08351521
51	0x3d02b605	0.03191187
52	0x3cce36af	0.02517256
53	0x3d14b327	0.036303665
54	0x3d702a7c	0.058634266
55	0xbd1e5547	-0.038655546
56	0xbdbaaa20	-0.0911448
57	0xbc87ad05	-0.016561994
58	0x3d916061	0.07098461
59	0xbd150f5e	-0.03639161
60	0x3d307fa7	0.04309049
61	0x3d5ae720	0.053443074
62	0x3ccbd180	0.02488017
63	0x3d4df9dd	0.050287116
64	0xbd2b7c41	-0.041866545
65	0xbd5aac5e	-0.05338704
66	0xbcbf2f3c	-0.023337953
67	0x3d154c2e	0.036449604
68	0x3d614e87	0.05500653
69	0x3ce560bf	0.028000234
70	0x3d8607cd	0.06544457
71	0xbb65a5ac	-0.0035041375
72	0xbd186e03	-0.03721429
73	0x3c0de23e	0.008659897
74	0xbd7bc02b	-0.061462563
75	0x3c777c34	0.015105296
76	0x3c125fee	0.008934004
77	0xbc96845a	-0.018373657
78	0xbd30eb60	-0.04319322
79	0xbc246178	-0.010033004

weight f4 [40, 80]
0	0xbe1fa912	-0.15591839
1	0x3e06858a	0.13136879
2	0x3d20beaf	0.03924435
3	0x3d9c9ebf	0.07647466
4	0x3a0cab25	0.00053660787
5	0x3d979d68	0.0740307
6	0x3d45e844	0.04831721
7	0x3c93127b	0.017953148
8	0xbd5989f1	-0.053110067
9	0x3da8b2d3	0.08237233
10	0x3bc777be	0.0060872724
11	0x3dda95a4	0.10673073
12	0xbc05e711	-0.008172766
13	0xbb83f46c	-0.00402694
14	0xbcebe5c4	-0.028796084
15	0x3d30b718	0.04314336
16	0x3e0710b8	0.13189971
17	0xbe026a9b	-0.1273598
18	0xbbc0fb5e	-0.0058893403
19	0xbc4a3f79	-0.012344235
20	0x3d36658c	0.044530436
21	0xbd830ab6	-0.06398527
22	0xbd236c37	-0.039898124
23	0x3cbd6118	0.023117587
24	0x3e2f06c6	0.17092428
25	0x3e1970d7	0.14984451
26	0xbd6ff83b	-0.05858634
27	0x3dfdfa4b	0.12401255
28	0x3da83934	0.08214036
29	0xbdb58e8b	-0.088650785
30	0x3d3ee0cc	0.0466011
31	0x3db08f84	0.086211234
32	0x3d8b877a	0.068129495
33	0x3df7c189	0.12097461
34	0x3dcd8c13	0.10036483
35	0xbe193c04	-0.149643
36	0x3dbee25e	0.0932052
37	0xbda0054f	-0.078135125
38	0x3c5a2733	0.01331501
39	0x3ccf166f	0.025279252
40	0xbd12544a	-0.035724916
41	0x3e1c0adc	0.15238518
42	0xbd496138	-0.04916498
43	0x3bfb0c82	0.007661403
44	0xbc13ccc1	-0.009020985
45	0xbd60805c	-0.054809913
46	0xbd9bf490	-0.07615006
47	0x3da22de7	0.079189114
48	0xbcf9f8fe	-0.030514237
49	0xbba3b5cf	-0.0049960385
50	0xbd0affe1	-0.03393543
51	0xbd04faf1	-0.03246588
52	0xbd85919d	-0.06521914
53	0xbda7cd9c	-0.08193514
54	0x3df0d81c	0.117599696
55	0xbd437ea0	-0.04772818
56	0x392894e8	0.000160772
57	0x3cc583b4	0.024110653
58	0x3e29f8fd	0.16598888
59	0x3c0f92a4	0.008762989
60	0x3cf88560	0.030337036
61	0x3e2ca8a5	0.16861208
62	0x3df85744	0.121260196
63	0x3b817468	0.0039506443
64	0xbcd3d858	-0.025859997
65	0x3d97dc08	0.074150145
66	0x3d7b90e7	0.061417487
67	0xbbabdd0c	-0.0052448567
68	0xbdd466c4	-0.103711635
69	0x3dec8388	0.11548525
70	0xbdb2b552	-0.0872599
71	0x3e2ed77b	0.17074387
72	0x3d9b54e1	0.07584549
73	0xbd4fcbd3	-0.05073149
74	0x3d81f63a	0.06345792
75	0x3dc00a00	0.09376907
76	0xbce830a1	-0.0283435
77	0x3dd4e7a2	0.10395743
78	0x3c8c9093	0.017158782
79	0xbd9e9418	-0.077430904
80	0x3d85fa61	0.065418966
81	0x3cf3524e	0.029702332
82	0x3d4fb74c	0.050711915
83	0xbd29def8	-0.041472405
84	0x3de2a2fd	0.11066244
85	0x3c18ae35	0.009318878
86	0x3d8d1183	0.06888106
87	0x3e04f7ad	0.12985106
88	0x3d8d243a	0.06891675
89	0x3dca2a16	0.098713085
90	0xbdd7188a	-0.10502727
91	0xbdad3966	-0.084582135
92	0x3e1315cf	0.14363788
93	0xbc503c8a	-0.012709746
94	0xbda8464f	-0.08216535
95	0x3e06d303	0.13166432
96	0x3d6e1455	0.05812486
97	0x3d585464	0.052814856
98	0x3d2887cd	0.041145135
99	0x3db9d2e4	0.09073427
100	0x3c52ce65	0.012866591
101	0x3e2fd173	0.17169742
102	0x3e0d9cf6	0.13829407
103	0xbc627611	-0.013822095
104	0xbdffbbae	-0.12486969
105	0xbe09c664	-0.13454586
106	0x3dd27766	0.1027668
107	0xbccea3fd	-0.02522468
108	0xbd728774	-0.05921121
109	0x3e44d413	0.19221525
110	0x3dd0b23c	0.101902455
111	0x3d45c5db	0.048284393
112	0xbd5dd62c	-0.05415933
113	0xbd4be3d0	-0.049777806
114	0xbc7cb7a6	-0.015424645
115	0xbc95cdb1	-0.018286558
116	0xbd90167d	-0.07035539
117	0x3e2e4ea1	0.17022182
118	0x3d3b7e31	0.045774642
119	0x3dcb85d3	0.09937634
120	0xbcb6efae	-0.022331085
121	0xbdf261b5	-0.118350424
122	0xbbf55911	-0.007487424
123	0x3e013ad9	0.12620105
124	0xbd9bca1f	-0.07606911
125	0x3e59045d	0.2119307
126	0xbba51c34	-0.0050387625
127	0x3d83c1b7	0.064334325
128	0xbc9d1744	-0.019176133
129	0x3dc1a330	0.09454954
130	0x3da0f806	0.07859807
131	0x3d8eaa43	0.069660686
132	0x3ddaae67	0.10677796
133	0x3de33f38	0.110960424
134	0xbce6ce9c	-0.02817469
135	0x3d0ae20e	0.03390699
136	0xbca718cb	-0.020397564
137	0xbd590850	-0.052986443
138	0xbdabcc31	-0.08388556
139	0x3df4b021	0.119476564
140	0xbd9f703a	-0.077850774
141	0x3cd8ee93	0.026480949
142	0xbd80cae7	-0.062887006
143	0x3d6db410	0.05803305
144	0x3dcdf982	0.100573555
145	0xbe262944	-0.16226679
146	0xbe132ef2	-0.14373377
147	0xbda20db1	-0.07912768
148	0x3da88dc9	0.08230168
149	0xbdcb0b30	-0.09914243
150	0x3c6af79a	0.014341259
151	0xbd9986e4	-0.074964315
152	0xbdbff603	-0.09373095
153	0x3d62c4de	0.05536353
154	0xbdedb4c6	-0.116067454
155	0xbde40b43	-0.111349605
156	0x3d98e6d5	0.07465903
157	0x3c16da17	0.00920727
158	0x3dc82e78	0.09774488
159	0x3db3c16e	0.08777128
160	0x3e41acf4	0.18913633
161	0xbe0e1c9d	-0.13878103
162	0x3c9fbe1c	0.01949983
163	0xbdd1ad6d	-0.102381565
164	0x3da86f84	0.08224395
165	0x3e053814	0.13009673
166	0x3e2c14a9	0.16804756
167	0x3ccf118e	0.025276925
168	0x3dce4814	0.100723416
169	0x3dfb15f1	0.12260044
170	0xbd6fb637	-0.058523383
171	0xbcf9996f	-0.03046867
172	0x3c5762ab	0.013146083
173	0x3c40627a	0.011742229
174	0xbd03cdd7	-0.032178726
175	0x3e0d21f8	0.1378249
176	0xbc8232a1	-0.015893282
177	0x3e496189	0.19666113
178	0x3d078dbd	0.033094157
179	0x3e21ff7d	0.15820117
180	0x3d17b48d	0.03703742
181	0x3e2b5e7e	0.16735265
182	0x3d15afc8	0.03654459
183	0x3c30f537	0.010800651
184	0xbdddf4cc	-0.10837707
185	0xbe0e0b4b	-0.13871495
186	0x3dcee75c	0.10102722
187	0xbd579b01	-0.052638058
188	0xbdcc546f	-0.09977042
189	0x3e585d05	0.21129234
190	0x3caf3a7f	0.021390198
191	0xbe2448b8	-0.16043365
192	0xbd456e7d	-0.048201073
193	0x3da9aa79	0.08284468
194	0x3b7e02ce	0.0038758996
195	0x3e41bc1b	0.18919413
196	0x3c156435	0.0091181295
197	0x37af0187	2.0862337e-05
198	0x3db751c3	0.08951142
199	0xbd2e18b4	-0.042504027
200	0x3d3d5d6f	0.046231683
201	0xbdc2f575	-0.095194735
202	0x3d8f4801	0.069961555
203	0x3e1e5034	0.15460283
204	0x3cb2e7e2	0.021839086
205	0xba3c21e2	-0.000717668
206	0x3e0e2f54	0.13885242
207	0xbd766052	-0.060150452
208	0x3bebde84	0.007198157
209	0x3e4bc1dc	0.1989817
210	0x3d927938	0.07152027
211	0x3dd7d12a	0.10537942
212	0xbd720d87	-0.059094932
213	0x3df9f254	0.122044235
214	0xbc24b690	-0.010053292
215	0x3dc29bfd	0.09502409
216	0x3c8c93de	0.017160352
217	0xbe0b1487	-0.1358205
218	0x3d2f8878	0.042854756
219	0x3dcc28b1	0.09968699
220	0xbd5491d5	-0.05189689
221	0x3bc5b729	0.0060337973
222	0x3daec386	0.08533387
223	0x3d7bbcd5	0.06145938
224	0x3e4d963f	0.20076846
225	0xbd912c19	-0.07088489
226	0xbe16ce25	-0.14727075
227	0x3cf4c6ea	0.029880006
228	0x3e20354c	0.15645331
229	0x3d029a87	0.03188565
230	0x3e2a6393	0.16639547
231	0x3c178c1a	0.009249711
232	0x3d866f11	0.06564153
233	0x3e382ccb	0.17985837
234	0xbe0fa2a9	-0.14026894
235	0x3d5eac18	0.05436334
236	0x3d4cbaa7	0.049982693
237	0xbdc53a50	-0.09630263
238	0x3d49a751	0.04923183
239	0x3e06c090	0.13159394
240	0xbe126c99	-0.14299239
241	0x3c8046a9	0.015658693
242	0x3d38824a	0.04504613
243	0x3dba9d18	0.091119945
244	0xbde0a23a	-0.10968442
245	0x3d1b8517	0.03796872
246	0xbd8fc038	-0.07019085
247	0xbc260604	-0.01013327
248	0x3d5c17b4	0.053733543
249	0x3d0c1689	0.03420118
250	0x3e2ecb72	0.17069796
251	0x3ca42fc4	0.020042308
252	0x3c7c241b	0.015389468
253	0x3d20b272	0.03923268
254	0xbda31c66	-0.07964401
255	0xbd5f24d2	-0.054478474

bias f4 [40]
0	0x3daa5aa0	0.083180666
1	0x3d440c7d	0.047863472
2	0xbc88da82	-0.016705755
3	0x3d989c73	0.07451715
4	0x3cec9940	0.028881669
5	0x3cffec69	0.031240659
6	0x3e06e7e6	0.131744
7	0xbce8f47a	-0.028436888
8	0x3df9251e	0.12165283
9	0x3deb4af5	0.11488906
10	0x3d177149	0.03697327
11	0x3cafa477	0.021440728
12	0x3bfc62b5	0.0077021965
13	0xbceccc92	-0.02890614
14	0x3d9158db	0.07097026
15	0x3a7989a8	0.00095191086
16	0x3df1d6c3	0.11808541
17	0xbd8448d4	-0.06459203
18	0x3dc4e056	0.09613101
19	0xbde55973	-0.11198702
20	0xbccef1b4	-0.025261737
21	0xbd15abe2	-0.036540873
22	0x3ddb00b6	0.10693495
23	0xbc115b5c	-0.008871879
24	0x3da99e99	0.08282203
25	0x3e129a61	0.14316703
26	0x3d869bd7	0.06572693
27	0x3dbc0790	0.0918113
28	0x3d2a3d4d	0.041562367
29	0xbd34c69d	-0.044134725
30	0xbc2ad9b0	-0.010427877
31	0x3d84e7c0	0.06489515
32	0x3d3c69c0	0.04599929
33	0x3cbc3bb6	0.022977691
34	0x3cab8ff6	0.02094267
35	0x3e0c9904	0.13730246
36	0x3d19b7e7	0.0375289
37	0x3d6a5a6e	0.057215147
38	0xbde63aa1	-0.11241651
39	0x3d6ac983	0.057321083

weight f4 [2, 40]
0	0x3e5d7b88	0.21629155
1	0xbe97b284	-0.29628384
2	0xbc37d09d	-0.011219171
3	0x3db2fcf7	0.087396555
4	0xbe25db09	-0.16196837
5	0xbe33a380	-0.17542839
6	0xbe327002	-0.1742554
7	0x3e845292	0.25844246
8	0xbe63cf71	-0.22247101
9	0xbe23adb5	-0.15984233
10	0xbda39104	-0.07986644
11	0xbd9c05ce	-0.07618295
12	0x3e3ab338	0.18232429
13	0x3e4b0556	0.19826254
14	0x3ddd9277	0.108189516
15	0xbe0b50fb	-0.1360511
16	0xbe1e9a44	-0.15488535
17	0xbe8ed6f2	-0.27898365
18	0xbdb886df	-0.090100996
19	0xbc0ca8f8	-0.008585207
20	0x3d9c3a3b	0.07628294
21	0x3e833f29	0.25634125
22	0x3e5ceadc	0.21573967
23	0xbe9574a1	-0.29190543
24	0xbe714e7c	-0.23565096
25	0xbdf21c8b	-0.118218504
26	0x3e0f6595	0.14003594
27	0x3e510e68	0.20415652
28	0x3ca86dc5	0.020560155
29	0x3deb5bfa	0.114921525
30	0x3e71c9eb	0.23612182
31	0x3e1e0fd1	0.15435721
32	0x3ccb2bcc	0.024801157
33	0x3e637491	0.22212435
34	0x3e5f6019	0.21814002
35	0xbe8bccf3	-0.273048
36	0x3d85e272	0.06537332
37	0x3e2fbb5b	0.17161314
38	0x3cbcd014	0.023048438
39	0x3e130197	0.14356075
40	0xbe2b05b6	-0.16701397
41	0x3e15ce09	0.14629377
42	0x3e7d7a40	0.24753666
43	0xbe6a43e9	-0.22877468
44	0x3e18d259	0.14923991
45	0x3e930a0a	0.28718597
46	0x3dd07578	0.101786554
47	0xbe2ef2d6	-0.17084822
48	0x3dd97d37	0.10619586
49	0x3e54ede3	0.20793872
50	0x3e80ddae	0.25169128
51	0x3e93cd48	0.28867555
52	0xbe78278f	-0.2423384
53	0xbe44650c	-0.19179171
54	0xbe25e73c	-0.1620149
55	0x3e8e08b2	0.2774101
56	0x3e404231	0.1877525
57	0x3e093505	0.13399132
58	0x3e8fcd10	0.28086138
59	0xbb6a9898	-0.003579652
60	0xbdd97633	-0.10618248
61	0xbd67f9fd	-0.05663489
62	0xbe04c9e3	-0.12967639
63	0x3db37133	0.087618254
64	0x3de17d08	0.11010176
65	0x3e08d0a7	0.13360845
66	0xbe781441	-0.24226476
67	0xbe45394a	-0.19260135
68	0xbe4b14f2	-0.19832209
69	0xbe12d54b	-0.14339177
70	0xbd93f4db	-0.07224437
71	0xbe269c02	-0.1627045
72	0xbe516f7a	-0.20452681
73	0x3b034a1a	0.0020033182
74	0xbe0f4156	-0.13989767
75	0x3ca73a12	0.020413432
76	0xbe5869d4	-0.2113412
77	0xbd0d9c2e	-0.034572773
78	0x3c85ebbc	0.016347758
79	0xbe72972e	-0.23690483

bias f4 [2]
0	0x3d8ff88e	0.0702983
1	0xbd899d59	-0.06719465
