classifier/test_CNN.pt (torch, 69255 bytes, 10 tensors)

weight f4 [6, 1, 3, 3]
0	0x3e81d7fe	0.253601
1	0xbe9c1739	-0.30486467
2	0x3e4d1c0b	0.20030229
3	0xbd6b613f	-0.057465788
4	0xbd368990	-0.044564784
5	0x3ee4fa12	0.44722039
6	0xbe414155	-0.18872578
7	0xbca1cfaa	-0.019752342
8	0xbee37e72	-0.44432408
9	0x3e4b6ca7	0.19865666
10	0x3f3b9999	0.73281246
11	0x3f37069c	0.7149446
12	0xbe48fb3d	-0.1962709
13	0x3eb048bf	0.344305
14	0x3eba2d51	0.363627
15	0xbf1b5061	-0.60669523
16	0xbec4267d	-0.38310614
17	0xbe01257c	-0.12611955
18	0xbd071dba	-0.032987334
19	0xbed7d089	-0.42151287
20	0x3eecce75	0.46251264
21	0xbd8a9c6e	-0.06768118
22	0xbde430ad	-0.11142097
23	0xbe1d5c65	-0.15367277
24	0xbdf63e24	-0.12023571
25	0x3e3f2cec	0.1866948
26	0x3e13f62e	0.14449379
27	0x3ee1be32	0.4409042
28	0x3e96296c	0.29328477
29	0xbe0aabd4	-0.1354211
30	0xbdb1c1fe	-0.08679579
31	0xbdeea1ec	-0.11651978
32	0xbe4c61f9	-0.19959249
33	0xbf13722e	-0.575961
34	0x3e156cd7	0.145923
35	0x3e0656a0	0.13118982
36	0x3c455eab	0.012046496
37	0x3cbbde56	0.022933166
38	0xbdcbeb16	-0.099569485
39	0xbd606a16	-0.05478867
40	0xbe204b4e	-0.15653726
41	0x3e1160e8	0.14197123
42	0x3e5878cb	0.21139829
43	0x3e9bb66a	0.30412608
44	0x3d3c2f8b	0.045943778
45	0x3b929c5f	0.0044742073
46	0x3e95e2ce	0.292746
47	0x3dab8548	0.08375031
48	0x3e6ee101	0.2332802
49	0xbf1ee4cb	-0.6206786
50	0x3e7553f6	0.2395781
51	0xbd80c7f8	-0.06288141
52	0x3e89aae7	0.268882
53	0xbb00acd8	-0.0019634273

bias f4 [6]
0	0xbe206847	-0.15664779
1	0x3c7bc340	0.015366375
2	0xbddde7e6	-0.10835247
3	0xbde23e0f	-0.11046993
4	0xbe9d6f28	-0.30748868
5	0xbab51af3	-0.0013817236

weight f4 [16, 6, 3, 3]
0	0xbdd2bfa3	-0.10290458
1	0xbd9e5a41	-0.07732058
2	0x3e628aa1	0.22123195
3	0xbdb6bf59	-0.089232154
4	0xbd97ba8c	-0.07408628
5	0xbe4688df	-0.1938815
6	0x3d67b112	0.05656535
7	0xbdb95ce6	-0.09050922
8	0xbdbdfeee	-0.092771396
9	0x3d4c5c67	0.04989281
10	0x3d15963f	0.03652024
11	0x3f4f4acd	0.8097351
12	0xbd04c180	-0.0324111
13	0xbc92c620	-0.017916739
14	0x3e940312	0.28908592
15	0xbc9bfac8	-0.01904048
16	0x3c4d1446	0.012517041
17	0x3d18ef2d	0.03733747
18	0xbe038b91	-0.12846209
19	0x3e3c5ab3	0.18393974
20	0xbd96eca7	-0.073693566
21	0x39d3aaef	0.00040372412
22	0xbe9d7004	-0.30749524
23	0x3ca26b23	0.019826477
24	0xbc80c467	-0.015718652
25	0xbcd16030	-0.025558561
26	0xbe31f7b1	-0.17379643
27	0x3dab3ec6	0.083615825
28	0x3c376936	0.011194518
29	0xbe628e71	-0.2212465
30	0xbd4bd1e4	-0.049760714
31	0xbca6f156	-0.02037875
32	0x3d446e38	0.047956675
33	0x3d7ef07a	0.062241055
34	0xbd07cdaa	-0.03315512
35	0x3c0402fa	0.00805735
36	0x3e0951b2	0.1341007
37	0x3d1312ec	0.035906717
38	0xbdee8e4a	-0.11648233
39	0xbd290324	-0.04126276
40	0xbe0243db	-0.12721197
41	0xbdb4ae1c	-0.08822271
42	0xbd3f1b79	-0.04665706
43	0xbca157b5	-0.019695142
44	0x3dd7dbd4	0.10539976
45	0xbd7c00b7	-0.06152412
46	0x3d268c7b	0.040661316
47	0x3deee32b	0.116644226
48	0x3c332c10	0.010935798
49	0xbce60e87	-0.028083099
50	0xbc2bd31f	-0.010487347
51	0xbd859e83	-0.06524374
52	0x3c85bd28	0.016325548
53	0xbd3c0995	-0.045907576
54	0x3d985343	0.07437756
55	0x3d2b7116	0.041855894
56	0xbbf22556	-0.0073897047
57	0xbdd6604d	-0.10467587
58	0x3eb3d403	0.3512269
59	0x3e03ac97	0.12858807
60	0xbe8d9c53	-0.27658328
61	0xbd828c39	-0.063744016
62	0x3d76b729	0.06023327
63	0x3c5087b5	0.012727668
64	0x3eccab34	0.39974368
65	0x3e190545	0.14943416
66	0xbf26c704	-0.65147424
67	0xbf03e15e	-0.5151576
68	0xbdd6e686	-0.104931876
69	0x3aa34542	0.0012456554
70	0xbfba131e	-1.4537084
71	0xbe3e920e	-0.18610403
72	0x3c2002c9	0.009766289
73	0xbd8c545e	-0.06852029
74	0x3d819843	0.0632787
75	0x3ea476e5	0.3212196
76	0xbeba59f5	-0.36396757
77	0x3d96bfc2	0.07360794
78	0x3cecfb6a	0.028928477
79	0x3d5b838a	0.053592242
80	0x3d311095	0.043228704
81	0x3e5208fe	0.20511243
82	0xbe11f9f4	-0.14255506
83	0xbcebe80a	-0.028797168
84	0xbccde3ea	-0.025133092
85	0xbe178425	-0.14796503
86	0xbdd019c9	-0.10161168
87	0x3c062344	0.008187119
88	0x3d12a65b	0.03580318
89	0xbe2893cb	-0.16462629
90	0xbbb4b04d	-0.0055141808
91	0xbde69366	-0.11258583
92	0xbcc15b65	-0.02360315
93	0xbd08eaf5	-0.033427197
94	0xbd92a7dc	-0.07160923
95	0x3cf02995	0.029316703
96	0xbc08a519	-0.008340144
97	0xbdb20b8c	-0.08693609
98	0xbda73c10	-0.08165753
99	0x3e4e08fa	0.20120612
100	0xbe9564a7	-0.29178354
101	0xbd8d82f2	-0.069097415
102	0xbbd1d39a	-0.0064033987
103	0xbe94ca00	-0.29060364
104	0xbda5224a	-0.08063181
105	0x3bf8f8c7	0.007598016
106	0x3dfcc205	0.12341694
107	0xbc9e6154	-0.019333519
108	0xbeca1f0d	-0.39476815
109	0xbf247cb7	-0.642528
110	0xbe8e71bb	-0.27821144
111	0x3c496b16	0.012293598
112	0xbef83006	-0.4847414
113	0x3e43fa48	0.19138443
114	0x3d916045	0.0709844
115	0xbe38fdb6	-0.18065533
116	0x3e898900	0.26862335
117	0x3d3175fa	0.0433254
118	0xbe20a15f	-0.15686558
119	0x3dafef3b	0.085905515
120	0x3df87d4f	0.12133276
121	0x3cfc68cb	0.030811688
122	0x3e03fb24	0.12888771
123	0xbc682c05	-0.014170651
124	0xbde2d273	-0.11075296
125	0x3d9cc9b2	0.07655658
126	0x3e8ba98a	0.27277786
127	0xbee05b47	-0.4381964
128	0x3eb1bced	0.3471445
129	0xbef0ae22	-0.47007853
130	0xbfde71cd	-1.7378479
131	0xbdc8f071	-0.098114856
132	0xbd8c047d	-0.068367936
133	0xbee6eae3	-0.4510108
134	0xbd90faea	-0.07079108
135	0xbf6f8754	-0.9356587
136	0xbec593bc	-0.38589275
137	0xbe4a6403	-0.19764714
138	0xbc969894	-0.018383302
139	0xbdaea7ce	-0.085281
140	0xbe7cc73c	-0.24685377
141	0xbe48a723	-0.19595008
142	0xbeba6a68	-0.36409307
143	0xbc3cf430	-0.011532828
144	0xbdd42a3b	-0.10359617
145	0x3a9c83aa	0.0011941094
146	0x3d7628cd	0.060097504
147	0xbdadf3ad	-0.08493743
148	0x3c70e6f1	0.014703498
149	0x3dff584f	0.124680154
150	0xbde8e0e4	-0.113710195
151	0x3d9c909a	0.07644768
152	0xbdb1bf80	-0.08679104
153	0xbf48be05	-0.78414947
154	0xbeebfd0b	-0.46091494
155	0xbd9c1842	-0.07621814
156	0xbf4fa567	-0.8111176
157	0xbf833b60	-1.0252495
158	0xbbe3b214	-0.006948719
159	0xbd47b3d6	-0.04875549
160	0xbf99053b	-1.1954721
161	0x3cd4c114	0.025970973
162	0xbdb6afd1	-0.08920253
163	0x3e7538de	0.23947474
164	0xbc7a4732	-0.015275763
165	0xbda587f3	-0.08082571
166	0xbd85b0c8	-0.06527859
167	0xbc4f1330	-0.012638852
168	0xbce7003a	-0.02819835
169	0x3e7406d1	0.23830725
170	0xbd658908	-0.056038886
171	0xbd9d5df7	-0.07683938
172	0xbe04c4ad	-0.12965651
173	0x3f159ede	0.5844554
174	0x3c01284d	0.007883144
175	0xbdea8e87	-0.11452966
176	0xbe291087	-0.16510211
177	0xbc08152c	-0.008305829
178	0xbd9e21fd	-0.077213265
179	0xbe5439e2	-0.20725206
180	0xbdc3e44b	-0.09565028
181	0xbc4bed2f	-0.012446686
182	0xbc85e46d	-0.016344273
183	0xbd6f37b8	-0.058402747
184	0xbe0b3f4c	-0.13598365
185	0x3e344a0c	0.17606372
186	0xbdcaeb0d	-0.09908114
187	0x3baacd44	0.005212458
188	0xbe1dfcf0	-0.15428519
189	0xbdc51899	-0.09623832
190	0xbef2713a	-0.4735201
191	0x3e803fbd	0.25048628
192	0x3e4cdd35	0.20006259
193	0x3d3dba3a	0.046320178
194	0xbe8be557	-0.2732341
195	0x3cf602ee	0.030030694
196	0x3d93e704	0.07221797
197	0xbe94f95a	-0.2909649
198	0xbda7134f	-0.0815798
199	0x3d45eea8	0.048323303
200	0xbcb79f7b	-0.022414913
201	0x3d375047	0.044754293
202	0xbd0ac7b1	-0.033881847
203	0x3d1d370a	0.038382567
204	0x3d4e21d2	0.050325222
205	0xbc8c322a	-0.017113764
206	0x3cb83dfb	0.022490492
207	0xbed0627b	-0.40700135
208	0xbc227b76	-0.009917131
209	0x3d9b511f	0.07583832
210	0x3d488781	0.04895735
211	0xbe49bcbc	-0.19700903
212	0xbd877263	-0.066136144
213	0xbdfccb2b	-0.12343439
214	0xbea5b5e4	-0.32365334
215	0xbe99a137	-0.3000581
216	0x3bae2365	0.005314278
217	0xbe8d7f17	-0.27636024
218	0x3de26d0f	0.110559575
219	0xbdbd2401	-0.09235383
220	0xbf055770	-0.52086544
221	0x3ec731b8	0.3890512
222	0xbf2d1218	-0.67605734
223	0xbe2cd8cf	-0.16879581
224	0x3daeeda0	0.08541417
225	0xbef71c2c	-0.4826368
226	0xbe973f41	-0.29540446
227	0xbdb3b872	-0.087754145
228	0xbf648dfc	-0.8927915
229	0xbe9fb06f	-0.31189296
230	0xbe3ff821	-0.18746997
231	0xbc444d1d	-0.011981276
232	0xbf5911de	-0.8479289
233	0x3db531f4	0.088474184
234	0x3cbf9f54	0.023391403
235	0xbdf36a99	-0.11885566
236	0x3d6c9ec2	0.05776859
237	0x3d99cf5d	0.075102545
238	0xbeb3f159	-0.3514507
239	0x3ee743d3	0.45168933
240	0xbf5c21d9	-0.8598915
241	0xbdb41b87	-0.08794313
242	0x3ded6e5b	0.11593314
243	0x3d85033a	0.06494756
244	0xbe5872d0	-0.21137547
245	0xbd250cd0	-0.040295422
246	0xbc7b7f64	-0.0153501965
247	0xbe485866	-0.19564971
248	0xbe154fb2	-0.14581183
249	0x3bd94077	0.0066299993
250	0x3bb8b5a2	0.0056368867
251	0xbde3b4fb	-0.11118504
252	0x3de8d018	0.11367816
253	0x3da0c989	0.0785094
254	0x3dd41436	0.103554174
255	0x3d379ef4	0.044829324

bias f4 [16]
0	0xbcce43bf	-0.025178788
1	0xb98e816d	-0.0002718078
2	0x3ba8730b	0.0051406673
3	0xbac40c9e	-0.0014957373
4	0x3a3a0f8f	0.00070976553
5	0xbbd306b7	-0.0064400095
6	0xbdb08e34	-0.08620873
7	0xbc7188b4	-0.014742065
8	0x3ae27074	0.0017275945
9	0xbbbfd792	-0.0058545554
10	0xbd7db121	-0.0619365
11	0xbcaa2290	-0.020768434
12	0x3a9e25cd	0.0012065709
13	0xbbab72de	-0.005232199
14	0xbc013f7c	-0.007888671
15	0xbae9c0bc	-0.0017833929

weight f4 [80, 144]
0	0x3d399ae3	0.045313727
1	0xbd18d7b9	-0.037315104
2	0x3d025bb0	0.03182572
3	0xbe73f8b7	-0.23825346
4	0xbde6a1d6	-0.112613365
5	0xbd4b9291	-0.049700323
6	0xbe23c945	-0.15994747
7	0x3e20bb21	0.15696384
8	0x3d20eb11	0.039286677
9	0x3dd64230	0.10461843
10	0x3d7e348f	0.062061843
11	0xbe023fc1	-0.12719633
12	0xbe404e95	-0.18779977
13	0xbd923ab7	-0.07140105
14	0xbd8599d7	-0.06523483
15	0x3c5fd541	0.013661684
16	0xbeb76efe	-0.35826868
17	0x3d55cc9d	0.052197088
18	0xbdfcef10	-0.12350285
19	0xbc165aca	-0.009176919
20	0xbe930595	-0.28715196
21	0xbd921096	-0.0713207
22	0xbdc06641	-0.093945034
23	0xbe1456bd	-0.14486213
24	0xbda11226	-0.0786479
25	0x3db3dbfa	0.087821916
26	0x3b255173	0.002522555
27	0x3db9d011	0.09072889
28	0xbda0ef63	-0.078581594
29	0x3e026605	0.1273423
30	0xbe55ed9e	-0.20891425
31	0x3cd40dd8	0.025885507
32	0x3e1239f6	0.14279923
33	0xbd6b939a	-0.05751381
34	0x3b2a38bc	0.0025973758
35	0x3de0c83c	0.10975692
36	0xbe4588fc	-0.19290537
37	0x3db748cd	0.089494325
38	0xbe3cb90f	-0.18429969
39	0xbddc60de	-0.107606634
40	0x3e120e8a	0.14263359
41	0xbeb3a8db	-0.35089764
42	0x3e114bc7	0.14189063
43	0x3e1a32a7	0.15058385
44	0xbe4c82c6	-0.19971761
45	0x3e1551e0	0.14582014
46	0x3d8bf95a	0.068346694
47	0x3e03aebb	0.12859623
48	0xbf172fc0	-0.59057236
49	0x3df68456	0.1203696
50	0x3c342bc8	0.010996766
51	0xbd8de34d	-0.0692812
52	0x3e19ea59	0.15030803
53	0x3de7ebd8	0.113242805
54	0x3cd8ee38	0.026480779
55	0xbdbfa168	-0.09356958
56	0xbe089f55	-0.1334203
57	0xbe1e84db	-0.15480368
58	0xbce81043	-0.028328067
59	0xbc63eaaa	-0.013910929
60	0x3d42ab68	0.047526747
61	0xbd9c7f39	-0.07641453
62	0xbe54bb91	-0.20774676
63	0xbd77e437	-0.060520377
64	0x3ddbc780	0.10731411
65	0x3b54d668	0.003247643
66	0xbe96d125	-0.2945644
67	0x3d670725	0.056403298
68	0x3bbd15eb	0.005770435
69	0xbe022a5b	-0.1271147
70	0x3d8eed89	0.069789
71	0xbcbfad88	-0.023398176
72	0xbd0c90ac	-0.034317657
73	0xbe637f15	-0.22216447
74	0x3e0ba4c5	0.13637073
75	0xbdc80ab0	-0.097676635
76	0xbd658c0e	-0.05604177
77	0x3bb06df0	0.0053841993
78	0x3e29729b	0.16547625
79	0x3d97caa5	0.07411698
80	0xbdcd54d8	-0.10025948
81	0x3bd5a504	0.0065199155
82	0x3e817ac8	0.25288987
83	0x3d9be4e6	0.07612018
84	0x3dc1582c	0.094406456
85	0x3d16ae7d	0.0367875
86	0xbc87c3a3	-0.016572779
87	0xbb1d9fe2	-0.0024051596
88	0xbd405124	-0.04695238
89	0x3d77f004	0.06053163
90	0x3b6e9a05	0.003640772
91	0x3cdcf59c	0.026972584
92	0x3ca11a29	0.019665794
93	0x3e88672c	0.26641214
94	0xbdcda890	-0.10041916
95	0x3aa34332	0.0012455939
96	0xbcc86820	-0.024463713
97	0xbe8ff872	-0.28119236
98	0x3d315914	0.043297842
99	0x3e852914	0.26007903
100	0xbda2c495	-0.07947651
101	0x3d51b7e8	0.051200777
102	0xbe39d6a1	-0.1814828
103	0x3e709da5	0.23497637
104	0xbd87e739	-0.06635899
105	0x3cec4d6d	0.028845513
106	0x3c080100	0.00830102
107	0xbd29a5e5	-0.041417975
108	0xbe5cfd15	-0.21580918
109	0x3dcd4fb7	0.1002497
110	0x3d88acc0	0.066735744
111	0x3e8ed01b	0.27893147
112	0x3c4ebfb9	0.012618952
113	0xbdb75590	-0.089518666
114	0x3e51d70c	0.2049219
115	0x3e47154d	0.1944172
116	0xbd4cc8e8	-0.049996287
117	0x3daef598	0.08542937
118	0xbd917f41	-0.0710435
119	0xbe8735b3	-0.26408157
120	0xbf3f9b7c	-0.74846625
121	0x3d9e6ccd	0.07735596
122	0x3e867df7	0.2626798
123	0xbdb65696	-0.08903234
124	0x3d03a2b9	0.032137606
125	0x3e8b3960	0.2719221
126	0xbdbfdf19	-0.093687244
127	0xbdf52b38	-0.11971134
128	0x3e49a9d7	0.19693695
129	0x3cbe2942	0.023213033
130	0xbceae10f	-0.02867177
131	0x3da651c3	0.081210636
132	0x3cc99dfb	0.024611464
133	0x3eb2742c	0.34854257
134	0xbd615ec1	-0.055022005
135	0x3e11d86e	0.14242718
136	0x3d853929	0.06505043
137	0x3e026180	0.12732506
138	0xbe1ab86f	-0.15109418
139	0xbe2ddb06	-0.16978082
140	0xbd96bde7	-0.0736044
141	0xbd5d6806	-0.054054283
142	0x3cd9cee0	0.026587903
143	0xbdd8eca7	-0.10592013
144	0x3cc6a0f9	0.02424668
145	0x3d07535e	0.03303849
146	0x3c743595	0.014905353
147	0x3d1060c8	0.035248548
148	0xbdd02828	-0.10163909
149	0xbe29602c	-0.16540593
150	0xbce4f259	-0.027947592
151	0xbe3e623b	-0.1859216
152	0xbd5df4f7	-0.054188695
153	0x3e7b5dbd	0.24547477
154	0x3dee764c	0.11643657
155	0x3e4da948	0.20084107
156	0xbe800a54	-0.2500788
157	0xbc7a76d2	-0.015287118
158	0x3c2533bc	0.010083135
159	0xbc18be22	-0.009322675
160	0xbe96e7a2	-0.29473597
161	0x3dfeb1ab	0.12436231
162	0xbec34058	-0.38135028
163	0xbe3f70ad	-0.18695326
164	0xbdde10d3	-0.10843053
165	0xbdc6fd05	-0.097162284
166	0x3e59ad6f	0.21257566
167	0xbe2fdfba	-0.17175189
168	0xbc247de6	-0.010039782
169	0x3b9da263	0.004810618
170	0x3c858be5	0.016302058
171	0x3d57fcd4	0.05273135
172	0x3dd6138f	0.10452949
173	0xbd8da9a9	-0.06917126
174	0x3d893b8e	0.06700812
175	0xbdb88073	-0.09008875
176	0x3d681417	0.056659784
177	0xbd91b52c	-0.07114634
178	0xbdc99cba	-0.09844346
179	0xbe030425	-0.1279455
180	0xbf451616	-0.76986825
181	0xbe1bb8e9	-0.15207256
182	0xbd6eb428	-0.05827728
183	0xbeb93977	-0.36176655
184	0x3dd1e80b	0.10249337
185	0xbe01da0a	-0.12680832
186	0x3d4c7fc2	0.049926527
187	0x3e8e2b2a	0.27767307
188	0x3bdcbd6c	0.006736448
189	0x3d66c9fa	0.056344964
190	0x3b7a6451	0.0038206766
191	0x3cb3ab38	0.02193223
192	0xbea1935e	-0.31557745
193	0x3e314616	0.17311892
194	0xbd317ecf	-0.043333825
195	0x3d38a6c4	0.045080915
196	0x3f0763a8	0.5288644
197	0x3e4a41fb	0.19751732
198	0xbe5aa585	-0.21352203
199	0xbddd2fc3	-0.108001254
200	0xbdc8f8a8	-0.098130524
201	0xbe77718c	-0.24164408
202	0x3d2f6440	0.042820215
203	0xbd7ea3fe	-0.062168114
204	0x3ab124cb	0.0013514993
205	0xbe3a1d39	-0.1817521
206	0xbcb520b1	-0.022110315
207	0xbcd16b1f	-0.025563775
208	0xbd09a6cf	-0.033606347
209	0x3d21b394	0.0394779
210	0xbe5c6d3d	-0.21526046
211	0xbd16241f	-0.03665554
212	0x3cd0ed7f	0.025503872
213	0xbe86b10e	-0.26306957
214	0xbd8d975b	-0.069136344
215	0xbde47ced	-0.1115664
216	0xbe81df4d	-0.25365677
217	0x3d78b55d	0.060719837
218	0x3dc8cf86	0.09805207
219	0xbea36088	-0.31909585
220	0x3d8f0b0f	0.06984531
221	0xbe88658f	-0.26639983
222	0x3e4c87b5	0.19973643
223	0x3d32e35a	0.04367385
224	0xbccc62d0	-0.024949461
225	0x3ea2746e	0.31729454
226	0x3ddece08	0.10879141
227	0x3e51fe40	0.20507145
228	0x3e552192	0.20813587
229	0xbd9ffc71	-0.07811821
230	0x3db329d8	0.087482154
231	0xbe19473d	-0.14968581
232	0xbe6a143b	-0.2285928
233	0xbde29447	-0.11063438
234	0x3e0f110a	0.13971344
235	0xbc047679	-0.008084887
236	0xbd8d81b8	-0.069095075
237	0xbebb219c	-0.3654908
238	0xbdcb3ed7	-0.09924095
239	0xbe13711d	-0.14398618
240	0xbdae2121	-0.085024126
241	0xbe04b688	-0.12960255
242	0xbd813cb7	-0.063104086
243	0x3db14531	0.08655775
244	0xbe1bc83f	-0.15213107
245	0x3d0a1629	0.03371254
246	0xbdef2950	-0.116778016
247	0xbd47f797	-0.048820104
248	0x3d7265ef	0.059179243
249	0xbd4bfaa8	-0.04979959
250	0x3e890bf3	0.2676693
251	0xbe0bbb45	-0.13645656
252	0xbd68fbe6	-0.056880854
253	0x3d3003c5	0.042972345
254	0x3cc5935d	0.02411812
255	0xbe317b63	-0.17332225

bias f4 [80]
0	0xbdbed5ed	-0.09318147
1	0xbd4905c7	-0.049077775
2	0xbd511b46	-0.0510514
3	0x3c6a9abe	0.01431912
4	0x3c84ff0d	0.016234899
5	0x3c54513f	0.012958824
6	0x39acfb48	0.00032993616
7	0xbdd2f2c6	-0.103002116
8	0xbdc7f3a4	-0.09763268
9	0x3c79f011	0.01525499
10	0x3c416391	0.011803524
11	0xbc1d1806	-0.009588247
12	0x3ba7329b	0.005102468
13	0x3b2fc115	0.0026817967
14	0xbd23c992	-0.039987154
15	0x3ba71693	0.0050991266
16	0xbe0c9eda	-0.13732472
17	0x3b11e574	0.002226201
18	0x3c027aa6	0.007963812
19	0xbd17c4be	-0.037052862
20	0x3aeae2da	0.001792039
21	0xbdec7537	-0.115457945
22	0xbd0790ab	-0.03309695
23	0x3c01be2b	0.007918875
24	0x3b9b9d51	0.004748978
25	0x3c8e2e73	0.017356133
26	0x3c4f5c02	0.012656214
27	0xbda73b7e	-0.08165644
28	0x3c9695ad	0.018381918
29	0xbc9c058c	-0.019045614
30	0x3b4d3328	0.003131101
31	0xbd581bca	-0.052760877
32	0x3c471fd4	0.0121535845
33	0x3c818632	0.01581106
34	0x3b395e11	0.0028284828
35	0xbcd1ef86	-0.025626909
36	0xbe1d1af4	-0.15342313
37	0x3c92fa6c	0.017941676
38	0x3c2e9c21	0.010657341
39	0x3c698ef7	0.014255277
40	0x3bef2fff	0.0072994228
41	0xbd697cc7	-0.057003763
42	0xbd59524c	-0.053057
43	0xbd314dca	-0.043287076
44	0x39722194	0.00023091427
45	0xbe209915	-0.15683396
46	0xbcfd000c	-0.030883811
47	0xbd228e02	-0.03968621
48	0x3c4a5dd9	0.012351477
49	0xbdd326b3	-0.10310116
50	0xbc737c7b	-0.014861221
51	0x3c851ade	0.016248163
52	0x3c8a9f47	0.016921652
53	0x3c430e78	0.011905305
54	0x3beca926	0.0072223125
55	0x3c0d0d14	0.008609075
56	0x3c0710df	0.0082437685
57	0x3c4f34b5	0.012646844
58	0x3ba434d8	0.0050111823
59	0xbd0b0fa5	-0.033950467
60	0xbc74a4c5	-0.014931862
61	0xbe31a0c8	-0.1734649
62	0xbac77ca9	-0.0015219647
63	0x3a640228	0.0008697831
64	0xbd0d5339	-0.034503195
65	0xbb74b87b	-0.0037341404
66	0xbe15ea5a	-0.1464018
67	0xbdf47284	-0.119359046
68	0x3c713452	0.014721947
69	0xbe173a14	-0.14768249
70	0xbad2d0e4	-0.0016083983
71	0x3b9907aa	0.004670103
72	0xbcbcea35	-0.023060897
73	0x3bd87556	0.0066057844
74	0x3c021b5d	0.007941094
75	0xbd8c130c	-0.068395704
76	0x3bb8ea00	0.0056431293
77	0x3c2d3809	0.010572442
78	0x3cb3a1be	0.02192771
79	0xbe02a608	-0.12758648

weight f4 [40, 80]
0	0xbdcf2030	-0.10113561
1	0xbea11da6	-0.31467932
2	0x3e9ca168	0.30591893
3	0x3f264692	0.6495143
4	0x3e8d67b0	0.2761817
5	0xbf2b8305	-0.66996795
6	0x3ed2f523	0.4120265
7	0x3eadbde3	0.33933935
8	0x3ec201e1	0.37892058
9	0xbe863951	-0.26215604
10	0xbe9c3678	-0.30510306
11	0xbea0a83a	-0.31378347
12	0x3d7a81aa	0.061158814
13	0x3efe6c43	0.49691972
14	0xbd51c541	-0.051213507
15	0xbe6e954c	-0.2329914
16	0xbc6f2ef6	-0.014598599
17	0xbe8141f9	-0.25245646
18	0xbedc92d3	-0.43080768
19	0xbe94c6d8	-0.29057956
20	0xbf161bcb	-0.5863616
21	0x3e4dd790	0.20101762
22	0xbe6292f1	-0.22126366
23	0x3e5fbcf7	0.21849428
24	0xbc883d80	-0.016630888
25	0x3efc0e9d	0.492299
26	0xbe973c01	-0.29537967
27	0x3ef9f644	0.48820698
28	0x3fc3202d	1.5244194
29	0xbe5789ff	-0.21048735
30	0xbdf1f314	-0.118139416
31	0xbdc994f9	-0.098428674
32	0xbc1209fd	-0.008913514
33	0x3edaff02	0.4277268
34	0xbd047316	-0.032336317
35	0x3e675028	0.22589171
36	0xbd08d16a	-0.033402838
37	0x3f647491	0.89240366
38	0x3ce3d11e	0.027809676
39	0x3f258ecc	0.64671016
40	0xbe4b82b9	-0.19874085
41	0x3f23a948	0.6393018
42	0x3ebe6655	0.37187448
43	0x3ec15860	0.37762737
44	0x3dfe35f9	0.12412638
45	0x3e5dfb7a	0.21677962
46	0xbdd11edd	-0.10210965
47	0xbd0bb518	-0.03410825
48	0xbf0c352c	-0.54768634
49	0x3e8b7366	0.2723648
50	0x3ec5cc79	0.38632563
51	0xbf844e17	-1.0336331
52	0x3fb637f0	1.4235821
53	0x3ed18863	0.40924367
54	0x3e5ca201	0.21546175
55	0x3f912f28	1.1342516
56	0x3fb64eba	1.4242775
57	0xbd34abb0	-0.044109046
58	0x3ec64f2d	0.3873228
59	0x3a5272e6	0.00080279855
60	0x3ef724f4	0.4827038
61	0xbe8de7fb	-0.2771605
62	0x3e871ac7	0.26387617
63	0x3ec875f8	0.39152503
64	0x3d5ef63c	0.054434046
65	0x3f1c7856	0.6112112
66	0x3dfbdbf2	0.122978106
67	0x3e65799e	0.22409675
68	0x3f07970b	0.5296485
69	0xbe14278b	-0.1446821
70	0x3eafbdb2	0.34324414
71	0x3f6e49f4	0.93081594
72	0xbca11b6c	-0.019666396
73	0x3ecb52c4	0.39711583
74	0x3eeb49e0	0.459548
75	0xbdd6d153	-0.10489144
76	0xbbbb4af4	-0.005715722
77	0x3ebcb63f	0.36857793
78	0x3f209076	0.6272043
79	0xbd8b453b	-0.06800314
80	0x3ebc6189	0.36793163
81	0x3f153210	0.58279514
82	0xbeae5aa9	-0.34053543
83	0xbebf661f	-0.373826
84	0xbdaf04ad	-0.08545814
85	0x3fca30ae	1.5796106
86	0xbe22284c	-0.15835685
87	0xbe8f28e8	-0.27960896
88	0xbf330b65	-0.6993926
89	0x3f33b9b5	0.7020524
90	0x3f089ffa	0.53369105
91	0x3f80e112	1.0068686
92	0x3e8f46bc	0.27983654
93	0xbec3e00d	-0.38256875
94	0x3ea08577	0.31351826
95	0x3f24cd87	0.6437611
96	0x3e24d180	0.16095543
97	0x3f30ca41	0.69058615
98	0x3f3b2af6	0.7311243
99	0x3ed2610f	0.41089675
100	0x3f0eb980	0.557518
101	0xbf473975	-0.7782205
102	0x3eddfc81	0.43356708
103	0xbe9333d8	-0.2875049
104	0x3eabfb05	0.3358995
105	0xbe35f8ec	-0.17770737
106	0x3f36ef4a	0.71458876
107	0xbebf8b6e	-0.37411064
108	0xbf211755	-0.62926227
109	0x3ef52ec3	0.4788724
110	0x3f118e0e	0.56857383
111	0x3ed3eb35	0.41390386
112	0x3f23dd23	0.640093
113	0xbe5b930d	-0.21442814
114	0x3e799454	0.24372989
115	0xbe93b469	-0.2884858
116	0x3e4fe5c4	0.20302492
117	0xbe1a5dc9	-0.15074839
118	0x3e86ccb5	0.26328054
119	0xbdb2caca	-0.08730085
120	0x3f066d1f	0.52510256
121	0xbf0d1c02	-0.5512086
122	0xbeb75fab	-0.35815176
123	0xbe9112d9	-0.28334692
124	0xbcaa4d25	-0.020788739
125	0xbeb58107	-0.35450003
126	0x3e2dae91	0.16961123
127	0x3d5f4530	0.05450934
128	0x3f8c4ced	1.0960976
129	0xbe43ba5b	-0.19114058
130	0xbf00a08f	-0.5024499
131	0x3fe1583c	1.7605052
132	0xbf398fda	-0.72485125
133	0xbd4c30d4	-0.049851254
134	0xbdd5e4dd	-0.10444043
135	0xbf5548d0	-0.8331423
136	0xbf46de05	-0.77682525
137	0x3de429f2	0.11140813
138	0x3d16da7c	0.036829457
139	0x3cb794ef	0.022409884
140	0xbf2635e6	-0.6492599
141	0x3e54f76d	0.2079751
142	0xbe82bbe4	-0.25533974
143	0xbe89548d	-0.2682232
144	0xbe54a3c5	-0.20765598
145	0xbebffbe5	-0.37496868
146	0xbeda273f	-0.42608067
147	0xbeb2c6f3	-0.3491741
148	0x3b86429a	0.004097295
149	0x3ecead36	0.40366524
150	0xbeb0890a	-0.34479553
151	0xbf02e7f0	-0.5113516
152	0x3db7b523	0.08970096
153	0xbd3e9e3a	-0.046537615
154	0xbe15343e	-0.1457071
155	0x3eba3b08	0.36373162
156	0x3eb82132	0.35962826
157	0x3c9c45fb	0.019076338
158	0xbe0cabd2	-0.13737419
159	0x3ea9bd89	0.33152416
160	0x3e890242	0.26759535
161	0x3f12f89d	0.57410604
162	0xbe568b72	-0.20951632
163	0xbee0eb14	-0.4392935
164	0xbdce1df7	-0.10064309
165	0x3fbed7c0	1.4909592
166	0xbe8fb2dd	-0.2806615
167	0xbe8e735a	-0.2782238
168	0xbee7b741	-0.45257
169	0x3f2ca4e8	0.67439127
170	0x3f018e47	0.50607723
171	0x3f509953	0.81483954
172	0x3de9a258	0.11407918
173	0xbe7525ab	-0.2394015
174	0x3d6eb76c	0.058280393
175	0x3f2a2447	0.66461605
176	0x3e140742	0.14455894
177	0x3f1d77b7	0.61510795
178	0x3f0684f8	0.52546644
179	0x3e9a0a79	0.30086115
180	0x3eee59a4	0.46552765
181	0xbe9612db	-0.2931126
182	0x3e8dbdde	0.2768392
183	0xbe9b2f72	-0.30309635
184	0x3e602502	0.21889117
185	0xbe806962	-0.250804
186	0x3f13c439	0.57721287
187	0xbf00eb7d	-0.50359327
188	0xbf440d79	-0.7658306
189	0x3ea9236a	0.3303483
190	0x3f03aba1	0.5143376
191	0x3ea091dc	0.31361282
192	0x3eb67f73	0.3564411
193	0xbe5b0972	-0.21390322
194	0x3ec9af0c	0.39391363
195	0xbe9858b2	-0.2975517
196	0x3e1dabf1	0.15397622
197	0xbec6a7ee	-0.38799995
198	0x3e6a9418	0.22908056
199	0xbe4afd1a	-0.19823113
200	0x3efe96ad	0.49724331
201	0xbef205fa	-0.47270185
202	0xbec5eda9	-0.38657883
203	0xbeb034a7	-0.3441517
204	0xbdc8a28f	-0.097966306
205	0xbe0eebcb	-0.13957135
206	0x3cc916f2	0.024547074
207	0x3e69e0e1	0.2283969
208	0x3f820583	1.0157932
209	0xbe231329	-0.15925278
210	0xbe95858d	-0.29203454
211	0x3fcd8cba	1.6058571
212	0xbf4dd2a9	-0.80399567
213	0xbe2f0aea	-0.17094007
214	0xbddbbbe6	-0.10729198
215	0xbf587863	-0.84558696
216	0xbf23af08	-0.6393895
217	0x3eab3d60	0.33445263
218	0xbe0df767	-0.13863908
219	0xbd014b39	-0.03156588
220	0xbf15bd7d	-0.5849226
221	0x3e8d5f9e	0.27612013
222	0xbddf8754	-0.10914484
223	0xbda35dc1	-0.079768665
224	0xbe93dddf	-0.28880212
225	0xbead1b8f	-0.33810088
226	0xbe75863d	-0.23976989
227	0xbe1ac664	-0.15114743
228	0xbd91ebc3	-0.07125046
229	0x3e821fc5	0.25414863
230	0xbdf71e69	-0.12066347
231	0xbf067f7d	-0.5253828
232	0x3e5da1f8	0.21643817
233	0xbdb884b5	-0.09009687
234	0xbe653911	-0.2238505
235	0x3ea68f1f	0.32531068
236	0x3e3db27d	0.18525119
237	0xbcd8de62	-0.026473228
238	0xbe65c6fd	-0.2243919
239	0x3e88423c	0.26613033
240	0xbda8c084	-0.082398444
241	0xbea2a478	-0.31766105
242	0x3e13d1f9	0.14435567
243	0x3f4236db	0.7586495
244	0x3ea32194	0.31861556
245	0xbf0e9c7c	-0.55707526
246	0x3ea4a5c6	0.32157725
247	0x3e96fbfd	0.29489127
248	0x3ecdfa3f	0.40229985
249	0xbe6934d2	-0.22774056
250	0xbe3c7f38	-0.18407905
251	0xbea83da0	-0.32859516
252	0x3d5ce9fb	0.05393408
253	0x3e9ff67f	0.3124275
254	0xbc831f99	-0.016006278
255	0xbe1f3ee7	-0.15551339

bias f4 [40]
0	0x3c2e2723	0.010629448
1	0xb9db3612	-0.0004181122
2	0x3c044336	0.008072665
3	0xbaaf8210	-0.0013390202
4	0xbb5822e3	-0.0032979778
5	0x3c1eaf6b	0.009685378
6	0xbc077a25	-0.008268868
7	0x3c6d208b	0.014473091
8	0x3c88debb	0.016707769
9	0xbdcee8e4	-0.10103014
10	0x3c6b844d	0.014374805
11	0x3cbf9e5d	0.023390943
12	0x3b81de61	0.003963277
13	0xbace25cc	-0.0015727817
14	0x3c5b79ac	0.013395708
15	0x3c585e18	0.013206027
16	0x3c911961	0.017712297
17	0x3bc93684	0.006140532
18	0x3c5d806b	0.013519387
19	0x3c731bd6	0.01483818
20	0xb8eb311f	-0.00011214823
21	0x3b3e8499	0.0029070734
22	0x3c89c7e6	0.016818952
23	0xbd82566c	-0.0636414
24	0x3b850e3f	0.004060536
25	0x3c5fa398	0.013649844
26	0x3bd9b73c	0.0066441577
27	0x3bf06de9	0.007337321
28	0x3bf6b09f	0.007528379
29	0x3c112b07	0.008860356
30	0x3c7dc853	0.015489656
31	0x3c0146e8	0.0078904405
32	0x3bf451d0	0.007456042
33	0x3c922c6a	0.017843444
34	0x3bdba5aa	0.0067030983
35	0x3c63bc1b	0.013899828
36	0x3cc27ace	0.023740198
37	0x3bd60260	0.006531045
38	0x3c03ea73	0.0080515025
39	0xbb5d546c	-0.0033772243

weight f4 [2, 40]
0	0xbf8ceb8d	-1.1009384
1	0x3f94f6f6	1.1637866
2	0x3f740a89	0.95328575
3	0xbf975e61	-1.1825677
4	0x3fa31b68	1.2742739
5	0x3f4b0442	0.7930337
6	0x3f8eae48	1.1146936
7	0xbf86df94	-1.0536981
8	0xc0030285	-2.0470288
9	0xbdc1dd3c	-0.09466025
10	0xbf90c1b7	-1.1309117
11	0xbf646dbc	-0.8922994
12	0x3f88548f	1.0650805
13	0x3fa10af6	1.258147
14	0xbfa3e45a	-1.2804062
15	0xbfb28606	-1.3947151
16	0xbfd963e4	-1.6983609
17	0xbf92808c	-1.1445479
18	0xbf860e0d	-1.0473038
19	0xbfd3ba79	-1.6541282
20	0x3f8270b7	1.0190648
21	0x3f75cc21	0.960146
22	0xbf7d933c	-0.99052787
23	0xbe3ee0fa	-0.18640509
24	0x3f955f5b	1.1669725
25	0xbf8d83bb	-1.1055826
26	0x3f98f88e	1.1950853
27	0xbf925848	-1.1433191
28	0xbfad55c4	-1.3541799
29	0xbf8bc549	-1.0919582
30	0xbf942745	-1.1574484
31	0x3f871dcb	1.0555967
32	0xbf8a1d56	-1.0790203
33	0xbf857701	-1.0426942
34	0x3f941ddf	1.1571616
35	0xbf8aa22e	-1.0830743
36	0xbfe22434	-1.7667298
37	0x3f96c215	1.1777979
38	0xbf774ef7	-0.96604866
39	0x3fb6a812	1.4270041
40	0x3f8fe08c	1.1240401
41	0xbf97f907	-1.1872872
42	0xbf681580	-0.90657806
43	0x3f8a0957	1.07841
44	0xbf961498	-1.1725035
45	0xbf5a9298	-0.85379934
46	0xbfad89b6	-1.3557651
47	0x3f9b5c34	1.2137513
48	0x3ff1f402	1.890259
49	0xbd70a2bd	-0.05874895
50	0x3f93b2c5	1.1538931
51	0x3f6b6958	0.91957617
52	0xbf968907	-1.1760567
53	0xbfa1fa03	-1.2654423
54	0x3fb13e4f	1.384714
55	0x3f9de08b	1.233415
56	0x3fc31073	1.5239395
57	0x3f8d4fad	1.103994
58	0x3f588bcf	0.8458833
59	0x3fc7bddd	1.5604817
60	0xbf8a1c93	-1.078997
61	0xbf876a2b	-1.0579275
62	0x3f8c2a5c	1.0950427
63	0x3d8c9993	0.068652295
64	0xbf8a2c2f	-1.0794734
65	0x3f783cbf	0.9696769
66	0xbf934bb7	-1.1507481
67	0x3f9edbdc	1.2410846
68	0x3f9c909e	1.2231634
69	0x3f9e26e4	1.2355618
70	0x3f5cfb10	0.8632059
71	0xbf6baa04	-0.920563
72	0x3f75442d	0.95807153
73	0x3f874e2f	1.0570735
74	0xbf874f47	-1.0571069
75	0x3f7cd936	0.9876894
76	0x3fe8cb1b	1.8186983
77	0xbf95436e	-1.1661203
78	0x3f822428	1.0167284
79	0xbfbc1faa	-1.4697163

bias f4 [2]
0	0x3e8e9ad1	0.2785249
1	0xbebabdf4	-0.36473048
